save_model/GCN-Cora-5-0.500000-0.100000-0.300000-dropout.pth (torch_old, 369741 bytes, 4 tensors)

gc1.weight f4 [1433, 64]
0	0x3e926852	0.28595215
1	0xbd85d743	-0.065351985
2	0xbb54ca1f	-0.0032469106
3	0xbcdcb885	-0.026943455
4	0xbe441ec5	-0.19152363
5	0xbe4ede89	-0.20202078
6	0xbbf00e7e	-0.0073259464
7	0xbe3bf9fd	-0.18357082
8	0xbb3e2970	-0.0029016398
9	0xb9ea9bcc	-0.00044748036
10	0xbec2866a	-0.37993175
11	0xb9e00d90	-0.00042734714
12	0xba9e6539	-0.001208461
13	0x3e286d62	0.16447976
14	0x3d817187	0.06320482
15	0xbecc5083	-0.39905176
16	0xbe7e7e3c	-0.24852842
17	0xbee01f69	-0.43773964
18	0x3a59ed6d	0.0008313272
19	0x3d02da53	0.03194649
20	0xb92d6f39	-0.0001654
21	0x3ed21136	0.41028756
22	0x3a696edb	0.00089047634
23	0x3e6443ac	0.2229144
24	0xbb1ac8a8	-0.0023618136
25	0xbe63d524	-0.22249275
26	0x3e88945e	0.26675695
27	0xbe5c607e	-0.21521184
28	0xbe1035b9	-0.14082994
29	0xbe3f20de	-0.18664882
30	0xbdb07cc9	-0.08617551
31	0x3e3aa9e4	0.1822887
32	0x3ec17aa0	0.37788868
33	0x3d06c469	0.032902155
34	0xbad346bc	-0.0016119103
35	0xb91f7d24	-0.0001521004
36	0xbebf38e0	-0.3734808
37	0x3ea90959	0.33014944
38	0x3f01e8df	0.5074596
39	0xbe03afd9	-0.1286005
40	0xbb224ca6	-0.0024764924
41	0x3ea555f0	0.32292128
42	0x3ec52dde	0.38511556
43	0x3e8d0bc9	0.27548054
44	0x3ee3deea	0.44506007
45	0x3ea432d8	0.3207004
46	0x3e986a15	0.29768434
47	0xbec4f0df	-0.3846502
48	0xbe0a4a7a	-0.13504973
49	0xbeaa5373	-0.33266792
50	0xbe1697a1	-0.1470628
51	0xbe405b90	-0.18784928
52	0xbe8443da	-0.25833017
53	0xbe4e73cf	-0.20161365
54	0x3839c4f2	4.4290857e-05
55	0xbe206e69	-0.15667118
56	0xbec85ff5	-0.3913571
57	0x3de11800	0.10990906
58	0xbee31881	-0.44354632
59	0xbd949518	-0.07255
60	0xbe94a300	-0.2903061
61	0x3e6beae6	0.23038825
62	0x3c10a15c	0.008827534
63	0xbec68f62	-0.38781267
64	0xbe130969	-0.14359058
65	0x3c39651b	0.011315609
66	0x3a2dd7ff	0.0006631612
67	0xbf0f07de	-0.5587138
68	0x3f07f018	0.5310073
69	0xbeff8b52	-0.4991098
70	0xbee27282	-0.44227988
71	0xbef17afb	-0.4716414
72	0x3a9dd61f	0.0012041962
73	0xbb46b6cc	-0.0030321358
74	0xbf09033e	-0.5352057
75	0x3a235d92	0.00062318996
76	0x3b686436	0.003546012
77	0xbed68d1f	-0.41904542
78	0x3ece0b51	0.4024301
79	0x3e7a2911	0.24429728
80	0xbf037529	-0.5135065
81	0xbe041191	-0.12897326
82	0x3a00e0a4	0.00049162866
83	0x3dafa1ce	0.08575784
84	0xbb5bd140	-0.003354147
85	0x3ec498ac	0.3839773
86	0xb9ee01a6	-0.00045396126
87	0x3ec50ea7	0.3848774
88	0xba431a0e	-0.0007442542
89	0x3ee159a2	0.44013697
90	0xbe49e272	-0.19715288
91	0x3e7ea8cb	0.24869077
92	0xbeafe612	-0.34355217
93	0x3ef9e8e1	0.48810485
94	0xbde08629	-0.10963089
95	0x3e84222d	0.25807324
96	0x3db03612	0.08604063
97	0xbdae54a7	-0.0851224
98	0xbb334ae3	-0.0027357868
99	0x3a992bf3	0.0011686072
100	0xbf01902b	-0.5061061
101	0xbed5f351	-0.41787198
102	0x3e956b3d	0.2918338
103	0xbef97980	-0.4872551
104	0x3ed93e95	0.4243056
105	0x3efb59d8	0.49091983
106	0xbcec54af	-0.028848974
107	0x3edca355	0.43093362
108	0xbef9e115	-0.48804536
109	0x3ee0aeb3	0.43883285
110	0x3ec74369	0.38918617
111	0xbebb3f6c	-0.36571825
112	0xbe488885	-0.19583328
113	0xbec37989	-0.3817866
114	0x3f0a578a	0.54039824
115	0xbf0a1ae5	-0.5394729
116	0xbedec2c9	-0.43507984
117	0x3e2b2e7f	0.16716956
118	0xb9d0f458	-0.00039854902
119	0xbd2aa23b	-0.04165862
120	0x3e65aeec	0.22430009
121	0x3ee68c2a	0.45028812
122	0xbec78730	-0.38970327
123	0xbb915399	-0.0044350144
124	0xbe8c0eda	-0.2735508
125	0x3f221670	0.63315487
126	0xbcd1c396	-0.025605958
127	0xbb4fe4fb	-0.0031722176
128	0x3e91244e	0.2834801
129	0x3c221f2c	0.009895127
130	0x3b43b967	0.0029865147
131	0x3bad7a6d	0.0052941353
132	0xbe5f0159	-0.21777858
133	0x3e8bac5b	0.27279934
134	0x3e7d776e	0.2475259
135	0xbe08be65	-0.1335388
136	0xbb371623	-0.0027936778
137	0x39d5ee8a	0.0004080425
138	0xbd22a061	-0.03970373
139	0x394b1d67	0.00019370542
140	0xbc6bda91	-0.014395372
141	0x3e725026	0.23663387
142	0xbd50dfe2	-0.05099476
143	0x3d78a30a	0.06070236
144	0xbd307304	-0.043078437
145	0xbe807a4e	-0.2509331
146	0xb968b61d	-0.00022193087
147	0x3e8d376e	0.27581352
148	0x3a99386d	0.001168979
149	0x3eb70b20	0.35750675
150	0x39891787	0.00026148206
151	0x3e2fe59e	0.17177436
152	0x3b72083a	0.0036931173
153	0xbea5ef49	-0.32409123
154	0xbe824f2f	-0.25451037
155	0xbf01e597	-0.5074095
156	0x3eae60ff	0.34058377
157	0xbec14a40	-0.3775196
158	0x3e7b2329	0.24525131
159	0x3e4d24d0	0.20033574
160	0x3eb2cf4b	0.34923777
161	0x3e68a5b6	0.22719464
162	0x3a5353ac	0.00080614793
163	0x3a06b28c	0.00051383
164	0xba901706	-0.001099319
165	0x3eb9560f	0.3619847
166	0x3eaff41c	0.34365928
167	0xbc473468	-0.012158491
168	0xbe5f5684	-0.21810347
169	0x3e69166d	0.22762461
170	0x3db76018	0.08953875
171	0x3bda3628	0.006659288
172	0x3ee9b5f8	0.45646644
173	0x3e4dabb8	0.20085037
174	0x3e088039	0.13330163
175	0xbed05c9f	-0.40695664
176	0x3e2ef2f2	0.17084864
177	0x3ea06612	0.31327873
178	0xbe9d3826	-0.307069
179	0xbeddb266	-0.4330017
180	0xbe7124a1	-0.23549129
181	0x3eb99b57	0.36251327
182	0xbb1c9f3b	-0.002389862
183	0xbe470836	-0.19436726
184	0xbeefc8fa	-0.4683302
185	0xbeafbbaf	-0.3432288
186	0xbe6362d8	-0.22205675
187	0xbd3ff290	-0.046862185
188	0xbe9579ce	-0.29194492
189	0x3de3599a	0.111010745
190	0x3e51ed5e	0.20500705
191	0xbe970e98	-0.29503322
192	0xbeda76d8	-0.42668796
193	0x3ec15e6d	0.37767354
194	0xba3c602d	-0.0007185962
195	0xbe3f9ada	-0.18711415
196	0x3eef3219	0.4671791
197	0xbe9c7ca5	-0.30563846
198	0xbe9c187c	-0.3048743
199	0x3db881c6	0.09009127
200	0xba417464	-0.0007379709
201	0xbab38b68	-0.0013698163
202	0xbe993ab7	-0.29927608
203	0xbb387641	-0.0028146657
204	0x3b791c79	0.0038011356
205	0xbeb1c1f7	-0.34718296
206	0x3e395832	0.1810005
207	0x3e16d4b1	0.14729573
208	0xbc9af8c9	-0.018917458
209	0x3ecd3b8f	0.40084502
210	0x3ab207e7	0.0013582677
211	0x3d8d7cd8	0.06908578
212	0xb8f7c94a	-0.00011815371
213	0x3d86089c	0.06544611
214	0xbac47748	-0.0014989162
215	0xbe9750aa	-0.2955373
216	0x3a9f81bd	0.0012169402
217	0x3ed035ae	0.40665954
218	0xbf1ec4ea	-0.62019217
219	0x3ea10cfe	0.31455225
220	0xbe3f4a28	-0.18680632
221	0x3ee0d0cf	0.43909308
222	0xbd0d6c13	-0.034526896
223	0xbdabe631	-0.08393515
224	0xbd2bfeae	-0.04199093
225	0xbe2951bc	-0.16535085
226	0xb84197d3	-4.6156183e-05
227	0xb9a65747	-0.00031727014
228	0xbe87bd3c	-0.26511562
229	0xbef3cef8	-0.47618842
230	0xbed99769	-0.4249833
231	0x3d98f9cc	0.0746952
232	0x3ecc37cf	0.3988633
233	0xbd5b73c6	-0.053577207
234	0xbe3fbef0	-0.1872518
235	0x3e10c960	0.14139318
236	0xbeb54c4d	-0.35409775
237	0xbc01e2ea	-0.007927636
238	0x3e889054	0.26672614
239	0x3e2a2be3	0.16618304
240	0xbd1cbc31	-0.03826541
241	0x3dc03b5a	0.093863204
242	0x3ed6ff07	0.41991445
243	0x3dd15177	0.10220616
244	0xbd416924	-0.04721941
245	0x3eb09eec	0.34496248
246	0xbad1b5e8	-0.0015999647
247	0x3f06c859	0.52649456
248	0x3eea3d74	0.4575001
249	0x3ead1950	0.33808374
250	0xbdd18aec	-0.10231575
251	0xbe7dc5f9	-0.24782552
252	0x3da3cdc0	0.07998228
253	0x3ea4bcf4	0.3217541
254	0x3dd27453	0.10276093
255	0x3f085295	0.5325101

gc1.bias f4 [64]
0	0x3e09b04d	0.1344616
1	0x3e0d8ec7	0.13823996
2	0xbb5b7798	-0.0033488031
3	0x3e0e3636	0.13887867
4	0x3de9fbfa	0.11425014
5	0x3e0cf6ae	0.13765976
6	0x3e50e386	0.20399293
7	0x3e44799e	0.19187018
8	0xbd541b2f	-0.051783737
9	0xbd4b69bd	-0.049661387
10	0x3e1cb4df	0.15303372
11	0xbd25da5f	-0.040491458
12	0xbd561ea2	-0.052275307
13	0x3e38d4b5	0.18049891
14	0x3dd41207	0.10355001
15	0x3e26b72d	0.16280814
16	0x3e142f33	0.1447113
17	0x3e27550f	0.16341041
18	0xbb620834	-0.0034489753
19	0x3e526179	0.20544995
20	0xbd9a1892	-0.07524218
21	0x3e300f7f	0.17193411
22	0xbcbc6ec2	-0.023002032
23	0x3e0b04a6	0.13575992
24	0xbc686902	-0.014185192
25	0x3e283cac	0.16429394
26	0x3e1a9646	0.15096387
27	0x3e0deec1	0.13860609
28	0x3e2067c9	0.15664591
29	0x3db81da7	0.08990031
30	0x3e16591f	0.14682434
31	0x3e091ac5	0.13389118
32	0x3e1927aa	0.14956537
33	0x3e24a13d	0.16077133
34	0xbd41cfd9	-0.04731736
35	0xbcd8dcd7	-0.026472492
36	0x3e0c6424	0.13710076
37	0x3e2751f3	0.16339855
38	0x3e106b7d	0.14103504
39	0x3e0519b1	0.12998082
40	0x3dd338a9	0.103135414
41	0x3e2ad787	0.1668378
42	0x3e0db0a6	0.13836917
43	0x3e45639b	0.19276278
44	0x3e20a4fe	0.1568794
45	0x3e15182f	0.14560007
46	0x3e1af59f	0.1513276
47	0x3e189288	0.14899647
48	0x3e11d44b	0.1424114
49	0x3e320d8e	0.17387983
50	0x3e0f1a5e	0.13974902
51	0x3e11da6a	0.14243475
52	0x3e240638	0.16017997
53	0x3e433f7d	0.19067188
54	0xbd412ff7	-0.047164883
55	0x3e2eae8a	0.17058769
56	0x3e1dc186	0.15405855
57	0x3de2659d	0.110545374
58	0x3e19e5c2	0.15029052
59	0x3e280577	0.16408335
60	0x3e363bf6	0.17796311
61	0x3e13498d	0.14383526
62	0x3db27d13	0.08715262
63	0x3e0fe9e5	0.14054067

gc2.weight f4 [64, 7]
0	0xbf43e305	-0.7651828
1	0xbf31b832	-0.69421685
2	0x3f7c5884	0.98572564
3	0x3f6c26ca	0.9224669
4	0x3f2efd75	0.68355495
5	0xbeae618c	-0.34058797
6	0xbf33a32a	-0.70170844
7	0xbf084063	-0.53223246
8	0xbc725664	-0.014791105
9	0xbf5de599	-0.86678463
10	0x3ec0ca73	0.37654456
11	0x3f77dab9	0.9681812
12	0xbf555743	-0.83336276
13	0x3f1984cd	0.5996826
14	0x3c00b170	0.007854804
15	0xbbc07a0e	-0.005873925
16	0xbadccc8e	-0.001684563
17	0xbc658d42	-0.014010729
18	0xbb90efc3	-0.004423113
19	0x37e1c178	2.6912181e-05
20	0xbb3eda43	-0.0029121793
21	0x3e83b6f4	0.2572552
22	0xbf79d897	-0.97596115
23	0x3f3a3059	0.7273002
24	0xbf51576d	-0.81774026
25	0x3f4ec96e	0.8077611
26	0xbf3b0098	-0.7304778
27	0x3f3e8522	0.74421895
28	0xbf02040a	-0.50787413
29	0x3f42ab72	0.76042855
30	0xbf24af80	-0.6433029
31	0x3f4d41ca	0.8017851
32	0xbf559aa8	-0.8343911
33	0xbf0b2897	-0.5435881
34	0xbd653f0e	-0.055968337
35	0x3f3d3b0b	0.7391822
36	0xbf60511e	-0.87623775
37	0xbf0d97a9	-0.5530954
38	0xbf1d778a	-0.6151053
39	0x3f25407e	0.6455153
40	0xbf39efd0	-0.7263155
41	0xbf29ce34	-0.66330266
42	0xbe1f53fa	-0.15559378
43	0xbf3d98d3	-0.74061316
44	0xbf407bc2	-0.7518884
45	0xbe2448f7	-0.16043459
46	0x3f62521c	0.8840654
47	0xbf4d33f3	-0.80157393
48	0xbf06c7a8	-0.526484
49	0x3f501f88	0.8129811
50	0x3d3c6154	0.045991257
51	0x3ed29c1b	0.41134724
52	0xbf273f80	-0.6533127
53	0x3f177c35	0.591739
54	0xbf3fdd1a	-0.7494675
55	0x3ea1acd0	0.31577158
56	0xbc6bcce3	-0.0143921105
57	0x3b91ca75	0.0044491836
58	0x3c634bfe	0.013873098
59	0xbbb9853a	-0.005661634
60	0xbc414e19	-0.011798405
61	0xbc493227	-0.012280024
62	0xbbc9e95c	-0.006161852
63	0x3b56f606	0.003280045
64	0x3bc906c5	0.00613484
65	0xba9b4292	-0.0011845401
66	0x3c1893b5	0.00931256
67	0x3ba49e50	0.005023755
68	0xbc3f67bb	-0.011682446
69	0xbb2bd6de	-0.00262206
70	0x3f1c5e57	0.6108145
71	0xbf321881	-0.6956864
72	0x3f15eb37	0.58562034
73	0x3ebfe646	0.37480372
74	0xbf1bdac0	-0.6088066
75	0xbf60d3b2	-0.8782302
76	0xbf4ddc28	-0.80414057
77	0x3c1317c3	0.008977833
78	0x3c3ecd2c	0.0116455965
79	0x3b4fd183	0.0031710572
80	0xba17e64a	-0.00057945086
81	0xbba3894c	-0.0049907323
82	0xbbd9d961	-0.006648228
83	0x3b0984f7	0.0020983794
84	0xbe3248a7	-0.17410527
85	0x3e7d3d99	0.24730529
86	0xbea01bb6	-0.31271142
87	0xbd9d00d3	-0.07666173
88	0x3b93455e	0.004494353
89	0x3df7fda3	0.12108924
90	0x3d79f028	0.061020046
91	0xbeabb209	-0.33534268
92	0xbf570a39	-0.83999974
93	0x3f6fb2f7	0.93632454
94	0x3dbc2f69	0.0918873
95	0x3edab0f8	0.4271314
96	0xbedfd4fd	-0.43717185
97	0xbf81e4c9	-1.0147945
98	0xbf32689c	-0.6969087
99	0xbf0d4445	-0.55182296
100	0xbf694cb5	-0.9113267
101	0x3f35603c	0.70849967
102	0xbf2a95e6	-0.66634977
103	0x3f50081c	0.81262374
104	0x3f40b8b1	0.75281817
105	0x3f0cba1e	0.5497149
106	0x3f2044ba	0.6260487
107	0x3f37a2e7	0.71732944
108	0x3f2f1db7	0.68404716
109	0xbf5b837e	-0.85747516
110	0xbf6e59e6	-0.93105924
111	0xbf85de22	-1.0458415
112	0x3f7206f2	0.9454185
113	0xbf158401	-0.58404547
114	0xbf45de19	-0.7729202
115	0xbf145296	-0.57938516
116	0x3eb7e247	0.35914823
117	0xbdad8264	-0.08472136
118	0x3e308327	0.1723753
119	0x3f783dd7	0.9696936
120	0x3ecdad39	0.4017122
121	0xbf154d7f	-0.58321375
122	0xbf160a7a	-0.58609736
123	0xbf26a8c6	-0.6510128
124	0xbf1a0af8	-0.60172987
125	0x3f03e6d3	0.51524085
126	0x3942fb5c	0.0001859492
127	0x3c55cd50	0.013049439
128	0x39c4895f	0.00037486383
129	0x3a47ab28	0.0007616752
130	0x3b0fda71	0.002195027
131	0xbaa4e4fd	-0.0012580451
132	0xba880141	-0.001037635
133	0x3eb276a9	0.34856156
134	0x3ea62e66	0.32457274
135	0xbe9b72fa	-0.30361158
136	0xbeabb722	-0.33538157
137	0xbe3523fe	-0.17689511
138	0x3eaee3a7	0.3415806
139	0xbeb19199	-0.34681395
140	0x3bb7b274	0.00560599
141	0xbb4d9d9b	-0.0031374458
142	0xbc39b326	-0.011334216
143	0xba8e17ca	-0.001084083
144	0x3b3fcc27	0.0029265971
145	0xbc4845e5	-0.012223695
146	0xbc373980	-0.011183143
147	0xbefcc669	-0.49370125
148	0x3f46c53c	0.77644706
149	0x3efa17cf	0.4884629
150	0xbf479550	-0.7796221
151	0x3ec57e73	0.38573036
152	0x3f0c940e	0.54913414
153	0xbf1165b8	-0.56795835
154	0x3d98b3b1	0.074561484
155	0xba802dee	-0.0009779313
156	0xbb591986	-0.0033126785
157	0xbd87ad3e	-0.0662484
158	0x3c387031	0.011257217
159	0xbc81a4d6	-0.01582567
160	0xb9dc028b	-0.00041963565
161	0xbf43fb80	-0.76555634
162	0xbef9046c	-0.48636186
163	0xbf5a03c4	-0.85161996
164	0x3f5f5ff5	0.87255794
165	0xbf42e2db	-0.76127404
166	0x3f6b972a	0.92027533
167	0xbf2f6389	-0.68511254
168	0x3b14097c	0.002258866
169	0x3c7a3a66	0.015272712
170	0xbbddaacd	-0.006764746
171	0x3bf5edb3	0.0075051426
172	0xbb6a6aaf	-0.0035769155
173	0x3b3b510b	0.002858224
174	0x3afb15a2	0.0019156227
175	0x3f344f87	0.7043385
176	0x3f246a68	0.64224863
177	0xbf76caf4	-0.9640343
178	0xbf1847c7	-0.59484524
179	0xbf685bbe	-0.9076499
180	0x3f20c09d	0.62793905
181	0x3f5d927f	0.8655166
182	0xbefd74bc	-0.49503124
183	0xbf714701	-0.9424897
184	0x3f2c3762	0.6727201
185	0xbf067902	-0.52528393
186	0xbf506d97	-0.8141722
187	0x3f4c35a3	0.79769343
188	0x3f1e2542	0.617756
189	0xbf291147	-0.6604199
190	0xbf31cf25	-0.694567
191	0x3f34f5be	0.7068747
192	0x3f09a8d9	0.53773266
193	0xbf6806e9	-0.90635544
194	0xbf6e508c	-0.93091655
195	0x3f355403	0.70831317
196	0x3e29cb40	0.1658144
197	0xbf443dda	-0.7665688
198	0xbf17d1de	-0.59304607
199	0x3f6f0111	0.93361
200	0x3f5d748a	0.8650595
201	0xbed04bf5	-0.4068295
202	0xbf350741	-0.70714194
203	0xbf5edca2	-0.8705541
204	0x3f1df4e7	0.61701816
205	0xbf4b1a06	-0.79336584
206	0x3f0bb883	0.5457842
207	0xbf552913	-0.832658
208	0xbf49939d	-0.78740865
209	0x3f2aa277	0.6665415
210	0xbf0156ac	-0.50522876
211	0xbf626e70	-0.88449764
212	0xbf43effc	-0.7653806
213	0x3f61aa40	0.88150406
214	0x3f0871e6	0.53298795
215	0xbf21a33b	-0.63139695
216	0xbf533c4c	-0.8251388
217	0xbf6deb20	-0.929369
218	0xbf3a9835	-0.728885
219	0xbf76e7c4	-0.96447396
220	0x3f3a79a1	0.7284184
221	0x3f1596b8	0.58433104
222	0x3eb8aa5a	0.36067468
223	0x3e086b87	0.13322268
224	0xbec7248c	-0.3889507
225	0x3e826ba3	0.25472745
226	0xbf800998	-1.0002928
227	0xbf2dc5e2	-0.6788007
228	0x3f1cc440	0.61236954
229	0x3f1fab9a	0.6237122
230	0xbf37dd32	-0.7182189
231	0xbeeb3e54	-0.4594599
232	0xbeee576e	-0.4655108
233	0xbedd127b	-0.43178162
234	0x3f58ae2b	0.8464076
235	0x3f4d4ab3	0.80192107
236	0xbef157ab	-0.47137198
237	0xbf25da44	-0.6478617
238	0x3c491f29	0.012275496
239	0x3c307f69	0.010772564
240	0xbb61236d	-0.003435339
241	0x3bd7a616	0.0065810783
242	0xbbbf3ce6	-0.005836117
243	0x3c066a33	0.008204031
244	0x3b9a3106	0.004705551
245	0x3a108257	0.0005512586
246	0xb7a59f30	-1.974366e-05
247	0xbae0c376	-0.0017148096
248	0xbbda30a8	-0.0066586323
249	0x3b24c0dd	0.002513937
250	0xbb1f993f	-0.0024352816
251	0xba2262aa	-0.00061945117
252	0x3f426439	0.7593418
253	0xbf2c5a8e	-0.67325675
254	0xbf1c7de0	-0.6112957
255	0x3f36987e	0.71326435

gc2.bias f4 [7]
0	0x3be025cc	0.0068404432
1	0x3dea8674	0.11451426
2	0x3e827d8d	0.25486413
3	0x3e5c7e6a	0.21532598
4	0x3e19a53d	0.1500444
5	0x3e68deb7	0.22741209
6	0xbedcc50e	-0.4311909
