save_model/GCN-Citeseer-20-0.700000-0.500000-0.300000-dropout.pth (torch_old, 950601 bytes, 4 tensors)

gc1.weight f4 [3703, 64]
0	0x3dbb8c86	0.09157662
1	0xbde39a77	-0.11113446
2	0x3dac4a82	0.08412649
3	0x3d004a81	0.031321052
4	0xbdb9c606	-0.09070973
5	0xbdff6fa3	-0.12472465
6	0x3db25145	0.08706907
7	0x3e00a391	0.12562396
8	0xb85d8830	-5.281734e-05
9	0xbda959a8	-0.08269054
10	0x3cfb2edd	0.030661995
11	0xbe04cc56	-0.12968573
12	0xbd203592	-0.03911359
13	0x3d9d2a8b	0.0767413
14	0x3dd3b460	0.10337138
15	0xb80ad312	-3.309834e-05
16	0x3dd65740	0.1046586
17	0x3d56522e	0.052324466
18	0xbdd1baae	-0.102406844
19	0xbd87775d	-0.066145636
20	0x3d17fa69	0.037104044
21	0x380187e8	3.088257e-05
22	0xbd241f37	-0.04006883
23	0xbd1795d7	-0.037008133
24	0x3db071d0	0.08615458
25	0xbd6b685a	-0.057472564
26	0x3d06ea13	0.032938074
27	0xbdeb1604	-0.114788085
28	0x3cd3c7f7	0.025852187
29	0xbdaf09fd	-0.08546827
30	0x37149bbb	8.857746e-06
31	0xb886a951	-6.4211556e-05
32	0x3d648d35	0.055798728
33	0xbdb1ea08	-0.08687216
34	0x3d89ed91	0.06734765
35	0x3d9d01d5	0.07666365
36	0x3c8be694	0.017077722
37	0xbd919cd0	-0.07109988
38	0x3da216b9	0.0791449
39	0x3e10ca48	0.14139664
40	0x376cf8aa	1.4124593e-05
41	0xbdea8d20	-0.11452699
42	0x3d94c24e	0.07263623
43	0xb836a1df	-4.3542936e-05
44	0xbd89ef5f	-0.067351095
45	0xbd3d12b2	-0.046160407
46	0xbd86c485	-0.06580452
47	0xbc996896	-0.018726628
48	0xbc5cf69e	-0.0134865325
49	0x3d65619d	0.056001294
50	0xbd8f0b5b	-0.06984588
51	0x3e032e8e	0.12810728
52	0xbd5178f3	-0.051140737
53	0xb5d324e7	-1.5731465e-06
54	0x3749d365	1.2029753e-05
55	0x3d94f973	0.07274141
56	0x3d6191af	0.055070575
57	0x3dbbc052	0.091675416
58	0xbd783728	-0.060599476
59	0xbd0c59a1	-0.034265164
60	0x38704a14	5.728945e-05
61	0xbc3712fe	-0.011173962
62	0xbdd2a9cd	-0.10286293
63	0xbd4005c4	-0.0468805
64	0x3e7d3a31	0.2472923
65	0xbe6d34dc	-0.23164696
66	0x3d8757df	0.06608557
67	0x3c5573ad	0.013028068
68	0xbe77f6d9	-0.24215259
69	0xbdb04e7a	-0.08608718
70	0x3e656ab9	0.22403993
71	0x3e862f7a	0.26208097
72	0xb53cfa87	-7.0400023e-07
73	0xbc6f38bf	-0.014600932
74	0xbdae81d4	-0.085208565
75	0xbebf9f16	-0.3742606
76	0x3d911f2d	0.070860244
77	0x3d6b41d0	0.05743581
78	0x3e8b5ea3	0.2722064
79	0x37c483e6	2.342644e-05
80	0x3e95ed40	0.2928257
81	0xbc5f7d25	-0.013640677
82	0xbe9238ae	-0.28558868
83	0xbe7fb2c0	-0.24970531
84	0xbdc1c87c	-0.094620675
85	0xb561f1bf	-8.417082e-07
86	0x3dbdaf59	0.092619605
87	0x3d3c5f81	0.045989517
88	0xbcf7e01e	-0.030258235
89	0xbd2260d1	-0.039643113
90	0xbd4e3740	-0.05034566
91	0xbea09469	-0.31363228
92	0xbdae31d2	-0.08505596
93	0xbe754623	-0.23952536
94	0xb881ff6f	-6.1987776e-05
95	0xb70745ff	-8.062924e-06
96	0x3d159ea0	0.03652823
97	0xbbd274ea	-0.0064226286
98	0xbc88664d	-0.016650343
99	0x3e7805c9	0.24220957
100	0xbddb2387	-0.10700136
101	0x3cbafc22	0.022825304
102	0x3d1eff8d	0.03881793
103	0x3ecde892	0.402165
104	0x37e2524b	2.697962e-05
105	0xbe9b235f	-0.30300424
106	0x3e971825	0.29510608
107	0xb6aeebca	-5.2130536e-06
108	0xbbb62615	-0.005558739
109	0xbde0066c	-0.10938725
110	0xbe7e5da9	-0.24840416
111	0x3c813e45	0.015776763
112	0x3e76e054	0.24109012
113	0x3e6c6c5c	0.23088211
114	0xbe9939b6	-0.29926842
115	0x3e95b5b5	0.29240194
116	0xbea488e2	-0.32135683
117	0xb8466d49	-4.730866e-05
118	0xb930d8a3	-0.00016865371
119	0x3e8dff2e	0.2773375
120	0xbd413f6c	-0.047179624
121	0xbd6a283c	-0.057167277
122	0xbe627941	-0.22116567
123	0x3d9c2664	0.0762451
124	0xb8438d26	-4.6623078e-05
125	0x3d9c419f	0.07629704
126	0xbd3457fa	-0.044029213
127	0x3d98b389	0.074561186
128	0xbc414250	-0.011795595
129	0xba0a2397	-0.00052695855
130	0xbbc02217	-0.005863439
131	0xbc84da7e	-0.016217466
132	0x3bd634d7	0.0065370607
133	0xbb97316c	-0.004614046
134	0xbb9d14ba	-0.0047937306
135	0x3a53623a	0.0008063648
136	0x375deda7	1.3227959e-05
137	0xbca424df	-0.020037113
138	0x3c086b61	0.008326382
139	0xbb7bf8c6	-0.003844784
140	0x3bc39331	0.0059684743
141	0xbcb2f85c	-0.021846943
142	0xbbfeb2f8	-0.0077727996
143	0x36abf3bd	5.124572e-06
144	0xbbaf957b	-0.0053583956
145	0x3c35e8aa	0.011102835
146	0x3b350615	0.0027622033
147	0xbc003b53	-0.007826644
148	0x3b9e4e74	0.0048311297
149	0xb77b7553	-1.49880825e-05
150	0x3956c42f	0.00020481714
151	0x3c04129e	0.008061079
152	0xbbc2cab8	-0.005944576
153	0x3c550014	0.013000507
154	0xbc5c681b	-0.013452555
155	0x3c5756c4	0.013143245
156	0xbceaaf08	-0.028647915
157	0x3abfcb37	0.0014632706
158	0x382695e5	3.9717084e-05
159	0xb677cc0c	-3.692464e-06
160	0x3bbdf19c	0.0057966243
161	0x3bf47f0b	0.0074614338
162	0x3c8357ec	0.016033135
163	0xbc2372b2	-0.009976076
164	0x3c2567bf	0.010095536
165	0xbb3c18ea	-0.0028701373
166	0xbc01562b	-0.007894079
167	0x3acfa2be	0.0015841348
168	0x37ca5b47	2.412278e-05
169	0x3b6346af	0.0034679582
170	0xbc699837	-0.014257482
171	0xb865ebe2	-5.4817538e-05
172	0xbcc1869e	-0.02362376
173	0x3c81dcc5	0.015852341
174	0x3c775932	0.015096949
175	0x3b4fd0d0	0.0031710155
176	0x3c350452	0.011048393
177	0x3c06f3ef	0.008236869
178	0xbc4a847a	-0.012360686
179	0x3c0321ab	0.008003633
180	0x3c01ee69	0.007930377
181	0xb783036c	-1.561801e-05
182	0x380d6647	3.3712273e-05
183	0x3c075d0d	0.008261931
184	0x3af9aa38	0.0019047922
185	0xbc0d5487	-0.00862611
186	0x3c3c6de0	0.011500806
187	0x3b8b4212	0.0042498196
188	0xb77bcd2d	-1.5008537e-05
189	0xbbda8820	-0.0066690594
190	0x3b87b3ad	0.004141292
191	0xbb7abca6	-0.0038259416
192	0xbce2c64a	-0.027682442
193	0xbc919119	-0.017769383
194	0x3d9f41b5	0.077762045
195	0x3b9817dc	0.004641516
196	0xba5795cc	-0.00082239206
197	0xbd54e8d9	-0.051979873
198	0x3ce8381c	0.028347068
199	0x3b27e1d9	0.0025616793
200	0xb8152159	-3.5555426e-05
201	0xbca85146	-0.020546567
202	0xbabefe5f	-0.0014571658
203	0xbca752a5	-0.02042515
204	0xbc1dccb0	-0.009631321
205	0xbc0e0825	-0.008668934
206	0x3d3ea675	0.046545465
207	0xb81d5cda	-3.751819e-05
208	0x3cf2a8af	0.02962145
209	0x3c5ae5c4	0.013360444
210	0xbc507edd	-0.012725559
211	0x3ca4bc44	0.020109303
212	0xbbb3149d	-0.005465104
213	0xb7d9d2ba	-2.5966543e-05
214	0xbc4c35d8	-0.012464009
215	0x3c9f3be9	0.019437747
216	0x3d18c45f	0.03729665
217	0xbce206b6	-0.02759109
218	0x3d159cb8	0.03652641
219	0x3ce0d0fd	0.027443403
220	0x3d1df093	0.038559508
221	0xbcdd70b0	-0.027031273
222	0x38474949	4.751355e-05
223	0x378b2b9d	1.65904e-05
224	0x3d9eace3	0.07747819
225	0xbd12f63f	-0.03587937
226	0x3c2491a6	0.010044491
227	0x3ca91200	0.020638466
228	0x3c897c44	0.016782887
229	0xbc164c7c	-0.009173509
230	0x3c7e418b	0.015518556
231	0x3c03b42d	0.008038563
232	0x37bfb253	2.2852013e-05
233	0xbc18b218	-0.009319805
234	0xbc030d67	-0.007998801
235	0x3759c64a	1.2980376e-05
236	0xbd28df88	-0.0412288
237	0xbcc2dca7	-0.023786856
238	0xbc60c9b7	-0.013719968
239	0xbc1bcb5d	-0.009508935
240	0x3c276afe	0.01021838
241	0xbcdc8e27	-0.026923252
242	0x3ce3e07f	0.027817009
243	0xbd1bd16e	-0.038041525
244	0xbcf7c350	-0.0302445
245	0x36321281	2.6534838e-06
246	0xb80fa279	-3.424517e-05
247	0xbd720a9a	-0.05909214
248	0x3b5bbcb7	0.003352923
249	0x3bc98edf	0.0061510648
250	0xbc86c724	-0.01645238
251	0x3d132d22	0.035931714
252	0x37a77074	1.9960316e-05
253	0xbb9f086d	-0.0048532994
254	0xbd30946a	-0.04311029
255	0xbd083976	-0.033257924

gc1.bias f4 [64]
0	0x3d703c4a	0.058651246
1	0x3d7ab12f	0.06120413
2	0x3d8b5494	0.06803241
3	0x3d8fc780	0.070204735
4	0x3da446a8	0.08021289
5	0x3da9eac5	0.08296732
6	0x3d8482f7	0.06470292
7	0x3d875b3f	0.06609201
8	0xbd0aa35a	-0.03384719
9	0x3d88c177	0.066775255
10	0x3d90e428	0.07074767
11	0x3da90a23	0.082538866
12	0x3e12825a	0.14307538
13	0x3d811928	0.06303626
14	0x3d83c32d	0.06433711
15	0xbca94c20	-0.020666182
16	0x3d7efec3	0.06225468
17	0x3d711b3e	0.05886387
18	0x3d8b1db0	0.06792772
19	0x3dab1b61	0.083548315
20	0x3d9251c8	0.07144505
21	0xbc9e0434	-0.019289114
22	0x3da110a7	0.07864504
23	0x3d9a653e	0.07538842
24	0x3d8e7b74	0.069571406
25	0x3dd5b307	0.104345374
26	0x3d93009c	0.071778506
27	0x3da928cf	0.08259737
28	0x3daed48a	0.08536632
29	0x3d930852	0.07179321
30	0x35b7c993	1.3693228e-06
31	0xbbec0104	-0.0072022695
32	0x3d8c60c2	0.068543926
33	0x3dbc8f5e	0.092070326
34	0x3d867e4e	0.065670595
35	0x3d7bc392	0.061465807
36	0x3d896d02	0.06710245
37	0x3d9a6657	0.07539051
38	0x3d83b0e5	0.06430224
39	0x3d147909	0.03624824
40	0xbd4dd524	-0.050252095
41	0x3dce214e	0.10064946
42	0x3d80918f	0.06277763
43	0xbcc72fc4	-0.024314769
44	0x3d9aa601	0.07551194
45	0x3d4e18cd	0.05031662
46	0x3dc417e2	0.09574868
47	0x3db37ef0	0.08764446
48	0x3d44a084	0.048004642
49	0x3d909787	0.070601515
50	0x3dac5c50	0.08416045
51	0x3d5856c2	0.052817114
52	0x3db8bfb7	0.09020942
53	0xbb3abff9	-0.0028495772
54	0xbbd13caa	-0.0063854055
55	0x3d554060	0.052063346
56	0x3d8d1b67	0.06889992
57	0x3d6b1fd0	0.057403386
58	0x3dacc0e9	0.08435232
59	0x3d8fa9da	0.070148185
60	0xbb238302	-0.0024949913
61	0x3d8f052f	0.069834106
62	0x3d8c1d6d	0.0684155
63	0x3d72105c	0.059097633

gc2.weight f4 [64, 6]
0	0x3f6622bb	0.89896744
1	0x3f883a5f	1.0642813
2	0xbfa65497	-1.2994565
3	0xbf830a21	-1.0237466
4	0x3f97b891	1.18532
5	0xbf9bb5be	-1.2164838
6	0xbf8da70d	-1.1066605
7	0xbf8378b3	-1.027121
8	0xbfafb9eb	-1.3728613
9	0x3f864528	1.0489855
10	0xbf9e07a9	-1.2346088
11	0x3f8b49c1	1.0881883
12	0xbf82eedb	-1.0229143
13	0xbf8d8a19	-1.1057769
14	0x3fc13843	1.5095295
15	0xbfad7d8d	-1.355394
16	0x3fa7168d	1.3053757
17	0x3f940aaf	1.156576
18	0xbe5791b5	-0.21051677
19	0x3f8537b8	1.0407629
20	0xbfa980ca	-1.3242428
21	0xbf8f391b	-1.1189302
22	0x3f6e9f84	0.9321215
23	0x3f7996d7	0.9749579
24	0xbf8fc98c	-1.1233382
25	0xbfa0cc3b	-1.2562326
26	0x3fa8d5fb	1.3190302
27	0x3f8f25c6	1.1183403
28	0xbf8bfccc	-1.0936522
29	0x3f92b9ee	1.1462991
30	0x3f8c9cb2	1.098532
31	0x3f8ea38c	1.114366
32	0xbfb5f702	-1.4216006
33	0x3f896bff	1.0736083
34	0xbfa4fcd1	-1.2889653
35	0x3f7635c9	0.9617582
36	0x3f4ea93a	0.8072697
37	0x3f872d30	1.0560665
38	0x3fa216ff	1.2663268
39	0xbf9e8d70	-1.2386913
40	0x3f9216b3	1.1413177
41	0xbf98fc59	-1.195201
42	0x3f9a0adf	1.2034568
43	0x3f714a52	0.9425403
44	0x3faa1d36	1.3290164
45	0xbf97bed9	-1.1855117
46	0x3f9ae8fd	1.2102352
47	0xbf9f1e5e	-1.2431142
48	0xb6dccff0	-6.580718e-06
49	0x37fc21ae	3.0056424e-05
50	0xb81e1066	-3.7685408e-05
51	0xb8dddf2d	-0.00010579671
52	0xb897b521	-7.233979e-05
53	0xb97ae364	-0.00023926568
54	0x3fa85d91	1.3153554
55	0x3f9821b2	1.1885283
56	0xbfafa650	-1.372263
57	0xbfad00b2	-1.3515837
58	0xbfb3e1e9	-1.4053317
59	0x3fa56b3b	1.2923349
60	0xbfac0a0d	-1.3440567
61	0x3f907c7a	1.1287987
62	0xbfadc25f	-1.3574942
63	0x3f909405	1.1295172
64	0x3f8ec7ba	1.1154702
65	0xbf58325d	-0.8445185
66	0xbfb777b1	-1.4333402
67	0x3f979fb3	1.1845611
68	0xbfa2c1f4	-1.271544
69	0x3f9d369c	1.228229
70	0xbf8471c0	-1.0347214
71	0x3f9b5502	1.2135317
72	0x3f451be4	0.7699568
73	0xbea6f103	-0.32605752
74	0xbe6e0683	-0.23244672
75	0x3ea4e8b0	0.32208776
76	0xbf23e1c3	-0.6401636
77	0x3e9b5b94	0.30343306
78	0xbef3d6e1	-0.47624877
79	0x3fa819b9	1.313285
80	0xbf9ddae3	-1.2332424
81	0xbf8f3392	-1.1187613
82	0x3f97ed5f	1.1869315
83	0xbf542979	-0.8287578
84	0x3f6097b9	0.8773151
85	0xbf9a6227	-1.2061204
86	0xbf935833	-1.1511291
87	0xbf9ae25a	-1.2100327
88	0x3f9fe952	1.2493079
89	0x3f7e911f	0.9944019
90	0x392da8cc	0.00016561447
91	0xb827c6a2	-4.0000894e-05
92	0x3879ccde	5.9557024e-05
93	0xb90f0a2a	-0.00013641329
94	0x374a4227	1.20555405e-05
95	0x3796cc3b	1.7976496e-05
96	0x3fa05b52	1.2527869
97	0xbf946abd	-1.1595074
98	0xbf8f2c75	-1.1185442
99	0xbf90d32f	-1.1314448
100	0x3f8f37bb	1.1188883
101	0x3f902063	1.1259884
102	0xbf8c7b04	-1.0975041
103	0xbf553360	-0.8328152
104	0x3fb5e56f	1.4210643
105	0x3fa50c03	1.2894291
106	0x3f9bb56a	1.2164738
107	0xbf54c4da	-0.8311287
108	0xbf91fb09	-1.1404735
109	0xbe3bbdaf	-0.18334077
110	0xbfa13c9b	-1.259662
111	0x3f8afc64	1.0858274
112	0xbf9ee038	-1.2412176
113	0x3f905419	1.1275665
114	0xbfa72b29	-1.3060046
115	0x3f948866	1.1604125
116	0x3f9fd06e	1.2485483
117	0xbfa3514d	-1.2759186
118	0xbf8c3209	-1.095277
119	0x3f90efb3	1.132315
120	0xbfce71a3	-1.6128429
121	0x3f9f888f	1.2463549
122	0xbfb70578	-1.4298544
123	0x3f9b8aae	1.2151697
124	0x3fa386ae	1.2775476
125	0xbf9ed1ac	-1.2407737
126	0xb9a1262c	-0.00030736753
127	0xb9c4a5df	-0.00037507617
128	0xb9c56e87	-0.00037657117
129	0xb8350491	-4.3158016e-05
130	0x398fb86b	0.00027412488
131	0x39111abc	0.00013838237
132	0x3f9ceeb3	1.2260345
133	0x3f7b7b7d	0.98235303
134	0x3fa2edf1	1.2728864
135	0xbf0f2da9	-0.55929047
136	0xbfa1ce81	-1.2641145
137	0xbf8fa137	-1.1221074
138	0x3f8ca1c7	1.098687
139	0xbfb7ea14	-1.436831
140	0x3fa8e687	1.3195351
141	0x3e42459d	0.18971868
142	0xbfafbf5b	-1.3730272
143	0x3f98d41b	1.193973
144	0xbfc99db8	-1.5751257
145	0x3faf49a4	1.3694348
146	0x3f8bf8d9	1.0935317
147	0xbfa659ec	-1.2996192
148	0x3f9f4e57	1.2445782
149	0xbfa175ea	-1.261411
150	0x3f2125d2	0.62948334
151	0x3f43a41d	0.7642229
152	0x3f9c9982	1.2234347
153	0x3fa70c05	1.3050543
154	0xbf6c0ee6	-0.92210233
155	0xbf9d65ec	-1.2296729
156	0xbf93f288	-1.155839
157	0x3f2b123b	0.6682469
158	0xbf7eedc4	-0.9958155
159	0xbf767932	-0.9627868
160	0x3f8f8cce	1.1214845
161	0x3f905d49	1.1278468
162	0xbfad65f1	-1.3546735
163	0xbf978137	-1.1836308
164	0x3fbc72fc	1.472259
165	0x3f9fcfda	1.2485306
166	0xbf8f4563	-1.119305
167	0x3f98d34f	1.1939486
168	0xbfb73816	-1.4313991
169	0x3f412b71	0.7545691
170	0xbfaf2778	-1.368392
171	0xbfaf729e	-1.3706853
172	0x3f52a7e0	0.82287407
173	0x3f801e24	1.0009198
174	0xbf98340f	-1.1890887
175	0x3fae8971	1.3635694
176	0xbfabe049	-1.3427821
177	0x3fad4d75	1.3539263
178	0xbf856274	-1.042067
179	0xbf90e8d2	-1.1321051
180	0xb996ed40	-0.00028786995
181	0xb8dc6fe2	-0.00010511257
182	0x391c0357	0.00014878564
183	0xb9c64120	-0.00037814025
184	0xb986a09e	-0.0002567814
185	0x3a381745	0.00070225104
186	0x3807f5dc	3.2415483e-05
187	0xb7ad76fe	-2.0678617e-05
188	0xb7293e89	-1.0087745e-05
189	0xb8a8fb33	-8.057654e-05
190	0x37a555b5	1.9709443e-05
191	0x3837807d	4.3750264e-05
192	0xbfba3080	-1.4546051
193	0xbfa005ea	-1.2501805
194	0x3faa2336	1.3291996
195	0xbf9e13b1	-1.2349759
196	0x3f8be0f9	1.0928031
197	0x3f8ef255	1.1167704
198	0x3f75e519	0.960527
199	0x3f8812f4	1.0630784
200	0x3f773f93	0.9658138
201	0x3f8ec0e2	1.1152613
202	0xbfa2dda2	-1.2723887
203	0xbfa8892e	-1.3166864
204	0xbfa23e8d	-1.2675339
205	0xbf9ecc38	-1.2406073
206	0x3fa459c3	1.2839893
207	0x3f8d63e8	1.1046114
208	0x3fa3a76f	1.2785472
209	0xbfa3ab2a	-1.278661
210	0x3f8a69f9	1.081359
211	0xbf926ba1	-1.1439096
212	0xbf8f3653	-1.1188453
213	0xbf924490	-1.1427174
214	0x3f93afab	1.1537985
215	0x3f911c0a	1.1336682
216	0xbfbcc1d7	-1.4746655
217	0xbf80a5af	-1.0050563
218	0xbf97d16b	-1.1860784
219	0x3fa349a3	1.2756847
220	0x3f9e94a1	1.2389108
221	0x3f82252e	1.0167596
222	0x3f594d45	0.8488353
223	0xbf387511	-0.7205363
224	0xbf181603	-0.5940859
225	0x3f05fd29	0.52339417
226	0xbf7c4b7a	-0.9855267
227	0x3f732186	0.9497303
228	0xbf991b4e	-1.1961458
229	0x3f9a3065	1.2046019
230	0x3fb07a38	1.3787298
231	0xbf9a1383	-1.2037205
232	0x3fb51358	1.4146528
233	0xbf92b6dc	-1.1462054
234	0x3f9dd29e	1.23299
235	0xbfa12147	-1.258828
236	0xbf8c088f	-1.0940112
237	0xbf8b889a	-1.0901062
238	0x3f99cce5	1.2015654
239	0xbf984be6	-1.1898162
240	0x39522bbd	0.00020043454
241	0x390dc2a0	0.00013519311
242	0xb8db58c0	-0.00010459265
243	0x392ef6b2	0.00016685834
244	0x39fe92cb	0.00048556025
245	0xb790c74a	-1.7258939e-05
246	0xbf89b2fd	-1.0757748
247	0x3f8b3c51	1.0877782
248	0x3e5e4556	0.21706137
249	0x3f95330a	1.1656201
250	0xbf749ebb	-0.95554703
251	0x3eccacad	0.3997549
252	0x3f96a1b3	1.1768097
253	0x3fa61a62	1.2976801
254	0xbf9bde7a	-1.217727
255	0xbf93a090	-1.1533375

gc2.bias f4 [6]
0	0xbe09cf89	-0.13458075
1	0xbe9995f1	-0.2999721
2	0x3f20b9df	0.62783617
3	0x3c53fdce	0.01293893
4	0x3ecd8325	0.40139118
5	0x3e32ed45	0.17473324
