save_model/GCN-Cora-20-0.500000-0.100000-0.300000-dropout.pth (torch_old, 369739 bytes, 4 tensors)

gc1.weight f4 [1433, 64]
0	0x3e8fad50	0.28061914
1	0xbbca7ceb	-0.006179442
2	0xbe492738	-0.19643867
3	0xbe691c0b	-0.22764604
4	0x3dc88c0a	0.09792335
5	0x3d8e178a	0.069380835
6	0xbe3e17de	-0.18563792
7	0x3e5061bc	0.20349783
8	0x3e9db75a	0.3080395
9	0x3e2a7dd3	0.1664956
10	0x3eae8142	0.3408299
11	0xbe3d89a5	-0.18509538
12	0x3e853143	0.26014146
13	0x3e8ebf97	0.27880546
14	0x3a311ea6	0.0006756581
15	0xbc0316a1	-0.008001001
16	0xbe016cb8	-0.12639129
17	0x3ea93b28	0.33052945
18	0x3e908599	0.28226927
19	0xba9ea14b	-0.0012102512
20	0xb96c06d9	-0.00022509265
21	0xbe1bb2d3	-0.15204935
22	0x3e7a92e3	0.24470095
23	0xbe2ab1f2	-0.16669443
24	0x39fd88ad	0.00048357752
25	0xbd6766e6	-0.056494616
26	0xbab17563	-0.0013539012
27	0x3d1c3093	0.03813226
28	0xb85e9498	-5.3067313e-05
29	0x3e88f579	0.2674978
30	0x398311ff	0.00024999675
31	0xbe62eea9	-0.22161354
32	0xbdb2088c	-0.086930364
33	0xbd8ee420	-0.06977105
34	0x3e5c138f	0.21491836
35	0xbe0fdaef	-0.1404836
36	0xbe23421c	-0.15943187
37	0x3cdc1c68	0.026869014
38	0x3e685726	0.22689494
39	0x387ef3df	6.078544e-05
40	0x3e64b976	0.22336373
41	0x3eb266e8	0.34844136
42	0x3df416ba	0.11918397
43	0x3e424e41	0.18975164
44	0xbe3d5a46	-0.18491468
45	0x3e25010d	0.16113682
46	0xbd7190d3	-0.058976006
47	0xbd0c63cc	-0.03427486
48	0x3e9e3bad	0.30904904
49	0xbea9b36c	-0.331447
50	0xbe11e3ef	-0.14247106
51	0x3db35b7d	0.087576844
52	0xbdf6f2d0	-0.120580316
53	0x38a338f9	7.783058e-05
54	0x3c8bb9f6	0.017056447
55	0xb966d845	-0.00022015076
56	0x3da053f6	0.07828514
57	0x3e704482	0.23463634
58	0xb93b233f	-0.0001784684
59	0x3e13146a	0.14363256
60	0x3eb5b419	0.35488966
61	0xb938b754	-0.00017615902
62	0xbe3b0b67	-0.18266068
63	0xbde410bd	-0.11136005
64	0x3f1d274c	0.6138809
65	0xbcba43f5	-0.022737483
66	0x3e80bbb6	0.25143212
67	0x3ec14cf5	0.37754026
68	0x3f3d4d91	0.7394648
69	0x3e91ba71	0.28462556
70	0x3edf6f01	0.43639377
71	0xbec16336	-0.37771004
72	0xbecdee4a	-0.40220863
73	0x3e3deaab	0.1854655
74	0xbe0d6b52	-0.1381047
75	0xbdb56073	-0.08856287
76	0xbe00d281	-0.12580301
77	0xbe86d499	-0.26334074
78	0x39990ded	0.0002919281
79	0x3f0f406a	0.55957663
80	0xbf0c4b0d	-0.5480202
81	0xbed3ac93	-0.413426
82	0xbe3eedc5	-0.1864539
83	0x3850b171	4.975632e-05
84	0xb9dc1bfe	-0.00041982526
85	0x3f345ae9	0.7045122
86	0xbd195147	-0.037431028
87	0x3f20e296	0.6284574
88	0xba5e6a79	-0.00084844936
89	0x3e78a99a	0.24283448
90	0xb8ed6548	-0.00011319906
91	0xbea243ed	-0.31692448
92	0x3ab213a7	0.0013586179
93	0xbe3c0b23	-0.18363623
94	0xb8ccb7bb	-9.7617005e-05
95	0xbf1161e4	-0.56789994
96	0x3f19ea1d	0.60122854
97	0x3ed6d081	0.4195595
98	0xbeacb810	-0.3373418
99	0x3eeedcc4	0.46652806
100	0xbdaa3a74	-0.0831193
101	0xbef7c7d9	-0.4839466
102	0x3eb8fcf3	0.36130485
103	0x394476f7	0.00018736334
104	0xbdb0cd01	-0.086328514
105	0xbe15a960	-0.14615393
106	0xbef0d0cd	-0.47034302
107	0xbdf0f376	-0.117651865
108	0x3f16daca	0.58927596
109	0x3edf43c8	0.436064
110	0x3e8a33fd	0.2699279
111	0x3e86f274	0.26356852
112	0xbe87f24f	-0.26552054
113	0xbdf30bf9	-0.11867518
114	0xbe10926b	-0.14118354
115	0xbeccf9b9	-0.40034273
116	0xbec80885	-0.39069
117	0x390524b7	0.00012697546
118	0xbea7681c	-0.32696617
119	0x3a640467	0.0008698166
120	0xbee906e8	-0.45513082
121	0x3f0e8013	0.55664176
122	0xba2c31f1	-0.0006568721
123	0x3e48c9d7	0.19608246
124	0xbe1454a6	-0.14485416
125	0xbac96d16	-0.0015367593
126	0xbf2dbd82	-0.6786729
127	0x3f0c4043	0.54785556
128	0x3e6aee3d	0.22942443
129	0x3be24d01	0.0069061522
130	0xbe009e74	-0.12560445
131	0x3ed37665	0.41301265
132	0x3f0e951c	0.5569627
133	0xbe2237b6	-0.15841565
134	0xbd507d3b	-0.05090068
135	0xbd9d0845	-0.07667593
136	0x3e6f525f	0.23371266
137	0xbe6ddcf1	-0.23228814
138	0x3f063b35	0.5243409
139	0xbd1a23de	-0.037631862
140	0x3f00bf2c	0.50291705
141	0xbe3a3a65	-0.18186338
142	0xb894f26b	-7.102344e-05
143	0x3f19eb85	0.60125
144	0xbe9a098c	-0.3008541
145	0xbc131c59	-0.008978927
146	0x3c13fa28	0.00903181
147	0x3a5b5fa4	0.00083684386
148	0xb9003897	-0.00012228113
149	0x3e226e63	0.15862422
150	0xbef2b080	-0.47400284
151	0x3eb43b64	0.3520156
152	0x3794cc5d	1.7738139e-05
153	0xbe9371e5	-0.28797832
154	0x3ade775a	0.0016972825
155	0xbe8c0585	-0.2734796
156	0x3941a243	0.00018466362
157	0xbe338e57	-0.17534767
158	0x39f92fa0	0.00047528464
159	0xbf0c856d	-0.5489109
160	0x3ef5f079	0.4803503
161	0x3e9077f4	0.28216517
162	0xbe79afb2	-0.24383429
163	0x3dc51cb3	0.096246146
164	0xbd565b8b	-0.052333396
165	0xbea258de	-0.31708425
166	0x3ec70aa6	0.38875312
167	0x38b7ad44	8.758393e-05
168	0xbe97785a	-0.29584008
169	0x3e4e6048	0.20153916
170	0xbebcb605	-0.3685762
171	0xbe19ded5	-0.1502641
172	0xbd278a59	-0.040903423
173	0x3e8b718f	0.27235076
174	0x3eec62fc	0.4616927
175	0xbd9af4a3	-0.07566192
176	0xbd45cd20	-0.048291326
177	0xbf1c009a	-0.6093842
178	0xbe530280	-0.20606422
179	0xbe151a1d	-0.14560743
180	0xbf05ac6b	-0.52216214
181	0xbaaed18a	-0.0013337594
182	0x3c5f8e38	0.013644747
183	0xba41294e	-0.00073685206
184	0xbe595246	-0.21222791
185	0x3f04c11a	0.5185715
186	0xb91378c2	-0.00014063998
187	0x3ebb8f27	0.36632654
188	0xbdc0c14c	-0.094118685
189	0xbb0b7f84	-0.0021285722
190	0xbe4a0b4a	-0.19730869
191	0x3ee84533	0.45365295
192	0x3efa208e	0.48852962
193	0xbc6ff0e2	-0.014644833
194	0x3f2b02b8	0.66801023
195	0xbe75b965	-0.23996504
196	0xbeef9f2f	-0.46801135
197	0x3f1413be	0.57842624
198	0x3ee576bd	0.44817153
199	0xbd1e8de8	-0.03870955
200	0x3f1860e1	0.59522825
201	0x3eb9b329	0.362695
202	0xbf1f11a3	-0.62136286
203	0x3f097e73	0.5370857
204	0x3cae941b	0.021310857
205	0x3e7992b5	0.2437237
206	0x3a3860ae	0.00070334494
207	0x3ecf1dbf	0.40452382
208	0x3e9761f8	0.29566932
209	0xbed286c7	-0.41118452
210	0xbe3894b9	-0.18025483
211	0x3973ad42	0.0002323883
212	0xba2fc1f0	-0.0006704619
213	0xbcb7e537	-0.022448165
214	0x3d61f9e9	0.055169974
215	0x3c97d43e	0.018533822
216	0xba3cd7e8	-0.00072038034
217	0xbee5cf1e	-0.4488458
218	0xbabadfe6	-0.0014257401
219	0xbed46cd8	-0.4148929
220	0xb9558fa4	-0.00020366773
221	0xbec26cf7	-0.3797376
222	0x3a3f2ba9	0.00072925776
223	0x3effa36c	0.49929368
224	0x3ed7f0da	0.42175943
225	0xbd7911ef	-0.06080812
226	0xbed1d34c	-0.4098152
227	0x3ec14471	0.3774753
228	0xbf0b1783	-0.5433275
229	0xbd485b8e	-0.04891544
230	0xbdb0ef0f	-0.08639347
231	0xba886f18	-0.0010409085
232	0xbe49ccd3	-0.1970704
233	0xbf1a3e55	-0.6025136
234	0x3ebba4f4	0.36649287
235	0x3ecb8ef6	0.39757508
236	0x3ec78088	0.3896525
237	0x3e66f8a4	0.22555786
238	0xbf01e1e8	-0.5073533
239	0x3f3cf71c	0.7381456
240	0xbe5674a1	-0.20942928
241	0xbd5c7ce7	-0.053830054
242	0xbf0b005c	-0.54297423
243	0x3dd46bcf	0.10372125
244	0x3f06b0a6	0.52613294
245	0xb9f4f92f	-0.00046724963
246	0xbe22fe50	-0.15917325
247	0x3a4636d3	0.000756127
248	0x3cde6855	0.027149359
249	0xbef9dea4	-0.48802674
250	0xb8c134f3	-9.21282e-05
251	0xbe0f23b4	-0.13978463
252	0x3ea5de8e	0.32396358
253	0xbbd1007a	-0.0063782306
254	0x3e692853	0.22769289
255	0xbe685459	-0.22688426

gc1.bias f4 [64]
0	0x3e0da7af	0.13833497
1	0x3d4807ae	0.04883545
2	0x3e19e80e	0.15029928
3	0x3e0fa46a	0.14027563
4	0x3df428b4	0.11921826
5	0x3e2e4543	0.17018609
6	0x3e19a205	0.15003212
7	0x3dda575d	0.106611945
8	0x3dd752fa	0.105138734
9	0x3e5c631a	0.21522179
10	0x3dfc13a6	0.12308435
11	0x3dffe488	0.12494761
12	0x3dfc6c49	0.12325341
13	0x3e08a6eb	0.13344924
14	0xbb6475a7	-0.0034860165
15	0x3e08c032	0.13354567
16	0x3e05a912	0.13052776
17	0x3e0985e5	0.13429983
18	0x3df54b3d	0.11977241
19	0xbabe2258	-0.0014506085
20	0xbd99316f	-0.07480132
21	0x3e21e793	0.15810995
22	0x3e155063	0.14581446
23	0x3e2f5dbe	0.17125604
24	0xbc037b06	-0.008024937
25	0x3e230e37	0.15923391
26	0x3bd48a61	0.0064862226
27	0x3dda5877	0.106614046
28	0xbd13fa1d	-0.0361272
29	0x3ddf488d	0.1090251
30	0xbd3f29d2	-0.046670742
31	0x3dd6807a	0.10473724
32	0x3e1546b9	0.1457776
33	0x3e195fa8	0.14977896
34	0x3da928cb	0.08259734
35	0x3e118ec1	0.14214613
36	0x3e0c497b	0.13699906
37	0x3dae948b	0.08524426
38	0x3dbed86d	0.09318624
39	0xbcfc52bb	-0.030801168
40	0x3dfdb9e8	0.123889744
41	0x3dbf6f7e	0.09347437
42	0x3df68a99	0.12038154
43	0x3e00dc17	0.12583958
44	0x3e3332cf	0.1749985
45	0x3e018a38	0.12650383
46	0x3de3e8cb	0.11128386
47	0x3e1006bb	0.14065067
48	0x3de106c9	0.10987622
49	0x3e191cb0	0.1495235
50	0x3dd727e8	0.105056584
51	0x3e153385	0.14570434
52	0x3dc3af97	0.095549755
53	0xbcbee4c0	-0.023302436
54	0x3dce3b55	0.100699104
55	0xbd57d463	-0.052692782
56	0x3e149798	0.14510953
57	0x3e20c9e8	0.15702021
58	0xbd01d725	-0.03169932
59	0x3e1492c8	0.14509118
60	0x3e08f1e6	0.13373527
61	0xbc10965d	-0.008824912
62	0x3dbf5a4e	0.09343396
63	0x3dabc884	0.08387855

gc2.weight f4 [64, 7]
0	0xbf4bd59e	-0.7962283
1	0x3f842abe	1.0325544
2	0xbf85f7e4	-1.0466275
3	0x3f771620	0.96518135
4	0x3f6f2fe4	0.9343245
5	0xbf5c5c68	-0.860785
6	0xbf5b73d8	-0.8572364
7	0x3dc2f70a	0.09519775
8	0xbabb50a9	-0.0014291006
9	0x3d7d4fe1	0.061843757
10	0x3cccac73	0.024984574
11	0xbdf3df8d	-0.11907873
12	0x3d6b6aec	0.057475016
13	0xbdcad578	-0.09903997
14	0x3f0bdcac	0.54633594
15	0x3f4474a5	0.76740485
16	0x3e968f06	0.29405993
17	0x3f260183	0.64846057
18	0xbf7a1b82	-0.97698224
19	0xbf5a2323	-0.85209864
20	0x3f0e5dff	0.55612177
21	0x3ecc3d80	0.3989067
22	0x3f3d29cb	0.73891896
23	0x3f3de2b5	0.7417405
24	0xbf629647	-0.88510555
25	0xbf74971d	-0.9554308
26	0x3f4c0f8f	0.7971124
27	0x3e7da058	0.24768198
28	0xbf4cd685	-0.8001483
29	0x3f83b5c5	1.0289847
30	0x3f213abb	0.6298024
31	0xbf545b57	-0.82951874
32	0xbe6e2b4d	-0.23258705
33	0x3f69b554	0.9129231
34	0xbf8252a3	-1.0181469
35	0xbe2000d8	-0.15625322
36	0x3f2f6d27	0.6852593
37	0xbf663873	-0.89929885
38	0x3f8c29a4	1.0950208
39	0x3f102728	0.5630975
40	0xbf4e7049	-0.80640084
41	0x3e62d14b	0.22150151
42	0xbf4073cd	-0.751767
43	0x3f4b9b2b	0.7953364
44	0x3f3a1ac8	0.72697115
45	0x3f49b3e6	0.7879013
46	0xbf51a74c	-0.818959
47	0xbf4e5b24	-0.8060782
48	0x3f4be595	0.7964719
49	0x3f77ce36	0.9679903
50	0xbf5bfb53	-0.85930365
51	0xbf59641b	-0.84918374
52	0xbf3a77f5	-0.7283929
53	0x3ebedc33	0.37277374
54	0x3f6c5cbd	0.9232901
55	0x3f41a35f	0.7563991
56	0x3f90a7ac	1.1301169
57	0x3eabacbf	0.33530232
58	0xbf8e63eb	-1.1124243
59	0xbf7de6d1	-0.9918032
60	0x3f886cb2	1.0658171
61	0xbf897e4f	-1.0741671
62	0xbefb0341	-0.4902592
63	0x3ec55ac7	0.3854582
64	0xbd95b73b	-0.07310339
65	0xbf958dd1	-1.1683904
66	0xbd46b2a2	-0.0485102
67	0x3eadeb67	0.3396866
68	0x3f4d3071	0.8015204
69	0x3f53af31	0.82689196
70	0x3e96291d	0.29328242
71	0xbf07d4f9	-0.53059345
72	0x3f4191c6	0.7561306
73	0xbf352ecc	-0.7077453
74	0x3f4f8ba8	0.81072474
75	0x3f83f5d0	1.0309391
76	0xbf6b2147	-0.9184765
77	0x3f9116c5	1.1335074
78	0x3f56d2fe	0.839157
79	0x3ec53e85	0.3852426
80	0xbef10e7c	-0.47081363
81	0xbf6920b8	-0.9106555
82	0xbf87f3e8	-1.0621309
83	0x3efce4aa	0.49393207
84	0x3f00349a	0.50080264
85	0x3f5797e4	0.8421614
86	0x3f733db9	0.95016056
87	0xbf52a935	-0.8228944
88	0x3f7ac080	0.9794998
89	0xbf754c7c	-0.9581983
90	0xbf77c935	-0.9679139
91	0x3c113bf7	0.008864394
92	0xbf19f3b1	-0.6013747
93	0xbf3bb587	-0.73323864
94	0xbf1172c5	-0.5681575
95	0x3f699b4c	0.9125259
96	0xbf847150	-1.034708
97	0x3f2ea745	0.68223983
98	0xbb3990ec	-0.002831514
99	0xbbd478eb	-0.006484141
100	0xbaaf7772	-0.0013387038
101	0x38d9dfc3	0.00010389045
102	0xbb03e78d	-0.0020127029
103	0xbaecfe38	-0.0018081134
104	0x3b068278	0.0020524543
105	0x3f53cfda	0.8273903
106	0x3f61f491	0.88263804
107	0xbf84be14	-1.0370507
108	0xbf38643b	-0.7202794
109	0xbf36f138	-0.7146182
110	0x3f858e88	1.0434122
111	0xbf92dc01	-1.147339
112	0x3f8dce3b	1.1078562
113	0xbf820f27	-1.0160874
114	0x3f48b98d	0.7840813
115	0x3f0d164e	0.5511216
116	0xbf7479ac	-0.95498157
117	0xbf7b17ce	-0.980832
118	0xbf890409	-1.0704356
119	0x3efdd207	0.495743
120	0xbf807588	-1.0035868
121	0x3f0e638d	0.5562065
122	0x3e4af121	0.19818546
123	0x3f644069	0.8916078
124	0x3eafee8a	0.34361678
125	0xbf6834f3	-0.90705794
126	0x3f7128a3	0.9420263
127	0xbf8f502e	-1.1196344
128	0xbf8472d0	-1.0347538
129	0x3f6d8352	0.92778504
130	0x3f815984	1.0105443
131	0x3f88191c	1.0632663
132	0xbf838989	-1.0276347
133	0x3a07f0ee	0.00051857426
134	0xba5e2736	-0.0008474471
135	0xbb1b9a39	-0.0023743047
136	0x3af5802d	0.0018730216
137	0xbb1bbd50	-0.0023763962
138	0x3bb09459	0.005388778
139	0x3bb217c3	0.0054349615
140	0xbaa6a4a2	-0.0012713859
141	0x3a7bb163	0.0009601323
142	0x3b24cbb6	0.0025145835
143	0xba4ddded	-0.0007853199
144	0xbacc01a0	-0.0015564449
145	0x3b30e748	0.0026993323
146	0x3b3cf279	0.0028831048
147	0xbf62921e	-0.8850421
148	0x3f34d3e5	0.70635825
149	0x3e3498c0	0.17636395
150	0xbeb1a677	-0.34697315
151	0xbf419a11	-0.7562571
152	0x3f247deb	0.64254636
153	0x3f58c82f	0.84680456
154	0xbf750f10	-0.9572611
155	0xbf8202a0	-1.0157051
156	0xbf7fcd16	-0.9992231
157	0x3f58d019	0.8469253
158	0x3f640646	0.8907207
159	0xbf761cf6	-0.9613794
160	0x3f2ce3dc	0.67535186
161	0xbf89044d	-1.0704437
162	0x3f62e7c6	0.8863491
163	0xbf2237d3	-0.6336643
164	0x3f516252	0.8179065
165	0xbf87988a	-1.0593426
166	0x3f562454	0.8364918
167	0xbf72e19c	-0.948755
168	0xbaa74cfb	-0.0012764031
169	0xb931feb0	-0.00016974914
170	0xbabd0162	-0.0014419968
171	0xba197129	-0.0005853349
172	0xbadeedf8	-0.0017008176
173	0x3b882328	0.0041545816
174	0x3478b4d5	2.3162586e-07
175	0xbf59b395	-0.85039645
176	0xbf84937c	-1.0357509
177	0xbedfb3f2	-0.43691975
178	0x3f674f0b	0.90354985
179	0xbeca1d97	-0.394757
180	0x3f6c4b1a	0.92302096
181	0xbf197463	-0.5994322
182	0xbbf2c36b	-0.0074085495
183	0xbbbf6647	-0.00584105
184	0x3b369afe	0.0027863379
185	0xbbe45a8f	-0.0069688032
186	0x3bafd113	0.0053654998
187	0x3c231dd4	0.009955842
188	0xbb02bf08	-0.001995029
189	0xbf6f3d99	-0.93453366
190	0xbf80186b	-1.0007452
191	0x3f71910f	0.94361967
192	0x3f20963e	0.6272925
193	0x3eceb804	0.40374768
194	0xbf7c362b	-0.98520154
195	0xbee7640f	-0.45193526
196	0x39d59540	0.00040737726
197	0x3ab2ad57	0.0013631982
198	0x39415897	0.00018438917
199	0xb9e3a594	-0.0004342018
200	0xbadcf817	-0.0016858605
201	0xbaa79336	-0.0012784961
202	0xbb64a706	-0.0034889593
203	0x3e9d60b3	0.30737838
204	0xbf9040fd	-1.1269833
205	0xbf8e8bef	-1.1136454
206	0xbf6c36c5	-0.9227107
207	0x3f2d4262	0.6767942
208	0x3f609623	0.8772909
209	0x3f80a954	1.0051675
210	0xbb7cf331	-0.0038597102
211	0xbbbb9e96	-0.005725692
212	0xbbe760f6	-0.007061119
213	0xbba10242	-0.004913599
214	0xbc069219	-0.008213543
215	0xbb1eab59	-0.0024211018
216	0xbb6bfc0b	-0.0036008384
217	0x3f846407	1.0343026
218	0xbf9a5915	-1.2058436
219	0xbf46feff	-0.77732843
220	0xbf33675a	-0.70079577
221	0xbf72b693	-0.94809836
222	0xbf71d904	-0.94471765
223	0x3f77a156	0.96730554
224	0x3f31217f	0.69191736
225	0x3f8906d7	1.0705212
226	0xbf53d6c6	-0.82749593
227	0x3f4ff00d	0.81225663
228	0xbf4b7d27	-0.7948784
229	0x3f6bf4ab	0.9217021
230	0xbf87b4ed	-1.0602089
231	0xbf006d32	-0.5016662
232	0x3f1b00ea	0.6054827
233	0x3deecc0d	0.11660013
234	0xbf15a07a	-0.5844799
235	0xbf0cd843	-0.5501749
236	0x3f012cd6	0.5045904
237	0x3eed146e	0.4630465
238	0xbf618be2	-0.8810407
239	0xbf954569	-1.1661807
240	0x3f38ef29	0.7223993
241	0xbf5ba5d5	-0.85799915
242	0x3f6af8cc	0.91785884
243	0xbf74a039	-0.9555698
244	0x3f616545	0.8804515
245	0xbf313c79	-0.692329
246	0x3f560bb7	0.83611625
247	0x3f5dc2cf	0.8662538
248	0x3f0c1190	0.547143
249	0xbf0fa0ba	-0.56104624
250	0xbf928e5e	-1.1449697
251	0xbda7896d	-0.08180509
252	0xbf2672d2	-0.6501895
253	0xbf6beb78	-0.9215617
254	0x3f48ffce	0.78515327
255	0x3f78a65f	0.9712886

gc2.bias f4 [7]
0	0x3e11ef5e	0.14251468
1	0x3e309a53	0.1724637
2	0xbcef20b5	-0.0291904
3	0xbcece443	-0.028917437
4	0xbea9c7da	-0.33160287
5	0xbc53b84b	-0.012922357
6	0xbd46b858	-0.048515648
