save_model/GCN-Cora-3-0.500000-0.100000-0.300000-dropout.pth (torch_old, 369739 bytes, 4 tensors)

gc1.weight f4 [1433, 64]
000000 98 37 81 3d 30 3b 80 be ef 4c 3c be fd ac 1d 3c
       0.06309432 -0.25045156 -0.18388723 0.009623763
000010 4a e6 58 3e 9d 48 af 3d ba 32 32 be 60 8c e3 3d
       0.21181598 0.08558772 -0.17402163 0.11110759
000020 85 fa 8b be 6e ca 03 3d 98 ea ef bd d8 a6 00 bd
       -0.2733957 0.032175474 -0.11714667 -0.031409115
000030 61 5c af 3d 7d f8 35 be bd 1b 46 3e 10 71 86 be
       0.08562542 -0.17770572 0.19346519 -0.26258135
000040 84 5e 2a 3d 31 bb 65 bd 40 cc 9b be ea 9b 70 3e
       0.041594043 -0.056086723 -0.30429268 0.23496976
000050 dd f6 a6 3d 95 9c 30 3e 3b a6 d0 be e3 0a bd ba
       0.08152554 0.17247231 -0.40751824 -0.00144228
000060 18 f8 8a 3d 22 a2 40 3e 8c 08 a1 bd e5 ee 78 bd
       0.067856014 0.18811849 -0.07862958 -0.060774703
000070 28 d3 1d bc 70 3d c3 bb 70 84 ea bd d4 41 12 be
       -0.009632863 -0.0059582517 -0.11451042 -0.14282924
000080 0d 5d b3 3d 93 e2 12 3e 4d 7e eb 3d 6b 57 7a 38
       0.087579824 0.14344244 0.11498699 5.968606e-05
000090 83 fc e1 3d 69 24 43 3e 32 35 27 3e 1d a2 06 3e
       0.11034491 0.19056858 0.16328886 0.13147779
0000a0 7f a6 88 bd 00 1e 18 3d bd 5c 93 be 7b eb 40 be
       -0.066723816 0.037137985 -0.2878169 -0.18839829
0000b0 00 f7 9e bc 1b 91 58 3d 1a 88 a5 3e 77 8a 45 3e
       -0.019404888 0.05287276 0.323304 0.19291101
0000c0 e9 75 7e 3e 32 5e aa bc 1a 21 5d 3b ac 6e 8c be
       0.24849667 -0.020796869 0.0033741654 -0.27428186
0000d0 fc 6d 86 3e 20 b3 79 bd 20 c7 6f 3e 6a 52 af bd
       0.26255786 -0.060961843 0.23415804 -0.08560641
0000e0 6a 82 45 3e b5 e4 5f bd 5c 37 c9 3d 29 ab 27 be
       0.1928803 -0.05466147 0.09825012 -0.16373886
0000f0 49 f8 75 bc 51 db a8 3c 8f f7 c4 3d a0 d8 04 3e
       -0.015012809 0.02061239 0.096175306 0.12973261
000100 f8 82 d9 be 15 89 a9 3e 09 16 94 3e 3d 27 1a be
       -0.42482734 0.33112398 0.2892306 -0.1505403
000110 05 ba b1 be 33 97 33 be 69 0a a4 3e 0e b2 97 bd
       -0.34712234 -0.17538147 0.32039192 -0.07407008
000120 54 31 58 3d 64 69 94 be b8 be 82 3e 5c a7 8b be
       0.052781418 -0.28986657 0.25536132 -0.27276123
000130 1b 0c 39 be dc dd 0a 3e 04 0a 7e 3e b1 a5 0b be
       -0.18071024 0.13561195 0.24808508 -0.13637425
000140 0f 83 f3 3d 3d f1 8c bd 17 0d 58 3e ca 10 bb be
       0.11890232 -0.0688195 0.21098743 -0.36536247
000150 2c 1e 8a be e5 07 4b be 9d 2b 95 3d ba 64 06 39
       -0.26976144 -0.1982723 0.07283709 0.0001281676
000160 5b 76 41 bd 2b a8 80 3e da c0 15 bc ed fb 85 be
       -0.047232013 0.25128302 -0.009140218 -0.26168767
000170 28 34 24 be 8c 99 2a 3d 4b af f4 3d f6 fb c7 3e
       -0.16035521 0.04165034 0.11947497 0.39059418
000180 73 25 4c be 3d b1 8b 3e e6 bf 5b 3d 13 f1 49 3a
       -0.1993616 0.2728366 0.053649805 0.00077034644
000190 94 b5 48 3d ff 54 f9 be c0 93 cf bd 6f ea a5 be
       0.04900129 -0.4869766 -0.10135603 -0.3240542
0001a0 61 e1 df 3e fb 61 e7 39 c5 ee 00 3f 63 04 f3 3e
       0.43726638 0.00044132755 0.50364333 0.47464284
0001b0 01 84 af 3c 1b e7 36 3d 2e 09 af bd 57 b5 88 be
       0.021425249 0.044653993 -0.08546673 -0.2670085
0001c0 7d dc 00 3b 1b 26 b4 3e 79 22 cd ba cc 08 63 3e
       0.0019662671 0.35185322 -0.0015650532 0.22171324
0001d0 49 90 4b be 59 db c0 be 7c e8 da be fe 44 30 3e
       -0.19879259 -0.3766735 -0.42755497 0.17213818
0001e0 e1 4b 36 3c 66 2c 15 be 70 56 87 3e 37 c2 0a 3f
       0.011126489 -0.14567718 0.26433134 0.542026
0001f0 36 73 07 3f d6 b0 77 3d fe 0a 60 be 36 67 a5 bc
       0.5291017 0.06047138 -0.21879193 -0.020190816
000200 45 af ad bd f3 8a 30 be a9 cb 5d be 1b e1 83 be
       -0.08480696 -0.17240505 -0.21659721 -0.2575768
000210 bb 41 b5 3e f3 f2 ec bc 15 77 5a 3e d7 09 93 3e
       0.3540171 -0.028924441 0.21334489 0.28718445
000220 be 1f 2d be 6d 6e cf 3e 49 c7 05 bf e1 ea b6 3d
       -0.1690664 0.40513936 -0.5225721 0.08931518
000230 02 b3 1d be 77 70 c4 bd d5 c5 86 be 85 ad 46 be
       -0.15400317 -0.095917635 -0.2632281 -0.1940213
000240 e5 f2 a5 3e 6f 0e d0 3e 86 e0 13 bf 15 60 1f 3f
       0.32411876 0.40636012 -0.5776447 0.62255985
000250 8b cc be 3d 69 51 0f be fa 1d a4 be a4 8c 61 3a
       0.09316357 -0.139959 -0.3205412 0.0008604026
000260 c0 99 fa 3e 29 a4 5f bd 3c b8 23 be 6a e8 e2 be
       0.48945427 -0.054599915 -0.15988249 -0.44317943
000270 d9 bb 91 3e 84 98 d0 be 5d 72 85 bd 63 3c d6 be
       0.2846363 -0.4074136 -0.06515954 -0.41842946
000280 0f ac 5b be a8 37 03 3f ad 10 f3 3e 77 30 b9 3b
       -0.21452354 0.512568 0.4747366 0.0056515294
000290 99 51 d5 3e d8 1a 34 3e 01 74 fb bd 80 a6 b2 bd
       0.41663817 0.17588365 -0.12277985 -0.087231636
0002a0 19 72 83 be 34 55 3b 3e e5 b7 09 be 1e 94 cf be
       -0.25672987 0.18294221 -0.13449056 -0.40542692
0002b0 d2 18 d1 3d c9 d9 c0 3e 7b 05 f1 3e 8f f1 29 3d
       0.10209812 0.37666157 0.47074494 0.041490134
0002c0 80 9c 03 3f 35 4a aa be cf 4b 63 3b 65 f0 ae be
       0.51410675 -0.3325974 0.0034682637 -0.3416778
0002d0 ce 07 60 3e a7 97 83 be ee 65 cf 3d ce f3 94 be
       0.21877977 -0.2570164 0.101268634 -0.29092258
0002e0 3d 9b 08 3e 90 2d 67 3e b2 14 85 bd b7 e4 3b bc
       0.13340469 0.22575974 -0.06498088 -0.011468104
0002f0 c8 10 10 3e b8 e5 f1 3e ad fa f5 3e b6 54 95 3e
       0.14068902 0.47245574 0.48042813 0.29166192
000300 8b c8 12 3e ca 1b d5 3e 28 a2 9a 3e 70 7f 54 3e
       0.14334314 0.41622764 0.3020184 0.20751739
000310 77 c8 db be 8b ce 76 3c 01 20 e6 3e 50 40 4d 3e
       -0.4292638 0.015063892 0.44946292 0.20044065
000320 50 a1 ff 3e bc 4e df 3e d7 59 78 3e 02 43 a2 3e
       0.4992776 0.43614757 0.24253021 0.31691748
000330 cc 8a 69 bd 0b fb 09 3f 64 3e d5 be 6b ff f8 3e
       -0.057017133 0.53898686 -0.41649163 0.48632368
000340 3e 4d 87 be fc 3c 28 3e 4f 97 bc 3e 65 06 67 be
       -0.2642612 0.16429514 0.3683419 -0.22561033
000350 e3 12 bf 3d 94 10 1d be 87 89 df 3e bc 0b 89 b9
       0.09329774 -0.15338355 0.43659613 -0.0002613942
000360 c0 2c 24 3e f2 85 c6 be cd 33 91 3e ff b8 b4 3e
       0.16032696 -0.38774067 0.28359833 0.3529739
000370 c2 c2 e7 3e 86 cf 50 3d 25 42 88 3e cf b5 b7 3d
       0.45265776 0.05097916 0.26612964 0.08970224
000380 9f cb 21 be 88 5f 72 bd 71 2b 3e 3d e8 c7 c5 ba
       -0.15800332 -0.059173137 0.046428148 -0.0015089484
000390 af 94 1e be f3 d8 91 be 16 f2 b1 be a9 4a 86 be
       -0.15486406 -0.28485832 -0.3475501 -0.26228836
0003a0 4b 12 44 3e ce 93 aa 3e d0 83 31 3e f3 c0 1e 3e
       0.19147603 0.3331589 0.17335439 0.15503292
0003b0 37 d4 c2 bd cb cf 43 3e be d5 f3 be 8d 67 4d be
       -0.09513133 0.19122235 -0.4762401 -0.20059033
0003c0 01 31 db be 7f c8 5e 3e 19 3f f8 ba 49 b2 15 3f
       -0.42810825 0.2175617 -0.0018939703 0.58475167
0003d0 ea b5 ba be 63 6d d7 3e 5e 96 34 be 31 d9 91 3e
       -0.36466914 0.42075643 -0.17635486 0.28486016
0003e0 70 65 a5 be 4c 0e be 3e 7e b6 41 be dc 86 b4 3e
       -0.32303953 0.37120283 -0.18917271 0.3525914
0003f0 af e3 80 be 35 2f f5 3d c4 b2 1d 3e b0 2e 9b 3c
       -0.2517371 0.11971895 0.15400225 0.01894316

gc1.bias f4 [64]
000000 03 b3 21 3e 4a 11 a1 3d 50 92 da 3d 36 91 14 3e
       0.15790944 0.07864626 0.10672438 0.14508519
000010 39 1b 6a 3e da 6b 00 3e 65 9a d1 3d c1 e7 14 3e
       0.22861947 0.12541142 0.102345265 0.14541532
000020 97 49 e6 3d 47 29 03 3e 3b 3e 30 3e 31 03 01 3e
       0.11244505 0.12808715 0.17211239 0.12598874
000030 af 57 eb 3d 86 9f 3a 3e 82 5e 3f 3e 05 b9 11 3e
       0.11491334 0.18224916 0.18688396 0.14230736
000040 bf d3 5b 3e 77 93 01 3e 4b 19 fb 3d 37 f8 32 3e
       0.21467493 0.1265391 0.122606836 0.17477499
000050 aa ff 00 3e 68 a0 03 3e 51 29 df 3d db 9d 47 bd
       0.12597528 0.12854159 0.10896552 -0.048734527
000060 c3 c9 20 3e e0 7b 14 3e 1b ae 62 3e 62 96 14 3e
       0.15701966 0.1450038 0.22136728 0.14510491
000070 5e 21 f4 3d e6 91 0d 3e 86 ec ad 3d 3b ab 38 3e
       0.11920427 0.13825187 0.08492379 0.18034069
000080 26 a4 02 3e 1a 4d 38 3e ee 8e 2e 3e 1d 37 20 bd
       0.1275793 0.17998162 0.17046711 -0.03911506
000090 7e 2b df 3d 15 08 43 3e fb 8c 2a 3e 93 db 1d 3e
       0.10896967 0.19046052 0.16655342 0.15415792
0000a0 ed 74 f1 3d 96 fc cd 3d f1 fb c5 3d d3 7f ca 3d
       0.1178988 0.100579426 0.09667195 0.09887662
0000b0 28 0a 1e 3e 56 8f 11 3e 0d 18 2c 3e df 5b 24 3e
       0.15433562 0.14214835 0.1680605 0.16050671
0000c0 c4 e9 58 3e d8 08 1b 3e 4c c6 7b bd 9f 9e e7 3d
       0.21182925 0.15140092 -0.061468408 0.113095514
0000d0 71 e1 17 3e 67 a0 18 3e 8b ab 0a 3e 57 7c 0e 3e
       0.14832093 0.14904939 0.13542001 0.1391462
0000e0 e4 88 12 3e 4c 63 ee 3d ab 52 35 3e c1 a0 0e 3e
       0.14310032 0.11640033 0.17707317 0.1392851
0000f0 d8 2a 0b 3e 33 03 ee 3d c3 65 f2 3d ef cb 2b 3e
       0.13590562 0.11621704 0.11835816 0.16777013

gc2.weight f4 [64, 7]
000000 98 56 f0 3e ae 5b 73 3e c7 00 ec 3e 70 08 4d bf
       0.46941066 0.23765442 0.46094343 -0.80091
000010 fc d3 14 3f 51 93 78 bf 9f 38 67 bf 59 3e 06 bf
       0.5813596 -0.97099787 -0.9032077 -0.52438885
000020 95 eb 19 3f 64 9f 69 bf 9d 2e ee 3e c3 64 52 bf
       0.60125095 -0.91258836 0.46519938 -0.82185
000030 3c cb 18 bf 6c 15 44 bf 5a 83 1b bf e7 50 54 3f
       -0.5968511 -0.7659519 -0.607473 0.8293595
000040 16 8f c1 be d5 b5 57 3f 78 be 44 bf 68 83 06 bf
       -0.37804478 0.8426183 -0.7685313 -0.5254426
000050 62 82 d2 3d 1b ea 52 be da 35 53 3e d9 79 56 3f
       0.10278775 -0.20597117 0.20626011 0.83779675
000060 f1 5c 15 3f 01 1d 2c bf 22 4b a6 be e0 9e f2 bd
       0.5834494 -0.67231756 -0.32479197 -0.11846709
000070 c1 65 05 3f e6 ba 17 bf 89 46 d8 3e b1 0f 09 bf
       0.5210839 -0.5926956 0.42241314 -0.5353957
000080 14 58 1e 3f 7b bd 28 3f 9f 6a 4d be e7 d3 05 3f
       0.61853147 0.65914124 -0.20060204 0.5227646
000090 1b bf 4c 3f 02 10 47 3f b4 bc 3e bf 6b c0 2b 3f
       0.79979104 0.777588 -0.7450669 0.6709048
0000a0 9f f0 ac 3e 61 9b 3f bf 57 b4 2d bf fb b5 29 3f
       0.3377733 -0.74846464 -0.678533 0.66293305
0000b0 3e 75 6c bf 6f e7 00 3f d8 05 3e bf 7b 65 e7 3e
       -0.923664 0.5035314 -0.74227667 0.4519461
0000c0 57 76 48 bf c8 53 f6 be eb 82 c2 be 31 3f b0 be
       -0.7830557 -0.48110795 -0.37990507 -0.3442321
0000d0 d0 bf 36 3f ff 37 64 3e e0 4d d0 be 85 e3 0d be
       0.7138643 0.22286986 -0.40684414 -0.13856323
0000e0 17 27 03 3f 79 99 5b 3f 27 cf cf be c6 8c 54 3f
       0.5123152 0.85781056 -0.40587732 0.83027303
0000f0 79 8d 3c bf 3c 19 40 bf f7 49 08 bf 85 3d ff 3d
       -0.7365337 -0.75038505 -0.5323786 0.12462906
000100 9f af 14 bf 08 05 4d bf 9e 33 11 3f 13 13 10 3f
       -0.58080477 -0.800858 0.56719387 0.56279105
000110 4c bd 39 bf e7 bb 0f bf df a5 0c 3f f2 d0 03 3f
       -0.7255447 -0.5614609 0.549406 0.514907
000120 bd 3c 25 3f 18 e9 1f bf d0 e3 5b bf ef 90 43 bf
       0.64545804 -0.6246505 -0.8589449 -0.76393026
000130 bc a2 41 3f ae 41 6e be ae f4 44 3f bd af c3 be
       0.7563894 -0.23267242 0.7693585 -0.38220015
000140 79 d1 d9 3e 7e 5f 5a 3f f1 6f 22 bf 1c df 00 bf
       0.42542627 0.8530196 -0.6345206 -0.5034044
000150 ac 2c 19 bf 8e 94 44 3f ab 6e 30 3f 65 1b 31 bf
       -0.5983379 0.76789176 0.68918866 -0.69182426
000160 84 a9 21 3f 9a 65 03 bf 65 a3 55 bf 5c 9e 3e 3f
       0.63149285 -0.51326907 -0.83452445 0.7446039
000170 0d e7 01 bf 6d 94 2c bf 89 00 0d 3f d4 20 ab be
       -0.5074318 -0.6741398 0.5507894 -0.33423483
000180 0e 8d 22 bf 5c 75 32 3f fc c4 7e 3e 63 8c 42 bf
       -0.6349648 0.69710326 0.24879831 -0.75995463
000190 7b 7f 4f 3f 67 46 3f bf 92 04 43 bf e3 91 24 3f
       0.81053895 -0.747168 -0.7617885 0.64285105
0001a0 5f c9 0c 3f 11 cb 36 3f a9 c1 4c 3f ba 79 ab be
       0.5499477 0.71403605 0.79983 -0.33491307
0001b0 d7 fe 35 3f 70 67 dc be e2 15 70 bf 72 34 ec be
       0.7109198 -0.43047667 -0.9378339 -0.46133763
0001c0 49 96 29 3f f9 99 5e bf a6 35 3e bf 82 c2 21 bf
       0.6624494 -0.86953694 -0.7430061 -0.6318742
0001d0 01 92 57 3e e3 b9 54 3f 4d 12 77 3d 15 2c 36 3f
       0.2105179 0.8309614 0.060320187 0.71161014
0001e0 dc 06 e8 3e e7 fe 39 bf 1e f4 3d bf ac af 31 3f
       0.45317733 -0.72654575 -0.7420062 0.6940868
0001f0 31 66 2a 3f 99 46 35 bf a1 ce 4a 3f 72 3a 61 3f
       0.6656218 -0.7081085 0.7922154 0.87979805
000200 7c d3 1d 3c 4a 65 35 bf 99 41 2f bf 50 a7 18 bf
       0.009632941 -0.7085768 -0.6845947 -0.596303
000210 00 12 33 3f c2 90 e5 3e 3c ca 4e bf 43 90 08 bf
       0.6994934 0.44837004 -0.80777335 -0.53345126
000220 a9 8c ed 3e c5 34 5c 3f 26 a8 05 3f e1 89 52 bf
       0.46396378 0.8601802 0.522097 -0.82241637
000230 e8 3f 62 bf e7 b4 13 3f 77 54 d7 3e 12 d3 2a 3f
       -0.88378763 0.5769791 0.4205663 0.6672832
000240 59 02 4d 3f f9 a8 30 bf 16 26 eb be a4 65 5f bf
       0.8008171 -0.6900783 -0.45927495 -0.87264466
000250 99 9c 20 bf 97 7d 58 3f a1 34 1a 3f 3c f4 62 bf
       -0.6273895 0.84566635 0.60236555 -0.8865392
000260 21 ac 25 bf c4 cd 9a be a5 e4 43 3f 53 88 81 3f
       -0.6471577 -0.30235112 0.7652076 1.0119728
000270 c1 df 63 bf 70 68 02 bf ff 28 1b bf c0 d2 74 bf
       -0.89013296 -0.5094061 -0.6060943 -0.9563408
000280 4c 48 13 bf 9d eb 6e bb 34 9b 6f bc c5 c7 44 bb
       -0.5753219 -0.0036456354 -0.014624406 -0.0030026298
000290 92 06 50 bc d8 a4 ba bb a6 4f 64 3b 7c 1f e0 ba
       -0.012696879 -0.0056959204 0.0034837513 -0.0017099227
0002a0 52 2e 0d bf 6d b5 9e 3e a8 85 c2 be 09 e0 0c 3f
       -0.55148804 0.30997792 -0.37992597 0.5502935
0002b0 7b 7e 2d 3f 31 27 a5 3e 3b 3a 18 bf 92 41 29 bf
       0.6777112 0.32256463 -0.5946385 -0.6611568
0002c0 1b 30 f3 3e eb 2f 1a 3f a0 7b 3f bf 24 c1 15 3f
       0.4749764 0.60229367 -0.7479801 0.58497834
0002d0 a3 e1 fd 3e a1 a8 0e 3f e9 05 12 3f dd e2 f8 be
       0.4958621 0.5572606 0.5704027 -0.48610583
0002e0 5b c7 b8 be 6c 7e c9 3e 6d 27 eb be a7 68 d9 be
       -0.36089596 0.39354265 -0.45928517 -0.42462656
0002f0 62 92 f8 3e b8 3b 1e 3f 27 0d e2 3e f3 fd 08 3f
       0.4854918 0.61809874 0.4415066 0.53512496
000300 90 4b 29 bf b1 8c 1d bf 62 19 46 bf 3f b7 58 bf
       -0.66130924 -0.61542803 -0.7738248 -0.8465461
000310 ed 66 a6 3e 58 28 0c bf 2f b6 10 bf a3 48 3d 3f
       0.325004 -0.5474906 -0.5652799 0.7393896
000320 6b 5f 07 bf 51 f2 d4 be ac cd 51 bf ed 87 2a 3e
       -0.5287997 -0.41591123 -0.81954455 0.16653414
000330 c2 4b 02 3f fa 8b 36 3f be e7 1a bf a2 ab 34 bf
       0.5089685 0.7130734 -0.6050986 -0.7057439
000340 85 6b 49 be 9c b2 ab 3d c2 40 54 bf 6d 4f 72 3f
       -0.19669922 0.083836764 -0.8291131 0.94652444
000350 2d 5b 29 bf 53 c3 21 bf 98 81 18 3f 43 d6 4f bf
       -0.6615475 -0.63188666 0.59572744 -0.8118631
000360 d7 ac 2c bf d3 24 0d 3f b8 9e 07 3f 88 f0 ab 3e
       -0.6745123 0.55134314 0.5297656 0.33581948
000370 53 74 36 bf 88 71 33 bf c9 2a b2 3e 8a fb 16 3f
       -0.71271247 -0.7009511 0.34798267 0.5897757
000380 64 74 0d 3f 8d e7 21 3f 54 a8 4d 3f e2 c0 27 bf
       0.55255723 0.63243943 0.80334973 -0.6552869
000390 a9 3c 2d 3f 21 df 34 be e9 ed b5 3e 73 e3 69 bf
       0.67670685 -0.17663242 0.35533074 -0.91362685
0003a0 30 c3 4a bf 39 24 4d bf 94 b2 18 3f 0e 01 f8 3e
       -0.7920408 -0.80133396 0.5964749 0.48438305
0003b0 b4 45 6a be c4 3f c8 3e 2d ad 51 be e7 0b 09 bf
       -0.22878152 0.3911115 -0.20476218 -0.53533787
0003c0 17 7a 86 be 86 f8 62 3f 40 16 05 bf 70 6c 20 3f
       -0.26265022 0.88660467 -0.51987076 0.6266546
0003d0 92 71 ad be 34 0f a5 bc 0f 25 a2 bd 89 63 2b bc
       -0.3387571 -0.020148851 -0.079172246 -0.010460743
0003e0 a4 8c 36 3e 49 e9 09 bd 4d 9e c1 bc ad 1c 9b bc
       0.17827088 -0.033669744 -0.023635054 -0.018934572
0003f0 63 72 3d bf 54 27 1a 3f c6 e6 59 bf 2a 79 47 bf
       -0.74002665 0.6021626 -0.8511776 -0.77919257

gc2.bias f4 [7]
000000 c6 ed 1d 3d 5e f9 0c 3d 58 ae 90 bd 11 07 8b 3e
       0.038556837 0.034417503 -0.070645034 0.2715383
000010 9e b8 b8 be 72 57 7d 3e d1 05 05 bf
       -0.36078352 0.24740389 -0.51962
