save_model/GCN-Cora-10-0.500000-0.100000-0.300000-dropout.pth (torch_old, 369739 bytes, 4 tensors)

gc1.weight f4 [1433, 64]
-0.13382067 0.19896136 -0.15118259 0.4671875 -0.1004196 -0.1381519 0.0005068164 0.35909843
-0.065746784 0.17888308 0.37403736 -0.34230044 -0.37197044 0.00946605 -0.122947834 -0.380707
0.046418957 0.2715764 0.20144376 0.066410415 0.25197446 0.40792668 -0.134306 0.23939814
0.00016757128 -0.07045379 1.7001697e-05 -0.22793582 -0.21981123 -0.31281582 -0.26822776 0.3137403
0.024294348 0.17642711 -0.16221899 -0.09865161 -0.070687704 0.21060914 -0.21531653 0.00027319524
0.15492925 -0.40958446 -0.0017968926 -0.17503852 0.4086189 0.0012444467 0.03539546 -0.15229502
-0.01563899 0.19146615 -0.00087878114 -0.17402828 -0.0035211581 0.20014878 0.38553518 -0.043401174
-0.1418643 0.38941625 0.048174657 -0.06801603 -0.15614878 -0.0001325739 0.19926147 0.14825575
-0.34121796 -0.2869401 -0.065044485 0.13916874 0.06259969 -0.30200446 -0.0015597168 0.49992427
0.4014586 0.29935214 0.242993 -0.31518087 -0.35197267 -0.36799598 -0.34836155 0.46470597
0.5473239 0.20742251 -0.44353336 -0.29267076 0.43219128 0.3845594 -0.09551175 0.13910507
-0.0007554218 -0.028162908 -0.0022712094 -0.46429142 0.3500589 0.21385792 -0.07266531 0.24335721
-0.20107412 -0.43346086 -0.33134893 0.29618815 -0.3854757 0.42380652 0.48549163 -0.0041032233
-0.053411614 0.29419303 -0.0014915896 0.5086071 0.3625893 0.001211461 -0.34201035 -0.4186452
-0.33238176 0.5170238 -0.0038287584 -0.4859701 -0.0032990316 -0.07219195 0.41911268 0.038244996
0.44121173 0.4486265 0.3291553 0.3672355 -0.068894155 -0.0015174991 -0.16735153 0.37595567
0.14947419 -0.37624517 -0.09991371 0.39206177 -0.3310123 -0.17448647 0.0017095815 0.38763762
-0.124064416 0.05345381 0.35979915 -0.032447793 -0.1657684 -0.38640583 -0.056080956 0.1715929
-0.07291332 -0.33276105 -0.39244184 0.34655702 0.49606466 0.46822134 -0.2651115 -0.092135936
-0.0016017865 0.436483 0.003375104 0.01038545 0.34851637 -0.27636024 0.033614423 0.43337598
-0.31531364 -0.18201582 -0.09358468 -0.011068399 -0.34517568 0.46329468 0.019528495 0.00026430114
0.11145093 -0.148843 0.0017552666 0.23144212 0.46267062 0.0035366965 0.21722487 -0.07467523
0.24727502 0.49257508 0.0017912943 -0.3481979 -0.0007769585 0.14881611 0.53522164 -0.33077934
0.2839166 0.3854649 0.21645887 0.386393 0.32902184 -0.00071169855 -0.32095376 0.27667713
0.36311027 -0.1138892 -0.020041509 -0.4126399 -0.040169027 -0.27568352 -0.0011378763 -0.040901132
-0.02937767 0.008476502 -0.4593351 0.46201858 0.42507076 0.13238578 0.3086736 0.30859682
0.23602541 -0.23881632 -0.21764949 -0.4610223 -0.4835672 -0.3823852 0.067235775 -0.082749404
0.0036828115 0.16158259 0.0010535225 -0.49705482 0.13444611 0.16469735 -0.06064548 -0.11010581
0.507593 -0.3019302 -0.35569093 0.29545158 0.5863313 -0.37031677 0.4556152 -0.0021155516
0.39653867 0.5251038 -0.0027763757 0.5971081 -0.07886755 -0.00272242 -0.37981015 -0.0003152055
-0.57742244 0.3696737 0.0017062093 -0.31938222 -0.00044901355 0.08831271 -0.42212915 0.35274884
0.39818114 -0.21147025 0.031276986 -0.22858249 0.31982473 -0.00085007626 0.030674888 0.3665641
00000000: 4908 09be 87bc 4b3e 9ccf 1abe 3333 ef3e
00000010: cba8 cdbd b177 0dbe dfdb 043a c0db b73e
00000020: 40a6 86bd 202d 373e d381 bf3e 0142 afbe
00000030: e972 bebe 7e17 1b3c 13cc fbbd 07ec c2be
00000040: ce21 3e3d 100c 8b3e 4647 4e3e 2f02 883d
00000050: cc02 813e c4db d03e 8387 09be c924 753e
00000060: 13b6 2f39 144a 90bd de9e 8e37 0268 69be
00000070: 3216 61be 6529 a0be 2655 89be 92a2 a03e
00000080: f104 c73c 4fa9 343e bc1c 26be db09 cabd
00000090: b7c4 90bd eca9 573e f07b 5cbe a53b 8f39
000000a0: c6a5 1e3e 0eb5 d1be b685 ebba 4c3d 33be
000000b0: 7f36 d13e b41c a33a d4fa 103d 3af3 1bbe
000000c0: 571d 80bc b40f 443e 015e 66ba 7834 32be
000000d0: 3bc3 66bb cdf3 4c3e de64 c53e 6ec5 31bd
000000e0: e044 11be 9161 c73e ca52 453d fd4b 8bbd
000000f0: 77e5 1fbe 8903 0bb9 330b 4c3e 5bd0 173e
00000100: 1fb4 aebe d0e9 92be 0b36 85bd 4082 0e3e
00000110: 4434 803d 54a0 9abe 696f ccba 13f6 ff3e
00000120: fb8b cd3e af44 993e 28d3 783e 635f a1be
00000130: c335 b4be f869 bcbe 725c b2be f1ed ed3e
00000140: 6b1d 0c3f 9166 543e ce16 e3be f1d8 95be
00000150: 2d48 dd3e f8e4 c43e aa9b c3bd 8f71 0e3e
00000160: 8007 46ba e6b5 e6bc 92d8 14bb 9bb7 edbe
00000170: ec3a b33e 92fd 5a3e 8dd1 94bd a232 793e
00000180: 60e6 4dbe 95ee ddbe 91a6 a9be f9a5 973e
00000190: 125d c5be 2bfd d83e 5c92 f83e 5574 86bb
000001a0: 23c6 5abd 78a0 963e 7181 c3ba 1334 023f
000001b0: 4ea5 b93e e3c9 9e3a fb1b afbe aa58 d6be
000001c0: f12d aabe ac5b 043f e8eb 7abb 13d1 f8be
000001d0: 9134 58bb 60d9 93bd f095 d63e c9a6 1c3d
000001e0: 81e6 e13e 5fb2 e53e 0b87 a83e 4b06 bc3e
000001f0: 6118 8dbd d2e6 c6ba 335e 2bbe 437d c03e
00000200: c30f 193e 35a3 c0be 8f9f ccbd 52bc c83e
00000210: 727a a9be 95ac 32be 0914 e03a 7078 c63e
00000220: 7c15 febd 62f2 5a3d 9837 b83e fae7 04bd
00000230: 31bf 29be fcd6 c5be 25b5 65bd 0db6 2f3e
00000240: 9453 95bd a85f aabe 23ee c8be ec6f b13e
00000250: 30fc fd3e b5ba ef3e b2bc 87be c4b1 bcbd
00000260: 09f3 d1ba b37a df3e d930 5d3b bc27 2a3c
00000270: bd70 b23e 177f 8dbe 47af 093d 75e3 dd3e
00000280: ca70 a1be 5b62 3abe 53a9 bfbd 3b58 35bc
00000290: deba b0be f634 ed3e 39fa 9f3c e691 8a39
000002a0: 6340 e43d 4d6a 18be f910 e63a 2aff 6c3e
000002b0: 2ae3 ec3e ecc7 673b 3270 5e3e 54ef 98bd
000002c0: aa35 7d3e cd32 fc3e ddc9 ea3a ff46 b2be
000002d0: cdac 4bba 4063 183e 4904 093f e95b a9be
000002e0: 845d 913e a85b c53e 65a7 5d3e 4ed5 c53e
000002f0: 8d75 a83e 4891 3aba 0d54 a4be a0a8 8d3e
00000300: 97e9 b93e be3e e9bd 172e a4bc 8945 d3be
00000310: 4788 24bd 6426 8dbe cb24 95ba f287 27bd
00000320: 70a9 f0bc 07e1 0a3c f82d ebbe b38d ec3e
00000330: e0a2 d93e 2390 073e 770a 9e3e 6700 9e3e
00000340: a5b0 713e 448c 74be 82df 5ebe 1d0b ecbe
00000350: 1f96 f7be fec7 c3be e9b2 893d 8578 a9bd
00000360: 535b 713b e875 253e 5916 8a3a f87d febe
00000370: 3eac 093e 6ca6 283e 6567 78bd 287f e1bd
00000380: 9df1 013f 9896 9abe 1f1d b6be 6e45 973e
00000390: cf19 163f 299a bdbe 6546 e93e 11a5 0abb
000003a0: 1e07 cb3e 346d 063f dbf3 35bb 14dc 183f
000003b0: 4f85 a1bd a16a 32bb 7a76 c2be 2b42 a5b9
000003c0: f5d1 13bf df45 bd3e e2a2 df3a 1186 a3be
000003d0: 9469 ebb9 4bdd b43d 5021 d8be 7f9b b43e
000003e0: 66de cb3e a88b 58be 4c1c 003d 8711 6abe
000003f0: 11c0 a33e a7d7 5eba e749 fb3c 4aae bb3e

gc1.bias f4 [64]
0.13793695 0.1617009 0.12230447 0.1519179 0.1513943 0.13704507 -0.085862085 0.12543398
0.18726458 0.161263 0.15418126 0.15068369 0.14261438 0.16772805 0.103817314 0.14028968
0.19866213 0.21203537 0.20633386 0.085074514 0.14888488 0.17331861 0.1740527 0.15342537
-0.019744735 0.10191532 -0.008149979 0.08730353 0.12268623 0.20045155 0.1276647 0.104923606
0.20872948 0.14390098 0.13656692 0.17643373 0.17886643 0.14081772 0.14170323 -0.041429855
0.1738438 0.1706875 -0.051274475 0.14425698 0.14845355 -0.040330894 0.08607296 0.1671133
0.145012 0.13397945 -0.03172855 0.14857107 -0.023472598 0.14878586 0.13112213 0.20062605
0.13181503 0.14436536 0.12688173 0.116130576 0.13835068 -0.10179358 0.15597351 0.18692169
00000000: 583f 0d3e ec94 253e c47a fa3d 5e90 1b3e
00000010: 1b07 1b3e 8b55 0c3e 76d8 afbd c471 003e
00000020: 49c2 3f3e 2122 253e b1e1 1d3e d34c 1a3e
00000030: 8109 123e e7c0 2b3e 2c9e d43d 19a8 0f3e
00000040: 166e 4b3e cd1f 593e 2f49 533e 8c3b ae3d
00000050: 4775 183e 6f7a 313e df3a 323e 8a1b 1d3e
00000060: b6bf a1bc fbb8 d03d 7d87 05bc 31cc b23d
00000070: eb42 fb3d 2c43 4d3e 89ba 023e 30e2 d63d
00000080: 2ebd 553e c75a 133e 33d8 0b3e 0bab 343e
00000090: c328 373e 8532 103e a71a 113e 5ab2 29bd
000000a0: 1c04 323e b4c8 2e3e 2f05 52bd 1ab8 133e
000000b0: 3504 183e 0232 25bd 0547 b03d c01f 2b3e
000000c0: 077e 143e e931 093e ccf5 01bd 0423 183e
000000d0: 9b49 c0bc 525b 183e e144 063e ea70 4d3e
000000e0: 85fa 063e 83d4 133e 49ed 013e ded5 ed3d
000000f0: cdab 0d3e 2779 d0bd 85b7 1f3e 6668 3f3e

gc2.weight f4 [64, 7]
0.7905781 -0.6471468 -0.5106344 0.85059565 0.5096853 -0.7844266 -0.9577275 0.64058053
0.73609847 -0.49743983 -0.9571901 0.89929926 -0.83913386 -0.85513604 0.69576156 -0.36093086
-0.5765306 -0.60552853 -0.56080043 0.67408943 0.5398955 -0.4534551 -0.39658868 -0.5504311
-0.57780635 0.898913 0.92126405 -0.8156379 -0.765073 0.23937157 0.66460276 -0.7230091
-0.6318035 -0.72733015 0.52779 0.63250965 -0.7032609 -0.6514182 -0.7237435 -0.7759186
0.5740824 0.14986059 0.004404101 -0.008726466 -0.013868178 -0.01059952 -0.0068510235 0.0046236264
0.00010042521 -0.81525445 -0.0813658 -0.5692479 0.9274962 -0.21434188 0.93397516 -0.85061
-0.34439307 0.7159474 0.4985263 -0.6859685 -0.77897507 0.36934656 0.5292611 -0.53297573
0.68133026 0.538388 0.24449876 0.543152 -0.6170311 -0.71784747 -0.29936412 0.42078492
0.5754531 -0.6584218 0.20953257 0.8681837 -0.7039379 0.88185793 -0.41689733 0.42526647
0.8956777 -0.45986608 -0.41682577 0.57955545 0.9496951 -0.8218591 -0.7195889 0.58280087
-0.9335252 -0.2159529 0.8147372 0.7006865 -0.7191546 -0.69873726 -0.6422516 0.668424
-0.38850832 0.54421484 0.9040294 -0.79782915 -0.6400714 0.59835553 0.5434996 -0.62394327
-0.5530611 -0.75577307 0.5512997 0.8442174 0.7654582 -0.8581672 -0.6563281 0.677381
-0.5205254 0.48520428 -0.9830736 -0.7850451 -0.83924437 0.67462003 0.6867551 -0.5501762
0.5987219 0.41442916 -0.7857585 0.6035932 0.21730149 0.73997134 0.5035577 0.4276226
0.65818727 -0.85530573 0.8928037 -0.90787977 -0.85410655 0.6592516 -0.82209 0.73331666
-0.5475871 -0.56363446 0.7650441 -0.713973 -0.5272998 0.77061903 0.8757944 0.14353411
-0.3995265 0.9005662 -0.7210022 -0.5695607 0.8487505 0.5426634 -0.59707904 0.804063
0.82261443 -0.8203169 0.37662417 -0.66683674 -0.8014332 -0.79350275 -0.82617855 0.6131576
0.8746306 0.46144566 0.5970051 -0.96060944 -0.7429376 0.74976295 0.21009526 -0.85641384
0.0006570599 0.015008484 0.0018533212 -0.0009987322 0.0066790795 -0.0020839088 0.008317716 -0.7123976
-0.9892117 0.5776003 0.74951255 -0.81547856 -0.70653045 -0.93669105 -0.014515659 0.01395226
-0.0065542734 0.01452762 -0.009649271 -9.698105e-05 0.0044712564 0.98693484 -0.76581925 0.8396851
-0.849878 -0.93592393 0.42184195 -0.98598045 -0.73206145 0.09438484 0.7053121 0.9004899
-0.84614265 -0.6091383 -0.43246242 0.6110369 0.757604 0.009225065 -0.76342934 -0.66600525
0.46958962 0.7582288 0.49098492 0.49101713 0.6362473 -0.54977244 -0.76986706 0.24954757
0.40002412 -0.5910132 -0.44312868 -0.59784096 0.4989162 0.49583083 0.4325528 -0.5859578
0.39212635 -0.42032632 -0.8146183 0.31617713 0.7517508 -0.77343386 -0.45528376 0.6430126
-0.5483224 0.57253903 -0.90773284 0.76963073 -0.65359014 -0.9627457 0.9181955 -0.13094534
0.83185965 -0.31407017 -0.62579507 0.81255955 0.5907863 -0.17488816 0.6439542 -0.37770057
-0.34993726 -0.37824696 -0.2355602 -0.034893453 0.52228767 -0.89973146 -0.807845 0.6552315
00000000: 5463 4a3f 6aab 25bf f0b8 02bf a3c0 593f
00000010: bc7a 023f 2fd0 48bf a12d 75bf 16fd 233f
00000020: f370 3c3f 6fb0 febe 690a 75bf 7a38 663f
00000030: 7ad1 56bf 32ea 5abf 6e1d 323f eecb b8be
00000040: 8297 13bf eb03 1bbf 9e90 0fbf 2091 2c3f
00000050: 9736 0a3f 442b e8be ac0d cbbe 0de9 0cbf
00000060: 1eeb 13bf 2a1f 663f f6d7 6b3f a5cd 50bf
00000070: d3db 43bf d21d 753e 6823 2a3f 2017 39bf
00000080: e0bd 21bf 4f32 3abf 3f1d 073f 27ec 213f
00000090: e808 34bf 58c3 26bf 4147 39bf 9aa2 46bf
000000a0: 10f7 123f 0e75 193e 4750 903b 74f9 0ebc
000000b0: 5b37 63bc 9ca9 2dbc 8d7e e0bb ca81 973b
000000c0: 609b d238 84b4 50bf 1da3 a6bd 3bba 11bf
000000d0: 6470 6d3f 707c 5bbe ff18 6f3f 94c1 59bf
000000e0: 4a54 b0be 5448 373f d73e ff3e a29b 2fbf
000000f0: e96a 47bf fe1a bd3e a87d 073f 1971 08bf
00000100: a96b 2e3f ccd3 093f e25d 7a3e 020c 0b3f
00000110: c0f5 1dbf dac4 37bf 4146 99be 1f71 d73e
00000120: e550 133f 558e 28bf b58f 563e 4941 5e3f
00000130: 4635 34bf 71c1 613f 9173 d5be 87bc d93e
00000140: 224b 653f 9173 ebbe 306a d5be bf5d 143f
00000150: 381f 733f 5c65 52bf fa36 38bf 7032 153f
00000160: 82fb 6ebf c222 5dbe 9e92 503f 3160 333f
00000170: 841a 38bf 72e0 32bf 9a6a 24bf d61d 2b3f
00000180: 90ea c6be aa51 0b3f 796e 673f 883e 4cbf
00000190: b8db 23bf d42d 193f ca22 0b3f bfba 1fbf
000001a0: 6a95 0dbf 587a 41bf fa21 0d3f a21e 583f
000001b0: 12f5 433f d8b0 5bbf 1e05 28bf d768 2d3f
000001c0: 2741 05bf b26c f83e b6aa 7bbf b7f8 48bf
000001d0: b8d8 56bf e6b3 2c3f 2fcf 2f3f 59d8 0cbf
000001e0: d745 193f 0f30 d43e 7827 49bf 1585 1a3f
000001f0: 4884 5e3e c36e 3d3f 28e9 003f 59f1 da3e
00000200: f67e 283f 51f5 5abf c98e 643f cf6a 68bf
00000210: baa6 5abf b6c4 283f 7e74 52bf a4ba 3b3f
00000220: ab2e 0cbf 594a 10bf eed9 433f efc6 36bf
00000230: 1ffd 06bf 4a47 453f 1034 603f 9bfa 123e
00000240: bd8e ccbe 828b 663f 9a93 38bf bbce 11bf
00000250: b647 593f fdeb 0a3f 2cda 18bf 13d7 4d3f
00000260: dc96 523f 4a00 52bf e2d4 c03e d0b5 2abf
00000270: ba2a 4dbf ff22 4bbf 7080 53bf e5f7 1c3f
00000280: cae7 5f3f 9b42 ec3e 54d5 183f 80ea 75bf
00000290: 2931 3ebf 77f0 3f3f 3623 573e f03d 5bbf
000002a0: 8b3e 2c3a 25e6 753c 24eb f23a e4e7 82ba
000002b0: 2edc da3b 3092 08bb 0847 083c b05f 36bf
000002c0: fa3c 7dbf 9ddd 133f 0ee0 3f3f 34c3 50bf
000002d0: 2edf 34bf fcca 6fbf 16d3 6dbc 0598 643c
000002e0: 3bc5 d6bb 4105 6e3c fa17 1ebc 4e62 cbb8
000002f0: 9e83 923b c3a7 7c3f bb0c 44bf 9af5 563f
00000300: 9b91 59bf b698 6fbf abfb d73e 3769 7cbf
00000310: 6168 3bbf d74c c13d 558f 343f 8286 663f
00000320: ce9c 58bf 7df0 1bbf b76b ddbe ea6c 1c3f
00000330: 56f2 413f ba24 173c 1b70 43bf 527f 2abf
00000340: 0d6e f03e 481b 423f 6062 fb3e 9966 fb3e
00000350: 1ae1 223f e3bd 0cbf 0216 45bf 6689 7f3e
00000360: f6cf cc3e a44c 17bf c3e1 e2be 1b0c 19bf
00000370: f271 ff3e 8add fd3e 9077 dd3e 5501 16bf
00000380: c9c4 c83e 0335 d7be d38a 50bf f8e1 a13e
00000390: be72 403f c3ff 45bf f41a e9be 799c 243f
000003a0: db5e 0cbf eb91 123f 2e61 68bf 8506 453f
000003b0: af51 27bf 8176 76bf dc0e 6b3f 8916 06be
000003c0: c1f4 543f cecd a0be 1b34 20bf e703 503f
000003d0: c53d 173f e215 33be 2fda 243f f861 c1be
000003e0: fa2a b3be 96a9 c1be b136 71be 70ec 0ebd
000003f0: a5b4 053f cd54 66bf eece 4ebf 40bd 273f

gc2.bias f4 [7]
0.22807609 -0.011975263 0.23339099 0.25617427 -0.253325 -0.35389185 -0.014754799
00000000: c78c 693e e533 44bc 0cfe 6e3e 4629 833e
00000010: d0b3 81be 5031 b5be 1dbe 71bc
