save_model/baseline/m3s-GCN-ACom-10-0.700000.pth (torch, 200895 bytes, 4 tensors)

gc1.weight f4 [767, 64]
0	0x3c929d53	0.017897284
1	0xbd56f72e	-0.052481823
2	0xbc4fa6fc	-0.0126740895
3	0xbe0dba35	-0.13840564
4	0x3de71e9d	0.11285136
5	0xbd839ea4	-0.06426743
6	0xbde13a46	-0.10997443
7	0x3bc4b49e	0.0060029766
8	0x3d523c45	0.05132701
9	0xbcf784da	-0.030214716
10	0xbdc152da	-0.09439631
11	0xbe06c287	-0.13160144
12	0xbe2a62dd	-0.16639276
13	0x3d0e7a3d	0.034784544
14	0x3d1f1c0b	0.038845103
15	0xbd559fe7	-0.052154448
16	0xbd664a24	-0.05622305
17	0xbc86b6b2	-0.016444538
18	0x3df64594	0.1202499
19	0xbd7634fb	-0.06010912
20	0xbd491327	-0.04909053
21	0xbe2799e1	-0.16367294
22	0xbe2495a6	-0.16072711
23	0xbd83fae4	-0.06444338
24	0x3c775fd1	0.015098528
25	0x3b9716dc	0.0046108793
26	0x3ba86efd	0.005140184
27	0x3cb32b55	0.021871248
28	0x3b0e3468	0.0021698717
29	0xbcc38c5b	-0.023870638
30	0x3c2608eb	0.010133962
31	0xbe09734f	-0.13422893
32	0xbd26e2fb	-0.04074381
33	0x3d01cfb9	0.03169224
34	0xbe000bb8	-0.1250447
35	0xbc0b5fbe	-0.008506713
36	0x3cda9fa0	0.026687443
37	0xbdf2ca15	-0.1185495
38	0xbdebff6b	-0.115233265
39	0x3af3729e	0.0018573587
40	0xbd13773b	-0.03600238
41	0xbe09d118	-0.13458669
42	0xbda511c6	-0.08060031
43	0xbd126b74	-0.035747007
44	0x3dac157f	0.084025376
45	0xbe28adf0	-0.16472602
46	0x3d7238f4	0.059136346
47	0x3d0a5984	0.033776775
48	0xbe047daa	-0.12938562
49	0x39336e94	0.00017111964
50	0xbd8da293	-0.06915774
51	0x3d07f885	0.03319599
52	0x3d4351cb	0.047685426
53	0xbd3ed71f	-0.046591874
54	0x3da58ac8	0.08083111
55	0x3d9a321c	0.07529089
56	0x3dc62940	0.096758366
57	0x3d2fde7f	0.0429368
58	0x3d94bd12	0.07262625
59	0x3d2ae473	0.041721772
60	0xbcc8c1f8	-0.024506554
61	0xbe1215ca	-0.14266124
62	0x3cee7d3b	0.029112449
63	0x3d1fb35c	0.03898941
64	0xbd199158	-0.037492126
65	0xbd9aff0b	-0.07568177
66	0xbd4dadf7	-0.050214734
67	0xbdcf39d5	-0.101184525
68	0x3d05faa6	0.03270974
69	0xbd03455c	-0.032048568
70	0x3e21ef60	0.1581397
71	0xbbc3a548	-0.005970631
72	0x3d21ec6e	0.039532118
73	0xbe1c6403	-0.15272526
74	0x3d272c5a	0.04081378
75	0x3e0b7b1b	0.1362118
76	0xbd5b6c2a	-0.05356995
77	0xbc3f004e	-0.0116577875
78	0xbdb398ab	-0.087693535
79	0xbc42f1e9	-0.011898496
80	0xbdd34073	-0.10315027
81	0x3d8276c0	0.06370306
82	0xbcfe96ce	-0.031077769
83	0xbdfeeff0	-0.12448108
84	0xbbf8f2e6	-0.007597315
85	0xbd2d12a7	-0.042254116
86	0xbd810b6d	-0.063010074
87	0xbc976f87	-0.018485798
88	0xbd9966ef	-0.07490336
89	0xbd223b31	-0.03960723
90	0xbe1dd8e8	-0.15414774
91	0xbde75a82	-0.1129656
92	0xbdb84a60	-0.08998561
93	0xbe0ef5de	-0.13960978
94	0xbe19b134	-0.15009004
95	0x3d615ecd	0.05502205
96	0xbd099d5a	-0.033597328
97	0xbdd0f411	-0.10202802
98	0xbc631c1f	-0.013861685
99	0xbdab969d	-0.083783366
100	0xbd5c1ebd	-0.05374025
101	0xbd8c264c	-0.06843242
102	0xbe03f27f	-0.12885474
103	0x3d2be4a8	0.04196611
104	0x3d434e6a	0.047682203
105	0x3d62466f	0.055242952
106	0x3cfbe1ac	0.030747257
107	0xbe138e33	-0.14409713
108	0x3dc321ec	0.095279545
109	0xbe1695e9	-0.14705624
110	0xbd594aba	-0.05304978
111	0xbe06accc	-0.13151854
112	0x3b88c0c5	0.0041733705
113	0xbcc3c56f	-0.023897855
114	0xbd99fb0a	-0.07518585
115	0xbde6273b	-0.11237951
116	0xbd02996f	-0.031884607
117	0xbddbb474	-0.10727778
118	0xbd974dc8	-0.073878825
119	0x3d71e61a	0.059057333
120	0x3e0ab687	0.13546191
121	0xbdbb5c6a	-0.09148486
122	0x3d940bfd	0.07228849
123	0xbceb9b73	-0.028760647
124	0x3bfb3af6	0.007666941
125	0x3cb261ac	0.02177509
126	0xbdca7bb7	-0.09886878
127	0x3d3e3c1a	0.046444036
128	0x3b1e2f47	0.0024137066
129	0x3a7ee89e	0.0009723994
130	0xbbd0d4c3	-0.0063730194
131	0xbd0596b9	-0.032614443
132	0xbd839470	-0.064247966
133	0xbd8ce8f3	-0.06880369
134	0xbd907f48	-0.07055527
135	0x394c6c18	0.00019495224
136	0x3d75341f	0.05986416
137	0xbd4ef570	-0.050527036
138	0xbd2dc101	-0.04242039
139	0xbe67ab3e	-0.22623917
140	0xbdac0600	-0.08399582
141	0xbc4a60e4	-0.012352202
142	0x3e14cfc9	0.14532389
143	0x3da2c924	0.07948521
144	0xbde12243	-0.10992863
145	0xbda9d269	-0.08292086
146	0xbcee1feb	-0.029067954
147	0xbda0ec70	-0.07857597
148	0x3c845354	0.016153015
149	0x3cf57d4a	0.029966969
150	0xbdcd44a0	-0.10022855
151	0x3c9a86b5	0.018863061
152	0x3ccb03bf	0.02478206
153	0xbb11f02f	-0.0022268405
154	0xbd602ab7	-0.054728236
155	0xbd9f5b2e	-0.07781063
156	0xbd8e3678	-0.06943983
157	0x3d5ac2a5	0.053408284
158	0xbe02f0a5	-0.12787111
159	0xbd0a9d7c	-0.033841595
160	0xbca020ec	-0.019546948
161	0x3c5ecf88	0.013599284
162	0xbde81ca6	-0.11333589
163	0xbdd59b00	-0.104299545
164	0x3be91ba3	0.0071138903
165	0xbe11ac68	-0.14225924
166	0xbddb912f	-0.10721051
167	0xbd6ddd6c	-0.058072492
168	0xbd1fb1d3	-0.038987946
169	0xbdc3d7df	-0.095626585
170	0x3d7e2efc	0.062056527
171	0xbda334fb	-0.079690896
172	0xbcae6d4c	-0.021292351
173	0xbdfaa736	-0.12238924
174	0x3e1f84ca	0.15577999
175	0xbd1a736b	-0.037707727
176	0xbdc789ec	-0.097431034
177	0xbbb920b1	-0.005649649
178	0xbda1de8c	-0.079037756
179	0xbd2b74c3	-0.0418594
180	0xbb2fc4b7	-0.0026820132
181	0x3ce96372	0.028489802
182	0x3cad8340	0.021180749
183	0xbd9ac0e2	-0.07556321
184	0xbe4381dd	-0.19092508
185	0x3dc1fc67	0.0947197
186	0x3d507e94	0.050901964
187	0xbd998cb9	-0.07497544
188	0xbbbe7414	-0.0058121774
189	0x3c994247	0.018708361
190	0xbca01925	-0.01954324
191	0xbd636020	-0.055511594
192	0xbdb456da	-0.08805628
193	0xbd374fd2	-0.044753857
194	0xbc302a84	-0.010752324
195	0xbd388920	-0.045052648
196	0xbd8cf036	-0.06881754
197	0xbdac5d9a	-0.084162906
198	0xbd93e10c	-0.07220659
199	0x3bd65ca1	0.006541804
200	0x3d8e561f	0.0695002
201	0x3cebd18e	0.028786447
202	0xbc352049	-0.011055061
203	0x3e0e1b61	0.13877632
204	0xbc425a77	-0.011862389
205	0xbe056c09	-0.13029493
206	0x3d4ec81f	0.05048382
207	0xbe0182d7	-0.12647568
208	0xbd0a0643	-0.033697378
209	0xbe11149e	-0.14168021
210	0x3b02915f	0.0019923074
211	0x3c093481	0.008374334
212	0xbdc4d7fd	-0.09611509
213	0xbcd64c22	-0.02615935
214	0xbd9f30b5	-0.07772962
215	0xbd4c0acd	-0.049814988
216	0xbd5208ae	-0.05127781
217	0xbc9857dc	-0.018596582
218	0x3d4889da	0.04895959
219	0xbda73017	-0.08163469
220	0xbd1d9e0f	-0.038480815
221	0xbd110050	-0.03540069
222	0xbdaaad71	-0.083338626
223	0xbe2bec76	-0.16789421
224	0xbc1afa88	-0.009459145
225	0x3ca46e28	0.020072058
226	0xbd91970c	-0.07108888
227	0xbdfc64a6	-0.12323885
228	0x3cd6e016	0.0262299
229	0x3d6d3630	0.057913005
230	0xbcf147ed	-0.029453242
231	0xbc5de94e	-0.013544394
232	0xbdaa01ab	-0.083010994
233	0x3d4c6bc9	0.04990748
234	0x3d34a822	0.044105656
235	0xbd0320fe	-0.032013886
236	0xbbffbc8b	-0.0078044585
237	0xbe041bcd	-0.1290123
238	0x3d8e3ca2	0.069451585
239	0x3d3d72d6	0.046252094
240	0x3bff6f19	0.0077952263
241	0xbcaf3b6d	-0.021390641
242	0x3d2a16ba	0.04152558
243	0xbdfe9521	-0.12430788
244	0xbe0564e2	-0.13026765
245	0xbd54205b	-0.05178867
246	0xbde45036	-0.111481115
247	0xbca03926	-0.0195585
248	0x3d866110	0.06561482
249	0xbd30697f	-0.04306936
250	0xbdd3112c	-0.1030601
251	0xbd35fa70	-0.04442829
252	0xba51cec9	-0.00080035307
253	0xbde09be4	-0.10967234
254	0x3c73fb0e	0.014891399
255	0xbc97ff6e	-0.018554416

gc1.bias f4 [64]
0	0xbd73d18c	-0.05952601
1	0x3e4a5dd2	0.19762352
2	0xbaa67a09	-0.0012701164
3	0xbe1c0d99	-0.15239562
4	0x3d2f24a8	0.042759567
5	0x3d1bb464	0.03801383
6	0x3e09ccff	0.13457106
7	0x3cbb143a	0.022836793
8	0xbdb49f1f	-0.088194124
9	0xbd3078a9	-0.04308382
10	0x3d367183	0.044541847
11	0xbb854bfa	-0.004067895
12	0xbdc566e6	-0.09638767
13	0xbb40014a	-0.0029297643
14	0xbcaa568b	-0.02079322
15	0xbcc576be	-0.024104472
16	0x3dd377da	0.10325594
17	0x3d3c55a2	0.045980103
18	0xbccad518	-0.024759814
19	0x3d024603	0.03180505
20	0xbdb18724	-0.08668354
21	0xbde3d7ef	-0.111251704
22	0xbe27977e	-0.16366383
23	0xbd86b12a	-0.0657676
24	0xbe25f158	-0.16205347
25	0x3c2c0e60	0.010501474
26	0x3cddb5a1	0.027064146
27	0x3d7d2bb8	0.06180927
28	0xbde98bd1	-0.11403621
29	0xbdfdb1ff	-0.12387466
30	0x3dc6c141	0.09704829
31	0xbdf19c60	-0.11797404
32	0xbda4ed5f	-0.080530874
33	0xbdcfa81e	-0.10139488
34	0xbb62d11b	-0.00346095
35	0x3acfd1fe	0.0015855429
36	0xbcd685b6	-0.026186805
37	0xbde98756	-0.114027664
38	0xbdd22a02	-0.102619186
39	0x3e1cd39e	0.153151
40	0xbe26f2fc	-0.16303629
41	0xbdcff25a	-0.10153647
42	0xbd61e208	-0.0551472
43	0x3ac8b2c7	0.0015312069
44	0x3c87ee71	0.01659319
45	0xbdbc0ed7	-0.09182518
46	0xbd8cbbd5	-0.068717636
47	0xbe11eb5b	-0.14249937
48	0xbca940fc	-0.02066087
49	0xbd967040	-0.07345629
50	0x3cf81966	0.030285548
51	0xbdcc40dd	-0.09973309
52	0x3c0d12e0	0.008610457
53	0xbe2211e7	-0.15827142
54	0xbd8c7c8d	-0.06859694
55	0xbd57c5c0	-0.052678823
56	0x3d5c9e1f	0.053861734
57	0xbe25a3d3	-0.16175775
58	0xbc7d0af7	-0.015444509
59	0xbe0f814d	-0.14014168
60	0x3d32575f	0.043540355
61	0xbdc73881	-0.09727574
62	0xbdeb6762	-0.11494328
63	0xbe2fa454	-0.1715253

gc2.weight f4 [64, 10]
0	0xbe973abf	-0.29537007
1	0xbe9c30d4	-0.30506003
2	0x3cac4c83	0.021032577
3	0xbd345ea7	-0.04403558
4	0x3ddf97c5	0.109176196
5	0x3d5a6994	0.053323343
6	0xbe985bed	-0.29757634
7	0x3e2d0be8	0.16899073
8	0xbda2c436	-0.079475805
9	0x3d14a2b8	0.036287993
10	0xbe027aca	-0.12742153
11	0xbca3688b	-0.01994731
12	0xbe83953b	-0.2569979
13	0xbdff8d4c	-0.12478122
14	0xbd243659	-0.040090892
15	0xbead2e01	-0.3382416
16	0x3d96be9a	0.07360573
17	0xbe3b5e90	-0.18297791
18	0x3ec76bc1	0.38949397
19	0xbd9b4c1c	-0.07582876
20	0xbda2a9d5	-0.07942549
21	0x3d8fe4fb	0.070260964
22	0xbba447ac	-0.0050134268
23	0x3a875a64	0.0010326621
24	0xbe3bbd1a	-0.18333855
25	0x3b8cfb34	0.0043024067
26	0x3d51944e	0.051166825
27	0x3ad2fc0b	0.0016096843
28	0x3e508a13	0.20365171
29	0x3caf33e6	0.021387052
30	0xbe1d4552	-0.15358475
31	0xbe6d5a13	-0.23178892
32	0x3ccba0f7	0.024857027
33	0xbd594cb7	-0.053051677
34	0xbcf874e8	-0.030329183
35	0x3e0a77ed	0.1352231
36	0x3d8390c6	0.06424098
37	0xbdf9c734	-0.12196198
38	0x3daa1c36	0.08306162
39	0xbb6d39dd	-0.003619782
40	0xbdedd0e6	-0.1161211
41	0x3eb1ffb7	0.34765407
42	0xbe78d6d9	-0.24300708
43	0xbe59a5d3	-0.21254663
44	0x3ea0615c	0.3132428
45	0xbe809331	-0.25112298
46	0x3e9a8579	0.30179957
47	0x3e1123af	0.14173768
48	0x3eb1204e	0.3459496
49	0x3d4834f9	0.048878644
50	0x3d8745de	0.06605123
51	0xbdfe16a4	-0.12406662
52	0x3cc7a872	0.024372313
53	0x3acd84ff	0.0015679895
54	0x3e4cd5ee	0.20003483
55	0x3d93991a	0.07206936
56	0x3e8d798f	0.27631804
57	0x3e471125	0.19440134
58	0xbe17e20c	-0.14832324
59	0x3e836b15	0.25667635
60	0x3ee600ca	0.44922477
61	0xbdf66400	-0.12030792
62	0x3df0bf3f	0.11755227
63	0x3ddd99b0	0.10820329
64	0xbec5f367	-0.38662264
65	0x3d869142	0.065706745
66	0xbeaf9b67	-0.3429825
67	0xbcc9bc0c	-0.0246258
68	0x3d62b75e	0.055350654
69	0x3e7a45c5	0.24440677
70	0x3c2a3a45	0.010389869
71	0xbb7bca24	-0.0038420046
72	0x39ad5df8	0.00033067144
73	0x3b8ebfce	0.004356361
74	0xbba2011c	-0.00494398
75	0xbcedc54c	-0.029024743
76	0x3b097ef4	0.002098021
77	0xbcc7b84a	-0.024379868
78	0x3d937e1f	0.0720179
79	0x3bc1abde	0.0059103807
80	0xbdcf6943	-0.10127499
81	0xbdebbbf2	-0.11510457
82	0x3de0c6ba	0.10975404
83	0x3e05cb10	0.13065743
84	0xbd7e9bdd	-0.06216036
85	0xbcc01e5c	-0.023451976
86	0x3de93ac1	0.113881595
87	0x3d94386c	0.07237324
88	0xbe1631cd	-0.14667435
89	0xbcdbac28	-0.026815489
90	0x3c5e134b	0.0135544045
91	0x3e3aa593	0.18227224
92	0x3e1d8e7c	0.15386385
93	0x3e592733	0.2120636
94	0x3c78b8e4	0.0151808
95	0xbd4f4564	-0.050603285
96	0x3e028805	0.127472
97	0x3cace84c	0.021106862
98	0x3e88b9b3	0.26704177
99	0xbe7caf31	-0.24676205
100	0x3e15b8b3	0.14621238
101	0x3d732910	0.059365332
102	0x3dbb9f99	0.091613
103	0xbde552ab	-0.11197408
104	0xbc02c3a7	-0.0079812175
105	0xbdf1af51	-0.11801017
106	0x3d9ac5dd	0.07557271
107	0xbe096306	-0.1341668
108	0x3d9aa903	0.07551768
109	0x3d05b7bb	0.032645922
110	0xbe7e2f7b	-0.248228
111	0x3e83c364	0.2573501
112	0x3c046972	0.008081781
113	0xbd98a174	-0.0745267
114	0xbe9e3400	-0.30899048
115	0x3ec2e0a3	0.3806201
116	0xbe8480db	-0.2587956
117	0x3ecb2d4b	0.39682993
118	0xbebbc24a	-0.36671668
119	0xbb5fcaee	-0.0034148055
120	0x3c0b7cd8	0.008513652
121	0xbeb36ada	-0.3504246
122	0xbe70d501	-0.23518755
123	0x3dc3c57b	0.09559151
124	0xbe7197c0	-0.23593044
125	0x3d0dbc31	0.0346033
126	0xbd18ab31	-0.037272636
127	0xbd00173a	-0.03127215
128	0xbe70d521	-0.23518802
129	0xbe06e07a	-0.13171569
130	0x3e0c5c81	0.13707162
131	0xbeb8fb4d	-0.36129227
132	0x3e92fe5f	0.28709695
133	0xbd2a94be	-0.041645758
134	0x3ea14619	0.31498793
135	0xbe3a72ae	-0.1820781
136	0xbeb1bf69	-0.34716347
137	0xbdbd4147	-0.09240966
138	0xbe154376	-0.14576516
139	0xbea7b242	-0.32753187
140	0xbc15a481	-0.009133459
141	0xbdd3e1c0	-0.10345793
142	0x3e4e8df1	0.20171334
143	0xbda84787	-0.08216768
144	0xbec27028	-0.37976193
145	0xbe9b80d1	-0.30371717
146	0x3e2d48c9	0.16922297
147	0xbd8dbba1	-0.06920553
148	0x3e559bb3	0.20860176
149	0xbe31c8cf	-0.17361759
150	0xbe6eb102	-0.2330971
151	0x3e020263	0.12696223
152	0x3d561e91	0.052275244
153	0xbe896d3d	-0.26841155
154	0xbe0aaa52	-0.13541535
155	0xbccc2e07	-0.024924291
156	0x3e4877e5	0.19576986
157	0xbe0e0b73	-0.13871555
158	0x3e8242ae	0.25441498
159	0x3e01b8ec	0.12668198
160	0x3ecc440d	0.3989567
161	0xbdd62181	-0.10455609
162	0x3dc5a44e	0.09650479
163	0xbdd708e4	-0.104997426
164	0x3e7fb47a	0.2497119
165	0xbe28fda8	-0.16503012
166	0x3e6f6b7a	0.23380843
167	0x3e03c045	0.12866314
168	0xbe20d0da	-0.1570467
169	0x3de9f07b	0.11422821
170	0x3e6a52c2	0.22883132
171	0x3e42be4c	0.19017905
172	0xbdc2d608	-0.095134795
173	0xbbfd3328	-0.0077270456
174	0x3dc190b6	0.094514295
175	0x3e84d43b	0.2594317
176	0xbe5c0d1c	-0.21489376
177	0x3d59e7d4	0.053199604
178	0xbeb3b65e	-0.35100073
179	0x3e3ba791	0.1832564
180	0xbdebbf4c	-0.11511096
181	0xbe98fae9	-0.2987893
182	0xbdcfa374	-0.10138598
183	0x3e1c03b0	0.15235782
184	0x3eded1e8	0.4351952
185	0x3e5d1e72	0.21593645
186	0xbe9038e1	-0.28168395
187	0xbd21dd23	-0.039517533
188	0x3da06d74	0.078333765
189	0xbd2a6c6a	-0.041607298
190	0x3d8ac597	0.067759685
191	0x3d3769b0	0.044778526
192	0x3d721568	0.059102446
193	0xbe38e094	-0.1805442
194	0xbd656c6c	-0.056011602
195	0x3e374b0d	0.17899723
196	0xbe874578	-0.26420188
197	0xbdd6f348	-0.10495621
198	0xbd5d29c2	-0.0539949
199	0xbe940d90	-0.28916597
200	0xbafa91d2	-0.0019116944
201	0xbd8c5b6e	-0.06853376
202	0xbdd96e02	-0.106166855
203	0x3c302e97	0.010753295
204	0x3d67b33b	0.056567412
205	0x3c686825	0.014184986
206	0x3e1e31ac	0.15448636
207	0xbd1741eb	-0.0369281
208	0x3b9c9dfe	0.0047795763
209	0xbc3ef481	-0.011654974
210	0x3d91e92c	0.07124552
211	0x3ebf2fb9	0.37341097
212	0x3ead1797	0.3380706
213	0x3e33beee	0.17553303
214	0x3e4f4843	0.2024241
215	0x3e774ff6	0.24151596
216	0xbdb1a0e7	-0.08673268
217	0xbd93d5cb	-0.07218512
218	0x3df4081a	0.11915608
219	0xbe75c5d6	-0.2400125
220	0x3db0e102	0.08636667
221	0x3d4d841c	0.050174817
222	0xbdf3010d	-0.11865435
223	0xbe0d7c79	-0.13817014
224	0xbe6c9913	-0.23105268
225	0xbd8cbd52	-0.068720475
226	0x3d99e61f	0.07514595
227	0xbe32de4d	-0.17467614
228	0xbd8079ca	-0.062732294
229	0x3e50d81b	0.20394938
230	0xbe34b4cb	-0.17647092
231	0x3d506c38	0.050884455
232	0xbd561620	-0.052267194
233	0x3e3fd074	0.18731862
234	0xbcd16954	-0.02556292
235	0x3e618248	0.22022355
236	0xbdb08124	-0.086183816
237	0xbdae6d82	-0.08516981
238	0xbd36f473	-0.04466672
239	0x3e55d47b	0.20881836
240	0x3da4b483	0.080422424
241	0x3d0ae87a	0.033913113
242	0x3e0b416a	0.13599172
243	0xbc4e0a78	-0.012575738
244	0xbdb0a558	-0.08625287
245	0xbc28bb80	-0.01029861
246	0xbbf82d26	-0.0075737415
247	0x3e0cca8e	0.13749143
248	0xbe6dd4c3	-0.23225693
249	0xbd815fd7	-0.06317108
250	0x3cf0e2a9	0.029404955
251	0x3c162d9e	0.009166149
252	0xbb5f4b2e	-0.003407191
253	0x3c62821e	0.013824968
254	0x3c80bb41	0.01571429
255	0xbd0e1f03	-0.034697544

gc2.bias f4 [10]
0	0xbd040b96	-0.03223761
1	0xbd3774e5	-0.044789214
2	0xbe8b177d	-0.27166358
3	0xbea29e2f	-0.3176131
4	0x3c174f15	0.009235163
5	0x3e03c6a3	0.12868743
6	0xbde3a901	-0.11116219
7	0xbe132fde	-0.14373729
8	0x3da722b9	0.0816092
9	0xbeac5c6d	-0.33664265
