save_model/baseline/m3s-GCN-ACom-3-0.700000.pth (torch, 200897 bytes, 4 tensors)

gc1.weight f4 [767, 64]
00000000: 3c4d 4fbc 0064 143d 406b 1bbe 90cf 333d
00000010: de2f 06be dfdd 883d 57fe 783a df45 42bd
00000020: 0ad7 67bd 8f94 f2ba 40e4 28bd 4630 d93c
00000030: 4064 ef3c 1a03 673d b9c4 54bd 14ce 8fbd
00000040: 6cbe f8bc d03b 68bd b1cb 67bd c8fa d73c
00000050: e01e d237 9720 c9bd 6c1d 323d faf9 83bc
00000060: 834f de3d 1e36 33bd fc40 02be 09be 34be
00000070: d9a5 ebbd 8e7d 4dbb 3cdb 553d 4341 c6bc
00000080: 2089 27bd 9158 ccbc f6b9 1dbe d922 08be
00000090: b1f0 723d 9dac 573d c5f2 043e 319f 16be
000000a0: eb5c b4bc 9b43 5c3d cd04 e3bd a61a 2fbe
000000b0: 1761 303c e777 f03d 24c5 58bd 06b6 69bc
000000c0: 2b33 303e 4879 6abc 7ba6 023c 2313 afbd
000000d0: 0ce2 fa3b 3886 d2bb 5109 513d dc5e 0fbd
000000e0: ae1a c13d b3d9 25be 1af1 b93d caf5 a8bd
000000f0: df12 16bd da79 c2bc 7228 8cbd f0c9 f5bd
00000100: bfdc 623d eccc b73b 847f 01be 9c42 163d
00000110: ac2b 673d 71b3 a1bd ae10 5f3b d74a 30be
00000120: 81e6 8dbd ae20 a1bb 34b1 eabd 14bb 223d
00000130: 64c4 ff3c b24d b7bc b903 20bd e562 5d3c
00000140: 7a59 fcbd 2026 febd caa9 d73c 7c53 07bd
00000150: 0c88 0e3e 74b7 98bb f7d8 fa3c d748 d1bd
00000160: de60 913b dc66 27bd 8bba 9bbd f032 9bbc
00000170: a667 c03c 87c4 de3b 416b 213b 2262 bc3c
00000180: 7aae 0fbc aa74 c3bc 6940 05be fe90 6bbd
00000190: c24d 2cbe be22 d53d 2ffb 463d 3f84 373d
000001a0: 59ab cbbb fcf9 1ebd 39e9 a1bb 5bc8 29be
000001b0: 66b0 aeba 298f e43c 91cc 04be c0c3 f9bc
000001c0: 2820 083c dca0 c73d 8237 a8bd 9ed9 83bc
000001d0: e6ce 1bbd 4693 793b 0d12 983d 813d f3bd
000001e0: e99b 9f3d 73f7 d9bd 768f e6bb 8f69 863d
000001f0: db0d bc3c d57c dc3d 2cd2 02be 84ef 3cbc
00000200: 5db8 a2bd 486d 003e 68df 8cbd ab61 a0bd
00000210: 0e27 07be d271 ea3a 5e1e 1cbb e425 f1bd
00000220: 8c9a 153d c5ae 9cba 9fc8 0abe b897 503d
00000230: f840 b4bd 0456 4ebd 933c 92bd 65a3 38be
00000240: 9385 cabd 3f23 04be fcab 043d a335 afbd
00000250: 5c82 27be 753a 25bc caa0 e63c 60f4 bfbd
00000260: 2fee cfbd f32e 483c eff1 963e 3480 08be
00000270: ae65 f2bd 4c5c b53b c2b7 893c 441c 223e
00000280: 789b d03c fdc0 5fbd e402 c6bd 5fa7 cf3c
00000290: 22e8 01be 3bcc fabd db28 74bc 24ea 713d
000002a0: 8cd6 baba d47a dabc 6f8f f53d 72ac 6e3d
000002b0: 312f e6bb 1bed 053e ffc8 c4bc b336 39bd
000002c0: 61b0 49be b62d 013e ae36 013d 1962 0ebd
000002d0: 4f7a b0bd 319e 2ebc 8096 2c3e ad7c efbd
000002e0: d2db 723d 6503 55bd 1543 fabd 5086 d13d
000002f0: ca05 4e3b df76 a7bd 9a18 093d 351a c8bd
00000300: 0fec 323d c17b 133d 988e 22bd 6862 c9bd
00000310: a541 a93b d210 b8bb 73ad 773b b21f 553d
00000320: 2969 6c3d c8e8 c738 7661 03bd a34a 1fbe
00000330: 53bb cf3d 7a72 163d c030 9fbd cf7f 00bd
00000340: 0b8e dcbd b8e0 8bbd 2ab2 4f3d a9a1 8cbd
00000350: ce25 8abd a9c3 03be ecf9 ddbc 7c8c d63c
00000360: b8e5 373d a2e4 88bd 0b97 173d 97ea a2bd
00000370: cbba aabd 6ae6 fd3a 81bd e93d e8f2 a73b
00000380: dc15 743d a442 fabc a396 b63c 3f20 9fbb
00000390: 848f c9bd bcde 18bb 6947 05bd 1c66 523c
000003a0: 10b0 0cbc 6a6f 5bbd ace3 4a3d f977 76bd
000003b0: e0b8 5dbb b85b c03a f0b0 e73c 7f78 5a3d
000003c0: 7893 ce3c 9e89 50bd c50b 623d a3d3 9bbc
000003d0: 4f5d 383d c8c8 1ebb 744c e6bd 8c2a 3a3c
000003e0: 4328 04bc dded 2cbe a2c4 96bd 2ac6 90bc
000003f0: d6a7 49bc 6c94 6e3c b712 fdba 24a9 f8bb
-0.012652691 0.03622818 -0.15177631 0.04389912 -0.13104197 0.066829436 0.0009498349 -0.047429916
-0.05660156 -0.0018507409 -0.0412333 0.026512276 0.029222608 0.056399442 -0.05194542 -0.07021728
-0.030364238 -0.056697667 -0.05659074 0.026364699 2.5048328e-05 -0.09820669 0.04348509 -0.016110409
0.108550094 -0.043752782 -0.12720102 -0.17650618 -0.11506242 -0.0031355354 0.05221103 -0.024201041
-0.040902257 -0.024944576 -0.1540297 -0.13294543 0.059311572 0.05265485 0.12983234 -0.14709164
-0.022016963 0.05377541 -0.110849 -0.1710001 0.0107653355 0.117416196 -0.052922383 -0.014264589
0.17207019 -0.014311142 0.007974262 -0.08548572 0.0076563414 -0.0064246915 0.051034275 -0.035002574
0.09428917 -0.16196327 0.090791896 -0.082500055 -0.03663909 -0.023739744 -0.06843652 -0.12001407
0.0553863 0.0056091454 -0.126463 0.036684617 0.056438133 -0.07895554 0.0034037041 -0.17216049
-0.06928731 -0.004917226 -0.1145958 0.039729193 0.031221576 -0.022375915 -0.03906605 0.013512348
-0.12321754 -0.124096155 0.026326079 -0.0330386 0.13919085 -0.004660541 0.030621035 -0.10218971
0.0044365963 -0.04086958 -0.076039396 -0.018945187 0.023486923 0.00679833 0.0024630579 0.022996012
-0.008769626 -0.02385934 -0.13012852 -0.057511322 -0.16826537 0.10407017 0.04857939 0.044803854
-0.0062154946 -0.038812622 -0.0049411324 -0.16580336 -0.0013327717 0.027900295 -0.12968661 -0.030488849
0.008308448 0.09747478 -0.08213712 -0.016094979 -0.03803911 0.0038082167 0.07425318 -0.11876965
0.077934094 -0.106429 -0.007036145 0.065631025 0.022955826 0.10765997 -0.12775487 -0.011531714
-0.07945321 0.12541687 -0.06878549 -0.07831129 -0.13198492 0.0017886704 -0.0023821811 -0.11774805
0.03652434 -0.0011953941 -0.13553093 0.05092594 -0.08801454 -0.050375 -0.0714046 -0.1803108
-0.098887585 -0.1290407 0.03239058 -0.08555152 -0.16358322 -0.010084738 0.028152842 -0.09372783
-0.10152852 0.012218225 0.29481456 -0.13330156 -0.118358 0.0055346843 0.016811255 0.15831095
0.025464758 -0.054627407 -0.0966852 0.025348363 -0.12686208 -0.12245985 -0.014902319 0.059061185
-0.0014254614 -0.026669897 0.119902484 0.058269925 -0.0070246686 0.1307873 -0.024021624 -0.04521818
-0.1969619 0.12615094 0.031546287 -0.034761522 -0.086170785 -0.010657833 0.16854286 -0.11693702
0.05929167 -0.05200519 -0.12219826 0.10230696 0.0031436556 -0.0817697 0.033470728 -0.097706236
0.043682154 0.036006693 -0.03968677 -0.09833223 0.005165296 -0.0056172395 0.0037792593 0.05203218
0.057717476 9.532418e-05 -0.032075368 -0.15555815 0.10143151 0.036730267 -0.0777297 -0.031371888
-0.1076928 -0.06829971 0.05070702 -0.06866772 -0.06745492 -0.12867607 -0.027096711 0.026190035
0.04489681 -0.06684233 0.03700928 -0.07954901 -0.08336409 0.0019371037 0.11413098 0.005125392
0.05959116 -0.030549355 0.022288626 -0.004856139 -0.098418266 -0.002332612 -0.032538805 0.012841728
-0.008586898 -0.05357305 0.04953353 -0.06017301 -0.0033832118 0.0014675772 0.028282613 0.05333757
0.025216803 -0.050912492 0.055187006 -0.019021815 0.04501086 -0.0024228562 -0.11245051 0.011362683
-0.00806624 -0.16887613 -0.073617235 -0.017672617 -0.012308082 0.014561754 -0.0019307946 -0.0075885225

gc1.bias f4 [64]
00000000: 17cc d3bc bdd9 fd3d 12ea 05be 9828 283d
00000010: c4d2 1cbe 8083 2b3e aa09 343c b1b7 c4bd
00000020: e0c2 80bd 7128 f8bc ecd3 1f3c c140 403d
00000030: 8316 d4bd 4ec9 10bd eefb 083d e513 4c3d
00000040: b0cf 1ebe 85d2 9abd 640e 1abc 411b 053c
00000050: a375 c03d a2de fabc 6aa0 d2bc 7550 19be
00000060: 893b 1a3d ad93 0fbe 7608 88bd 0fb1 7ebd
00000070: 79a6 493c e43f 2cbc 2193 12be c90d a73c
00000080: e8c4 29be cea2 bbbd 0f99 febc 975e 1bbd
00000090: 19ae f2bd 9764 2a3c f483 ddbd 5687 203c
000000a0: deab 20be f8d5 883c 2573 213d 4a5f c1bc
000000b0: b404 c7ba 9a58 093c 0cc0 6d3d 430f 093e
000000c0: 4450 aa3d 414e c6bd da5e bdbd 8f05 8b3b
000000d0: 1210 273d 7acb d63c fc3d 103d 6e4e 583d
000000e0: c127 3d3d a3fe fabc f4e0 a03d 7913 79bd
000000f0: 87fa d23c 5c21 5fbd 7b14 ef3c ad94 53bd
-0.025854154 0.12395046 -0.13077572 0.04105434 -0.15314776 0.16749382 0.010988632 -0.09605349
-0.062871695 -0.030292721 0.009755116 0.046936754 -0.10355856 -0.03534823 0.033443384 0.04982366
-0.15508914 -0.07559685 -0.009402845 0.008124174 0.093974374 -0.030623738 -0.025711257 -0.14972098
0.037654433 -0.14021178 -0.06642239 -0.062180575 0.012307757 -0.01051328 -0.14313938 0.020392315
-0.1657902 -0.09161912 -0.031078843 -0.037932005 -0.11849613 0.010399959 -0.10816184 0.009797892
-0.15690562 0.01670359 0.03941645 -0.023605008 -0.0015183897 0.008382941 0.05804448 0.13384728
0.08316091 -0.096828945 -0.09246607 0.004242606 0.04078681 0.026220072 0.035215363 0.05280917
0.04618049 -0.030638998 0.078554064 -0.060809586 0.025754226 -0.054475173 0.02918457 -0.05165546

gc2.weight f4 [64, 10]
00000000: 7d28 123e 8a21 763c 4115 0ebe 0764 3a3e
00000010: 3bfd b5bd 8b54 53bd 5458 f03c b491 453d
00000020: 9dc7 343b dadc 823e 32af c33d 9e23 f83d
00000030: de13 933e 6e54 94be 0d98 7abe 3387 8bbe
00000040: 0c30 93be cf98 8dbd 3a1a 51bc 59c7 80be
00000050: 184b 2ebe c0c8 80be 716d 0b3e 268a 0c3e
00000060: da28 46be 9283 cabd acaf b6be f3b6 67be
00000070: f78e a0bd cd42 623d 2f32 373e 4245 ad3e
00000080: 31ca 9bbe 6d88 873c 071b a0bd 388f b4be
00000090: 2fe6 8fbe 5dfd efbc 518c c03d ca8b 173c
000000a0: eb1a 03bd bf66 a5bd d0a1 733e d5db 5dbe
000000b0: f639 883b 4842 16bd 2f98 15be 9a62 003e
000000c0: 8529 47be 436d 603e 4a6c 60bd b961 2c3d
000000d0: e938 81bd 7757 d03e 75a2 ab3e c5e5 2fbd
000000e0: efb9 dbbe 979a c2be 782a f2ba 6589 2fbe
000000f0: f716 66bb bb31 4ebb d439 3fbb f160 dcbb
00000100: e3fe b23c 3dc2 f6ba 6194 d23c 40c4 203d
00000110: 413b d33b f5a9 383d cde7 23bd 96bb 11be
00000120: 44fc 033e ef93 b33d 7104 463d 8403 0e3e
00000130: d21f 743e 0b1f 3b3c 02a6 c7bd 4b97 813d
00000140: fdc0 eebd e5df 51be 258c 893e 98a5 b63c
00000150: 48c4 6a3e 33c5 593d 7979 01bf e44b 383d
00000160: 72a6 b73c 91a1 a8bc 136a b1bb 3f21 90bd
00000170: 0f75 44bd 1526 76bd 65de 8ebc 3400 efbc
00000180: 009d 82bc 46f5 17bb 30f1 f8bc ec7b 3cbd
00000190: 5fd2 4bbc 5641 483e 52d3 bb3d caa8 26be
000001a0: e728 893e 44d4 04be bfa7 90bd 42c3 973d
000001b0: 9e49 cf3d 9904 52be 626f 89be 0804 1c3e
000001c0: ac82 2cbe d46a 053e d7be b4bd 670f 783e
000001d0: 668a a0be 6523 1e3e 2ac6 253b e1b4 fdbb
000001e0: d7bc aa3d fbb7 fbbc e4db fbbd b5fc 6fbe
000001f0: 0eff a73c 3881 3bbe 8104 74bc 9f81 213e
00000200: aea0 35be 712c 873e 79c5 4bbe 7e59 57be
00000210: 7c0a 83be 22b5 48bd fd30 a73c e316 0e3d
00000220: 820e a23d ee43 3b3d 91b0 84be bbd1 1fbe
00000230: a1b5 8c3b e717 d43d deb4 d53d cb80 0bbc
00000240: 2d51 b63d 368c 76bd 94c0 7c3b 8727 4e3c
00000250: df2d 41bc 165c 973d a8ae df3e 5097 f63e
00000260: ca93 4ebe c057 88be 255b bd3d 3185 d7bd
00000270: 6888 88be e7fa ffbd 2b16 39be f71e 91be
00000280: 3ddb f3bd d03b f4bd cea7 1c3d 3d4b dd3c
00000290: 0078 1cbb 67fb 93bd 2084 a33e ae2b 70bd
000002a0: 5cbf 643c d0dc 9b3d 4c90 773e 72cf 47be
000002b0: 72b9 adbd d054 4fbe 7eda eb3d 7f7d 723e
000002c0: 9e30 9e3e 8213 63bd 6706 bcbc 6309 463e
000002d0: 0b2b 97be 0e4b 473e 58cd 18be a666 e1bc
000002e0: d987 22be 2d8f 1b3c 448e 67be b4e0 c0bd
000002f0: 4aed 2dbd 85af 1a3e 308c 3abc 6cd3 f7bc
00000300: 243d afbd 771c 33bc 4248 07bc a0f4 73bd
00000310: dd89 183e 9e6f 15bb 7203 8b3b 30f7 0fbe
00000320: 0871 47be 4143 7f3e 24d4 9dbe 8286 7e3e
00000330: b4b2 403d ed07 2cbd 128b dabd 6de1 64be
00000340: ef9e 56be 5fc7 653e 4244 68be fba5 c43b
00000350: bdb5 5ebe c0ec 2ebe ae4d 5f3d 6477 df3d
00000360: 718b 7ebe 0fc1 403e 80ba ab3d a9a4 f0bd
00000370: cd23 e5bd c0fe b3bd 5d77 56bd ca23 0c3d
00000380: 585e f63d 8036 50bc 1919 3cbe 7e3a 0cbe
00000390: 7507 393d db2a 0cbd 1f79 94be 125d 21be
000003a0: 6456 5cbe 50d2 5f3d 3d3e 8d3b 4ed7 31be
000003b0: 58f2 4abe 5256 5d3e bb17 c4bd 72c4 15bd
000003c0: 9e4f 523e 9191 fcbd 9708 073e 0c43 c1be
000003d0: 54ef ef3d 3571 3f3e ba86 873e 5ca8 5ebe
000003e0: d5fe d6bd a86b 3bbe 3ac0 91be 8111 323b
000003f0: 099a d93d 7d5a 17bb 5f1e c5bd 6e22 bd3d
0.14273258 0.015022645 -0.13875295 0.1820222 -0.088861905 -0.0515943 0.029338993 0.048234656
0.00275848 0.2555912 0.095549 0.121161684 0.28726095 -0.28970665 -0.24472065 -0.27251586
-0.28747594 -0.069139116 -0.012762601 -0.2515209 -0.17020833 -0.2515316 0.13615967 0.13724574
-0.19351521 -0.09888376 -0.35680902 -0.22628383 -0.078397684 0.055239487 0.17890237 0.33841902
-0.30427697 0.016544545 -0.07817655 -0.35265517 -0.28105304 -0.029295618 0.09401763 0.009249637
-0.032008093 -0.08076238 0.23792195 -0.2166589 0.0041573 -0.036684304 -0.14608835 0.12537614
-0.19449432 0.2191668 -0.054790772 0.042085383 -0.06309683 0.4069173 0.33522382 -0.042943735
-0.42915294 -0.38008568 -0.0018475791 -0.17142256 -0.0035108903 -0.0031462747 -0.0029178755 -0.0067254235
0.021850055 -0.0018826198 0.025705518 0.03924966 0.0064462726 0.04508396 -0.040015984 -0.14231715
0.128892 0.087684505 0.04834408 0.13868529 0.23840263 0.011420975 -0.0974846 0.06327685
-0.11657903 -0.20495565 0.26864734 0.022295758 0.22926438 0.05316658 -0.5057598 0.04499425
0.022418234 -0.020584853 -0.0054142564 -0.07037591 -0.0479632 -0.06009491 -0.01744003 -0.029174902
-0.015944004 -0.0023186966 -0.030388445 -0.04601662 -0.012440293 0.19556174 0.091711655 -0.16275325
0.2678902 -0.12971598 -0.07063245 0.07410289 0.10121463 -0.20509566 -0.2684279 0.15235913
-0.16846722 0.13029033 -0.08825462 0.24224626 -0.3135559 0.1544319 0.0025295117 -0.0077425097
0.083367996 -0.030727377 -0.122978 -0.23436244 0.020507362 -0.18311012 -0.014893652 0.15772103
-0.17737076 0.26401094 -0.19899549 -0.21030232 -0.25593936 -0.049000867 0.020409102 0.034689795
0.079129234 0.04571908 -0.2591596 -0.1560735 0.004294113 0.103561215 0.10434888 -0.008514593
0.08902202 -0.06019231 0.0038566934 0.012582666 -0.011790722 0.07390611 0.4368794 0.48162317
-0.20173565 -0.26629448 0.092459 -0.10523451 -0.2666657 -0.12499028 -0.18074863 -0.28343937
-0.11907051 -0.11925471 0.03824597 0.027013415 -0.0023875237 -0.072256856 0.3193674 -0.058635406
0.013961639 0.07610476 0.24176139 -0.19512728 -0.084826365 -0.20247197 0.115162835 0.23680685
0.30896467 -0.055438526 -0.022952272 0.19339518 -0.29525027 0.19462225 -0.14922082 -0.027514767
-0.15872134 0.009494585 -0.22612864 -0.09417859 -0.042462625 0.15106018 -0.011385962 -0.030252181
-0.085565835 -0.0109320795 -0.008256974 -0.059559464 0.1489634 -0.0022802125 0.004242354 -0.14059138
-0.19476712 0.24927999 -0.30825913 0.24855998 0.047045425 -0.041999746 -0.10671057 -0.22351618
-0.20959066 0.22439335 -0.22682288 0.0060012317 -0.21749015 -0.170825 0.05451744 0.10911444
-0.2485788 0.18823646 0.083851814 -0.117501564 -0.11188469 -0.08788824 -0.052359927 0.03421382
0.120297134 -0.012708306 -0.18368949 -0.13694188 0.045173127 -0.034220558 -0.28998658 -0.1575816
-0.2151733 0.05464393 0.004310398 -0.17367288 -0.1981901 0.2161496 -0.09574839 -0.036564298
0.20538184 -0.12332452 0.1318687 -0.37746465 0.1171557 0.18695529 0.26469976 -0.21743912
-0.10497824 -0.18302786 -0.2846697 0.0027171078 0.10625083 -0.0023094707 -0.096249335 0.092350826

gc2.bias f4 [10]
00000000: 784e 08bd 71a6 683e c555 2bbe 33e9 2d3c
00000010: a7a4 b23d 132c 27be 56ae 4a3d 534b 6d3e
00000020: cf81 03bd 3988 85be
-0.03327796 0.22719742 -0.16731937 0.010614681 0.08722811 -0.16325407 0.049482666 0.23173265
-0.032106217 -0.26080492
