save_model/baseline/m3s-GCN-Pubmed-20-0.700000.pth (torch, 130759 bytes, 4 tensors)

gc1.weight f4 [500, 64]
000000 da e2 32 bf ef b9 51 3f f1 b9 14 3f cb 6c 1e 3f
       -0.698774 0.8192434 0.58096224 0.61884755
000010 fa ce 69 3f 6a 00 7e 3f 17 74 09 bf d9 ba fe be
       0.91331446 0.9921938 -0.53692764 -0.49751928
000020 0b fb 2f 3f 39 58 3b bf bd 05 6d 3f a8 57 4c 3f
       0.68742436 -0.7318149 0.9258688 0.7982125
000030 c5 ef 4d bf 89 cb 4e bf ca 71 0f 3f 6f e3 37 bf
       -0.80443984 -0.8077932 0.56033003 -0.7183141
000040 cb 9d 19 bf a3 1e 64 3f b4 dd 33 bf db fb 06 bf
       -0.600064 0.8910925 -0.7026017 -0.5272805
000050 f2 95 07 bf c6 e1 48 bf 28 33 21 bf 1d 8f e6 b9
       -0.52963173 -0.784695 -0.62968683 -0.00043975646
000060 98 43 47 3f 8a 80 02 3f 36 36 45 3f 0a 57 0e bf
       0.77837515 0.50977385 0.77035844 -0.5560156
000070 1d 39 48 3f dd a4 1f 3f b3 93 f8 be 0e 2f 23 3f
       0.7821215 0.62360936 -0.48550186 0.63743675
000080 05 05 35 bf 11 ba 4c 3f 07 f9 37 3f 07 41 33 3f
       -0.70710784 0.79971415 0.7186436 0.700211
000090 f8 8b 54 ba 84 b5 10 bf 7a 4b 14 3f f7 6d 75 3f
       -0.0008108015 -0.5652697 0.5792767 0.9587092
0000a0 21 b3 50 ba 1c 5d 4f bf 08 10 3f bb e7 fb 13 bf
       -0.00079612626 -0.8100145 -0.0029153842 -0.5780625
0000b0 20 75 54 39 8c d0 2b bf 30 57 5b 3a 1b 73 5a bf
       0.00020261528 -0.6711509 0.0008367179 -0.85331887
0000c0 bb 60 17 bf 4e d2 5f 3f 0b a4 46 3f 82 1b e6 3e
       -0.59131974 0.87430274 0.7759406 0.44942862
0000d0 39 0b 14 bf 35 24 46 bf dc 03 79 3f e1 c5 55 bf
       -0.57829624 -0.77399 0.97271514 -0.83505064
0000e0 23 a1 fd b8 95 1e 07 bf e3 c8 2c 3f 68 70 34 3f
       -0.00012093994 -0.5278104 0.6749403 0.7048402
0000f0 cb 52 19 3a fc 3a 2b 3f cd 74 1d bf 20 ea 0d bf
       0.0005848824 0.6688688 -0.6150635 -0.5543537
000100 02 3b 13 3e 6c 53 3a bd 53 26 5d 3d 9d a4 33 bd
       0.14377978 -0.045489714 0.053991627 -0.04385816
000110 91 8e ce bd 17 a9 1e bd 32 b5 76 bd 3d 3e 91 bd
       -0.10085786 -0.038735475 -0.060231395 -0.07091949
000120 57 0e c2 3d aa 30 af 3d c0 a9 23 bd c0 0b bc bd
       0.09475391 0.08554204 -0.039956808 -0.09181929
000130 44 bf 9c 3d 34 2f ed 3d cf 73 5d 3d 0c 2e 9b 3d
       0.076536685 0.11581269 0.05406552 0.07577142
000140 69 bd 9c bd de 01 de bd 63 c1 b1 3d 19 d2 84 bd
       -0.076533146 -0.108402 0.08679464 -0.064853854
000150 21 05 ad bd 31 bb d0 3d 47 f3 03 3e da de 42 b8
       -0.08448244 0.10191954 0.12885772 -4.646075e-05
000160 a9 de f4 bd 72 1c b5 3d ce 12 b7 bd 2a 53 60 bd
       -0.119565316 0.08843316 -0.089391336 -0.05476681
000170 44 89 53 bd d9 2b ca 3d 58 9a a1 bd 26 14 ba 3d
       -0.05164458 0.098716445 -0.07890767 0.09085874
000180 f4 61 0e 3e 3e f9 b6 bd 49 d4 b5 bd 72 15 b7 3d
       0.13904554 -0.08934258 -0.08878381 0.08939637
000190 c2 67 d2 39 d9 78 8d bd 10 03 32 3d ed 32 ba bd
       0.00040131627 -0.069078155 0.043459952 -0.090917446
0001a0 b3 56 ce b9 ab c8 f9 3d c3 ef 27 ba 0a 15 29 3e
       -0.00039355978 0.121964775 -0.0006406272 0.16511932
0001b0 8f 1a 25 b9 d9 29 cd 3d cb 3f be b9 1d 45 93 3d
       -0.0001574552 0.100177474 -0.00036287153 0.07190917
0001c0 79 2d cc 3d 52 ba bb bd 69 9e e8 bd 21 1d 82 3d
       0.09969611 -0.09166397 -0.11358339 0.06353212
0001d0 36 1c 75 bd 56 36 09 3e 08 cc ba bc e4 f6 c3 3d
       -0.059841357 0.13399634 -0.022802368 0.09568575
0001e0 5e c2 2e 39 16 0b 9d bd 6d f3 ab bd a6 b7 a0 3d
       0.0001666634 -0.0766813 -0.08396039 0.07847528
0001f0 28 8d 46 3a d2 51 2a 3c b9 f6 a7 3d c0 57 6b bd
       0.00075741345 0.010395484 0.082013555 -0.05745673
000200 f4 0c 22 bd 4c d2 4e bc c2 16 1c bd 4c de ee bc
       -0.039563134 -0.012623381 -0.03810764 -0.029158734
000210 c6 f7 93 3d 69 6f 58 bc 13 ee ab 3d f4 3d c8 3d
       0.072249934 -0.013210156 0.083950184 0.097774416
000220 a0 7c 35 bd 73 ef b8 3d a3 0d 93 bc 35 47 76 3d
       -0.044308305 0.09030046 -0.017950838 0.060126502
000230 54 24 86 3d 30 d5 79 bc 94 f6 e9 bc 78 26 8f 3d
       0.06549898 -0.015248582 -0.02855996 0.06989759
000240 21 d7 cd 3d 92 a2 bb 3d 13 37 af 3d ae d3 c9 3d
       0.10050798 0.09161867 0.085554264 0.09854828
000250 d8 aa e8 3d ae e3 e3 3c 04 95 10 bd dc 30 b8 39
       0.11360711 0.027818527 -0.035298362 0.00035131618
000260 c4 cd d4 3d 50 5e 27 bd bb 48 2b 3d 62 ac c7 3d
       0.10390809 -0.040861428 0.041817408 0.09749676
000270 de e4 00 bd dc ea 26 bd 57 b6 e1 3d c6 e9 18 bd
       -0.031468265 -0.040751323 0.11021107 -0.03733232
000280 7e 01 63 bc e6 2e a4 3d f7 1a 8b 3d a8 54 05 bd
       -0.013855336 0.08016758 0.067922525 -0.032551438
000290 de aa 15 ba 6d ba d2 3d 6e 54 2b bd 1d 9a 84 3d
       -0.000570936 0.10289464 -0.041828565 0.06474707
0002a0 f0 76 27 37 32 63 cb bc dc 70 8d 37 06 30 1f bd
       9.981668e-06 -0.024827573 1.6861064e-05 -0.038864158
0002b0 7e ce a2 39 7a c4 ea bc 85 2b d7 b8 fb 1e 5e 3d
       0.00031052897 -0.02865814 -0.00010260105 0.054228764
0002c0 e6 f5 ec bc fe 54 5e 3d 01 98 c9 3d fe 47 fc bc
       -0.028925847 0.054280274 0.098434456 -0.030796047
0002d0 3e 5a 94 3d 89 10 14 bd 69 47 d1 bc 8d f7 fe 3c
       0.07243775 -0.03614858 -0.025546746 0.0311239
0002e0 cc c1 08 3a 75 99 cd 3d f9 4a 92 3d 3f 7b 38 bd
       0.0005216866 0.10039035 0.07143206 -0.04503941
0002f0 ce 1d a1 b9 96 70 bd bc 2a 71 43 3d 2a a6 cb 3d
       -0.0003073052 -0.023124974 0.047715344 0.09943803
000300 6c ec 5f 3b 58 46 9d 3d 8f f8 1f 3d 30 8c 9f 3d
       0.0034168018 0.07679433 0.039055403 0.077904105
000310 fe 94 8c 3d f4 b8 63 3d 00 a2 5a 3a dc e4 10 bb
       0.068643555 0.055596307 0.000834018 -0.0022109067
000320 b7 24 58 3d 2c a4 4e bc f1 c3 7f 3d db 91 73 3d
       0.05276939 -0.012612384 0.062442724 0.05946527
000330 e7 04 90 bc 38 f8 74 bc 32 a5 d7 3c 68 66 a4 bc
       -0.017580463 -0.014951758 0.026323888 -0.020068362
000340 72 70 02 bb 8e 31 90 3d e4 04 a8 bc 43 2d 12 b9
       -0.0019903448 0.07040702 -0.020510145 -0.00013940506
000350 c5 88 d6 3b 5c f9 a0 bc c5 f4 0d bc 87 b9 01 ba
       0.006547066 -0.019650154 -0.008664315 -0.0004948605
000360 18 2c 87 3d c0 08 85 3d 04 03 23 3d d6 f2 23 bc
       0.06600207 0.064958096 0.039797798 -0.010006627
000370 21 ec af 3d 6b 0a 25 3d a1 43 e4 3a ee ee 82 3d
       0.0858996 0.04029314 0.0017415175 0.063932285
000380 ff e8 9b bb 03 74 8a 3d 73 3e 16 3d ad 0a 31 3d
       -0.004758 0.06760409 0.03668065 0.04322307
000390 48 14 ce 38 a2 7e 16 bc aa af f5 3c 42 2e 43 3d
       9.826623e-05 -0.009185465 0.02999099 0.047651537
0003a0 06 64 49 b9 1a 03 c7 bb 53 2f 8e 3a 59 3d 0f bc
       -0.00019206115 -0.006073368 0.0010847844 -0.008742654
0003b0 ae ab 24 b9 fa f2 3c bc 84 8a c5 39 82 2f 8a bc
       -0.00015704214 -0.0115325395 0.0003767797 -0.016868357
0003c0 7f 66 9d bb 1f 03 40 3d 53 4e 80 3d 2c e9 d3 3c
       -0.0048034783 0.046877977 0.06264939 0.025868021
0003d0 11 e8 cc ba 3e 76 52 bc 1b 2c 45 3d 33 6b a1 bc
       -0.0015633126 -0.012845574 0.048137765 -0.019704437
0003e0 64 f3 d2 b9 92 45 10 3b 8c 40 c2 3d 59 31 21 3d
       -0.0004023566 0.0022014123 0.094849676 0.039353702
0003f0 2c e3 a1 b8 9b f4 0d 3d 38 5c b4 bc e2 51 03 bc
       -7.719392e-05 0.034657102 -0.02201663 -0.008015128

gc1.bias f4 [64]
000000 2e f2 40 3d bb 65 4c 3d c4 37 a6 3d 93 a9 95 3d
       0.04710596 0.049901705 0.08116105 0.07307734
000010 6a f1 66 3d 37 0f 45 3d 1e 85 82 3d 7a 85 74 3d
       0.056382574 0.048110213 0.06373046 0.059697606
000020 39 28 83 3d 4b ff 02 3e 58 c5 66 3d 42 40 7c 3d
       0.06404156 0.12792699 0.056340545 0.06158472
000030 da 41 08 3e 90 6e 46 3d 2b 8f 92 3d 8e 80 0e 3e
       0.1330637 0.048445284 0.071562134 0.13916227
000040 f4 79 7f 3d c3 aa 69 3d 19 19 01 3e bc 66 81 3d
       0.062372163 0.057047617 0.1260723 0.06318423
000050 3d 10 62 3d 32 72 f2 3d 0c 4b 8a 3d 35 97 4e bd
       0.055191267 0.11838187 0.06752595 -0.05043717
000060 5d 02 8e 3d 6a b0 8d 3d fe a5 71 3d 5e 9b 6c 3d
       0.069340445 0.06918414 0.058996193 0.057765357
000070 55 13 7d 3d 88 ce 73 3d f1 31 89 3d 14 bb 72 3d
       0.061786015 0.059523135 0.06698979 0.059260443
000080 c2 de 4e 3d 0e c8 7a 3d 97 1c 85 3d a8 df 8f 3d
       0.050505407 0.061225943 0.06499594 0.07025081
000090 ca 57 78 bd 6d c6 7c 3d 2c 7f 8b 3d 8f af 94 3d
       -0.060630597 0.06171267 0.068113655 0.07260048
0000a0 85 7e 37 bd dd 8c 67 3d 6f 75 47 bd 80 ad 62 3d
       -0.044798393 0.056530822 -0.048695978 0.055341244
0000b0 aa ba 8e ba 18 eb 5a 3d 04 c2 2d bd ed 38 07 3e
       -0.001088937 0.05344686 -0.042421356 0.13205309
0000c0 d7 e6 5c 3d c1 4a 9e 3d 15 39 86 3d df 98 a1 3d
       0.053931084 0.07729102 0.06553856 0.07890486
0000d0 09 e1 75 3d f6 67 43 3d 36 c8 81 3d 80 32 00 3e
       0.060029063 0.047706567 0.06337015 0.12519264
0000e0 16 d8 56 bc 1f fc 81 3d 2e ca 74 3d 7b 4e 85 3d
       -0.013113042 0.063469164 0.059763126 0.065091096
0000f0 be f9 67 bd 60 be 96 3d 09 dc 07 3e c2 ed 93 3d
       -0.056634657 0.0736053 0.1326753 0.07223083

gc2.weight f4 [64, 3]
000000 a1 a3 54 bf ac c3 80 3f 68 c8 89 bf d9 fb 5e 3f
       -0.8306218 1.0059714 -1.0764284 0.8710304
000010 51 46 7e bf 2c d7 80 bf 9e ce 2f 3f 7e f2 e8 3e
       -0.99326044 -1.0065665 0.6867465 0.45497507
000020 32 d1 78 bf 41 dc 72 3f 0e 50 62 bf 89 52 88 bf
       -0.97194207 0.9486733 -0.88403404 -1.0650188
000030 c0 5a 47 3f 7d 59 80 bf ca be 4b 3f 88 2c 76 3f
       0.7787285 -1.002731 0.79587996 0.961617
000040 c2 b2 0b bf 11 74 21 bf 21 e5 51 bf ba 6d 56 bf
       -0.5456964 -0.6306773 -0.8199025 -0.8376118
000050 37 5e 5d 3f 48 03 91 bf 46 2a 83 bf b4 18 69 3f
       0.86471885 -1.1329126 -1.0247276 0.9105332
000060 63 54 92 3f 83 db 90 3f 42 df 54 bf 7b 49 a7 bf
       1.1432003 1.131699 -0.83153164 -1.30693
000070 fc 9b 6b 3f c9 13 82 3f 22 e0 91 3f 95 1c c6 be
       0.9203489 1.0162288 1.1396525 -0.3869368
000080 70 75 fe be 1d 6f 84 3f f9 79 43 bf 5c 82 6b 3f
       -0.49698973 1.0346409 -0.7635799 0.9199579
000090 1e 0f 8c bf c2 33 43 3f 32 39 34 3f c8 80 53 bf
       -1.0942113 0.7625085 0.70399773 -0.8261838
0000a0 39 89 59 3f ab 38 44 bf 6b 89 ca 3e f4 97 f8 3e
       0.8497501 -0.7664897 0.39557967 0.4855343
0000b0 64 a6 41 bf 2e 8d 7e bf 57 bd 71 3f 19 53 80 3f
       -0.75644517 -0.99434173 0.94429535 1.0025359
0000c0 7d 90 65 bf 7c 6f 64 bf 21 32 8d 3f 95 b0 6e 3f
       -0.89673597 -0.8923261 1.1030923 0.9323819
0000d0 13 70 7e bf cc 84 8a 3f 92 53 91 bf 5e 50 80 3f
       -0.9938976 1.0821776 -1.1353629 1.0024526
0000e0 ea 23 85 3f 1d 4b 91 bf b4 1f 79 bf 9f 73 52 3f
       1.0401585 -1.1351048 -0.97314 0.82207674
0000f0 7c d4 6c bf 96 d5 72 bf d5 ff 90 3f 67 43 89 bf
       -0.92511725 -0.94857156 1.1328074 -1.0723695
000100 ba 1b 70 3f 6d 30 43 3e 11 ab 82 bf a1 64 3f 3f
       0.9379231 0.19061442 -1.0208455 0.7476292
000110 c7 63 8c bf e7 91 3c bb 26 f6 15 3b 41 c8 fd ba
       -1.096795 -0.0028773488 0.0022882312 -0.0019362048
000120 be ce 3e 3f f5 c3 97 bf 08 f7 97 3f 4a df 48 3f
       0.74534214 -1.1856676 1.1872263 0.7846571
000130 12 aa 2f 3f c8 f9 a1 bf c3 d4 3d 3f bb 26 42 bf
       0.6861888 -1.2654352 0.74152774 -0.7584035
000140 a9 63 ed 3e 90 06 5d bf 1a b5 6e bf 4e 43 6d 3f
       0.46365097 -0.8633814 -0.9324509 0.92680824
000150 bf 89 86 3f 9b f5 8b bf 43 d1 9e bf 11 95 fb 3e
       1.0510787 -1.0934328 -1.2407612 0.49137166
000160 fe 5b 4e 3f a9 f5 a1 bf 04 22 42 bf 9d 6f 73 bf
       0.8060912 -1.2653095 -0.75833154 -0.95092183
000170 b3 b8 98 3f ec 6e 77 3f 31 1f 40 3f 9f 57 91 bf
       1.1931366 0.9665363 0.75047594 -1.1354865
000180 92 f1 85 bf 0d 5c 6a 3f 85 fd 5e bf 41 f8 46 3f
       -1.0464346 0.9154671 -0.8710559 0.77722555
000190 ea 0d 83 bf ee 95 4d 3f 9a da 2a 3f 80 d9 28 bf
       -1.0238621 0.803069 0.6673981 -0.6595688
0001a0 fb 9f 8e 3f 20 39 2e 3f ef 18 53 3f 3b e6 77 bf
       1.1142572 0.68055916 0.8245992 -0.9683568
0001b0 fa 59 e2 3c bf 9e 37 b9 e8 48 54 3b 88 16 89 bf
       0.027630795 -0.00017511378 0.0032392088 -1.0710001
0001c0 e9 c7 6b bf 24 37 6e 3f a6 49 0c 3f 27 7f 00 3f
       -0.92101914 0.9305289 0.5479988 0.5019402
0001d0 d5 7c 29 bf 06 79 3e 3f b7 bf 60 bf d7 00 45 3f
       -0.66206104 0.7440342 -0.87792534 0.76954406
0001e0 24 53 4a bd 17 63 c8 bd db 14 a6 3b 87 1b 82 bf
       -0.049395695 -0.09784525 0.005068404 -1.0164651
0001f0 0b d0 1d 3f e4 5c 84 bf 7e 45 30 bd a0 82 71 be
       0.61645573 -1.0340848 -0.043035023 -0.23584986
000200 f7 85 1c bd 0e 2f a0 bf 16 15 5b 3f 99 38 8f bf
       -0.038213696 -1.251436 0.8557905 -1.1189147
000210 00 9d 6b 3b 96 a6 eb b8 bb 2d bd 3b 02 be 3b bf
       0.0035951734 -0.00011236702 0.0057732738 -0.73336804
000220 cf f0 f9 3e ba 86 67 bf e8 08 c9 b8 43 3d 3f b9
       0.48816535 -0.9043995 -9.586086e-05 -0.00018238001
000230 86 92 6e b9 d5 c7 53 bf 5f 8e 4c 3f 2d b1 25 3f
       -0.00022752033 -0.82726794 0.7990474 0.64723474
000240 ab e1 76 be 88 9f 78 3f 64 f5 03 bf d2 54 05 3f
       -0.24109523 0.97118425 -0.5154631 0.5208255
000250 4d 26 81 bf b6 a2 11 3f bb 54 35 3f 95 a2 98 bf
       -1.0089813 0.568889 0.70832413 -1.1924616
000260 be 02 8c 3f e9 5e f7 bd d6 21 c2 3d 56 8c 9f bf
       1.0938337 -0.120786496 0.0947911 -1.2464702
000270 13 a8 03 bf c0 a0 06 bf 9b c6 7d 3f 3c bb 6f bf
       -0.51428336 -0.52589035 0.9913117 -0.9364507
000280 20 87 53 3f 6d 3a 7c bf f2 d9 ea 3e c4 88 3f bf
       0.8262806 -0.9852665 0.45869404 -0.7481806
000290 7c 12 8a bf 50 98 92 bf 54 33 36 3f 37 25 d5 3d
       -1.0786891 -1.1452732 0.7117207 0.10407489
0002a0 eb 78 83 3a ae 1e c6 b9 6f 81 9b bb ff 18 22 bf
       0.0010030543 -0.0003778836 -0.0047456543 -0.6331939
0002b0 51 bb 48 bf b1 ba 9b 3f d2 c9 90 3f a0 0e 94 bf
       -0.7841082 1.2166349 1.1311591 -1.1566963
0002c0 ad 15 f2 3e 4d 3f 15 3f c2 01 19 3f 3d 68 8c bf
       0.47282162 0.58299714 0.5976831 -1.0969311
0002d0 36 c7 3a ba 18 7e 8b 3a 9b 24 b2 ba bd 11 20 3f
       -0.00071250217 0.0010642437 -0.0013591232 0.62527066
0002e0 69 9c 10 3d fd da 25 bf bb cb 60 bf 98 10 81 3f
       0.035305414 -0.64787275 -0.8781087 1.0083189
0002f0 f5 72 33 3f 83 4c 9d bf 60 59 21 bf e7 3d 90 3f
       0.70097286 -1.2288975 -0.63027 1.1268891

gc2.bias f4 [3]
000000 bf 9c 0a be 6f b8 08 3e 63 5f 83 bd
       -0.13536356 0.13351606 -0.06414678
