save_model/baseline/m3s-GCN-Cora-5-0.700000.pth (torch, 370623 bytes, 4 tensors)

gc1.weight f4 [1433, 64]
0	0xb919ad60	-0.00014655804
1	0xbc03b804	-0.008039478
2	0xbbefa1c4	-0.007312985
3	0xbc8cb1b5	-0.017174581
4	0xbb67a7bd	-0.0035347783
5	0x3c3ccc67	0.011523343
6	0x3b427014	0.0029668855
7	0x3b6f136e	0.0036480087
8	0x3b8483c2	0.004044027
9	0x3c577ec3	0.013152781
10	0xbcee388a	-0.029079694
11	0xbc089ddd	-0.008338419
12	0xbbd92698	-0.006626915
13	0x3cff8145	0.03118957
14	0xbb88440b	-0.004158502
15	0xbc43aebe	-0.011943517
16	0x3b9b5774	0.00474065
17	0x2d205cfc	9.115594e-12
18	0x38743a48	5.8228412e-05
19	0xbc11fa78	-0.008909814
20	0x3c136ae5	0.008997654
21	0xbca1e217	-0.019761128
22	0xbc15f273	-0.009152043
23	0xbc20ad84	-0.009806994
24	0x2d2095ef	9.128239e-12
25	0x3cc6421f	0.02420145
26	0x3c1ae6dd	0.009454456
27	0x3cceea40	0.025258183
28	0xbbdba351	-0.0067028184
29	0x3c156b0c	0.00911976
30	0xbb073660	-0.0020631775
31	0x3cba732a	0.022759993
32	0x3c9c9eea	0.019118745
33	0xba120b06	-0.00055711006
34	0x3b83ea32	0.004025721
35	0x3c8453ff	0.016153334
36	0x3c50174d	0.012700868
37	0x3c918b38	0.01776658
38	0xbbab80f8	-0.00523388
39	0x3c30844b	0.010773729
40	0xb9a9893b	-0.00032336437
41	0xbce2aae9	-0.027669387
42	0x3c451b87	0.012030489
43	0x3b5759ee	0.0032859999
44	0xba2fce28	-0.000670644
45	0x3c893787	0.01675011
46	0xbb61a7c5	-0.0034432274
47	0x3cac7cfc	0.021055691
48	0x3c8e7e0d	0.01739409
49	0x3c1427f4	0.009042729
50	0x3b877a80	0.004134476
51	0xbba420ea	-0.0050088065
52	0x3c08a47e	0.008339999
53	0x3d138c77	0.03602263
54	0x3d4c9425	0.04994597
55	0xbc10595c	-0.008810367
56	0xbc372d54	-0.011180241
57	0x3c61df4b	0.013786147
58	0x3c0026fe	0.007821796
59	0x3b59c440	0.0033228546
60	0x3c73be31	0.014876888
61	0xbbddbec8	-0.0067671277
62	0x3b1acd37	0.0023620853
63	0x2d88f6d3	1.5571022e-11
64	0xbca581d4	-0.020203508
65	0xbcd9e82b	-0.026599964
66	0xbab9370e	-0.0014130787
67	0xbd665b6a	-0.056239523
68	0xbd1cd87e	-0.0382924
69	0xbd1906e5	-0.03736009
70	0xbd3ac055	-0.04559358
71	0xbce4c5a5	-0.027926276
72	0xbd3fcad3	-0.046824288
73	0xbcf96c28	-0.03044708
74	0xbd9923be	-0.074775204
75	0xbaeb1828	-0.0017936276
76	0x3d32c068	0.043640524
77	0x3d3ad128	0.045609623
78	0x3d55bd4f	0.052182492
79	0x3c13b845	0.009016101
80	0x3d31cafa	0.043406464
81	0x2dd1ab39	2.3836587e-11
82	0xbd3b44f9	-0.045720074
83	0x3c8a261c	0.016863875
84	0x3d00fd67	0.031491663
85	0xbd6a299b	-0.057168584
86	0xbd058978	-0.032601804
87	0x3b05c41e	0.0020411084
88	0xad895b0d	-1.5615531e-11
89	0xbc7061c6	-0.0146717485
90	0xbc00fccc	-0.0078727715
91	0xbbb45566	-0.0055033443
92	0x3d8ec61e	0.069713816
93	0x3c62648e	0.013817919
94	0xbc3d1a14	-0.011541862
95	0x3d26680e	0.040626578
96	0x3defaa6c	0.11702427
97	0xbb865611	-0.0040996154
98	0x3d9b7d39	0.07592244
99	0x3c2f5885	0.010702257
100	0x3d80fc1a	0.062980846
101	0xbc423f90	-0.011855975
102	0xbd89599d	-0.067065455
103	0x3d76bcba	0.060238577
104	0x3ca839fc	0.020535462
105	0xbd84abfd	-0.06478117
106	0x3d04a4b7	0.032383647
107	0xbd2251e0	-0.039628863
108	0x3d3270aa	0.043564476
109	0x3cb343f6	0.021882992
110	0x3d867217	0.0656473
111	0x3daedb7b	0.08537956
112	0xbd74efb5	-0.059798915
113	0x3d107539	0.035268042
114	0x3c943580	0.018091917
115	0xbc9c4f6b	-0.019080838
116	0x3d6d49eb	0.05793182
117	0x3e0bc5fe	0.13649747
118	0x3d534c70	0.05158657
119	0xbc3bab75	-0.011454453
120	0x3ad01770	0.0015876126
121	0x3a75b642	0.0009373167
122	0x3d3533e7	0.04423895
123	0xbc7f93a1	-0.015599162
124	0xbbd938dc	-0.0066290926
125	0xbc205af7	-0.009787313
126	0xbca8b69a	-0.020594884
127	0x2c77113a	3.5110374e-12
128	0xb920dd9e	-0.00015341348
129	0xbce1e891	-0.027576717
130	0xbd920c9e	-0.07131313
131	0xbca93d7a	-0.020659197
132	0x3c11e181	0.008903862
133	0x3d6e27f2	0.058143564
134	0x3d30ac95	0.043133337
135	0x3d6541f0	0.055971086
136	0xbcdc0639	-0.026858436
137	0x3ccfbe54	0.02535931
138	0xbc14ef2e	-0.009090228
139	0x3d4ce8fc	0.05002688
140	0xbd6c3d09	-0.057675395
141	0x3d35c75b	0.044379573
142	0xbc8f623d	-0.017502898
143	0xbc407b65	-0.01174817
144	0x3c3d58e2	0.011556836
145	0x2d14b50f	8.453029e-12
146	0x3d28f3c9	0.041248117
147	0xbdad0cd9	-0.08449716
148	0xbd9ee5b3	-0.077586554
149	0xbd6967d1	-0.056983773
150	0xbcebeb3f	-0.028798698
151	0xbc851fb8	-0.016250476
152	0x2dc2aa89	2.213098e-11
153	0x3d3b0f03	0.045668613
154	0xbd02ad37	-0.03190347
155	0x3dd32eeb	0.10311683
156	0x3ced61c7	0.028977288
157	0x3af75b22	0.0018871764
158	0xbbcbe31a	-0.006222141
159	0x3d3e360e	0.04643827
160	0xbdfc7df8	-0.12328714
161	0x3cea42e0	0.028596342
162	0x3ae512ec	0.0017476953
163	0xbbd6b045	-0.0065517747
164	0x3b41e211	0.002958421
165	0x3bdb67e5	0.006695735
166	0xbb911a6d	-0.004428199
167	0x3d0f4953	0.034982037
168	0xbd88342c	-0.06650576
169	0xbd04cf15	-0.03242405
170	0xbc563648	-0.013074465
171	0x3d2fca01	0.042917255
172	0x3d56cf7e	0.052443974
173	0xbcda3e62	-0.026641075
174	0xbd672c6d	-0.056438852
175	0x3c6bb7b6	0.014387062
176	0x3d3457ba	0.044028975
177	0xbd3a7651	-0.04552299
178	0xbc0daf62	-0.008647772
179	0xbd61a165	-0.05508556
180	0xbce2cd0a	-0.02768566
181	0xbd6ca25c	-0.057772025
182	0x3d3079ad	0.04308479
183	0xbd68454a	-0.056706704
184	0xbdd54caa	-0.10415013
185	0xbc1c4fb4	-0.009540487
186	0x3dafb3b6	0.08579199
187	0xbd0b09a6	-0.03394475
188	0xbbc222f8	-0.0059245788
189	0x3884ef60	6.3388376e-05
190	0xbc06a805	-0.00821877
191	0xacb076a5	-5.015393e-12
192	0xbc13c7cb	-0.009019802
193	0x3d95bcf4	0.073114306
194	0x3bd8e23f	0.0066187675
195	0xbd621233	-0.055193137
196	0x3bf237ca	0.0073919045
197	0x3dc5dc86	0.09661202
198	0xbd41f527	-0.047352936
199	0x3c475cab	0.01216809
200	0xbd5290c1	-0.05140758
201	0xbd86b0e7	-0.0657671
202	0x3e3005ae	0.17189667
203	0xbe2e41cb	-0.17017286
204	0x3c281c2d	0.010260624
205	0xbd00367e	-0.031301968
206	0x3e2fbced	0.17161913
207	0xbc9b0c59	-0.018926786
208	0xbd47a656	-0.048742615
209	0xad0bdcb6	-7.950243e-12
210	0x3d5ed505	0.05440237
211	0xbb4577aa	-0.003013114
212	0x3c8b5347	0.017007483
213	0x3dcaafd3	0.09896817
214	0x3dbda125	0.092592515
215	0xbd2552c6	-0.040362142
216	0xad822835	-1.4797144e-11
217	0xbdabe699	-0.083935924
218	0x3c42bbf8	0.011885636
219	0xbdc77411	-0.09738935
220	0x3d3e7b56	0.04650434
221	0xbcd32b3e	-0.025777455
222	0xbd84e2ed	-0.06488595
223	0x3d9cd0e6	0.07657032
224	0x3d845223	0.06460979
225	0x3c84f409	0.016229646
226	0xbb8aaee7	-0.0042322758
227	0xbcf680bf	-0.030090688
228	0xbd1e591d	-0.038659204
229	0xbd47a284	-0.04873897
230	0xbc31443e	-0.010819493
231	0x3d5a1204	0.053239837
232	0x3e27b127	0.16376172
233	0x3e2a19de	0.1661143
234	0x3dad1497	0.08451193
235	0xbcdb536a	-0.026773173
236	0x3d981bfd	0.07427213
237	0xbc979fcf	-0.01850882
238	0xbd08e4ec	-0.033421442
239	0xbd524f3e	-0.051345102
240	0xbd992118	-0.07477015
241	0x3d2f5bb5	0.042812068
242	0xbd431406	-0.047626518
243	0x3d653d02	0.055966385
244	0xbdb2c6ad	-0.08729301
245	0xbb8ff041	-0.004392654
246	0xbd5cb4c0	-0.053883314
247	0x3e251898	0.16122663
248	0x3debf532	0.11521377
249	0xbc98cd98	-0.018652722
250	0xbd0ad765	-0.033896822
251	0x3d78914a	0.060685433
252	0xbcbe0220	-0.023194373
253	0x3d9345cc	0.07191047
254	0xbd392924	-0.04520525
255	0x2ce79ec4	6.5830414e-12

gc1.bias f4 [64]
0	0x3da7d7da	0.08195467
1	0x3d748584	0.059697643
2	0x3dabeb9e	0.0839455
3	0x3d91adfb	0.07113262
4	0x3d631ef5	0.055449445
5	0x3d88619f	0.06659245
6	0x3d461b7a	0.048366047
7	0x3d669259	0.05629191
8	0x3d8c0655	0.06837145
9	0x3d834ff6	0.06411736
10	0x3d1c3baf	0.038142856
11	0x3d871748	0.065962374
12	0x3d44e4e0	0.048069835
13	0x3d5af26d	0.05345385
14	0x3d70e5c6	0.05881288
15	0x3d8557cd	0.06510887
16	0x3d8e9c11	0.06963361
17	0xbc6f4c10	-0.014605537
18	0x3d86dd97	0.06585234
19	0x3d8f4f10	0.06997502
20	0x3dab0954	0.083513886
21	0x3d96b350	0.0735842
22	0x3d9ab92b	0.07554849
23	0x3d84972a	0.06474145
24	0xbd4d51be	-0.050126784
25	0x3d64ab30	0.05582732
26	0x3d924e4f	0.071438424
27	0x3d927dbc	0.07152888
28	0x3d77be49	0.060484204
29	0x3d491961	0.04909647
30	0x3d8afb23	0.06786182
31	0x3d6d4d86	0.05793526
32	0x3d5482d9	0.0518826
33	0x3dabcf55	0.08389155
34	0x3d7b19d3	0.061303925
35	0x3d8a0bf9	0.06740565
36	0x3d8f8da0	0.07009435
37	0x3d894aa0	0.06703687
38	0x3db7feb0	0.08984125
39	0x3d8e4e67	0.06948548
40	0x3d2623ee	0.04056161
41	0x3d62653a	0.05527232
42	0x3d661b86	0.056178592
43	0x3d866fe7	0.065643124
44	0x3d5a0ea9	0.053236637
45	0x3d798917	0.060921755
46	0x3db12c9d	0.086510874
47	0x3d875a12	0.066089764
48	0x3d8e897d	0.069598176
49	0x3d8be8ce	0.06831513
50	0x3dac4679	0.08411879
51	0x3da55975	0.08073703
52	0x3db40f52	0.087919846
53	0x3d874ffd	0.066070534
54	0x3d8f98f8	0.07011598
55	0x3d998782	0.07496549
56	0x3dd90526	0.10596685
57	0x3d95d4a0	0.073159456
58	0x3d581280	0.052752018
59	0x3d8b330d	0.067968465
60	0x3d40ef25	0.047103066
61	0x3d2d69a7	0.042337086
62	0x3dd4d30b	0.10391816
63	0xb8a553fe	-7.883458e-05

gc2.weight f4 [64, 7]
0	0xbf625271	-0.88407046
1	0x3d22a5e5	0.03970899
2	0x3fa11036	1.2583072
3	0x3f02ea38	0.5113864
4	0x3f6777fb	0.9041745
5	0xbf84fe4c	-1.0390105
6	0xbf5d08a1	-0.8634129
7	0x3f6a13bf	0.9143638
8	0xbfb23d93	-1.3925041
9	0xbfa1fc2d	-1.2655083
10	0x3fb1e033	1.3896545
11	0xbfa66744	-1.3000264
12	0x3fad04c9	1.3517085
13	0x3cda21c6	0.026627433
14	0xbf4d3b2b	-0.8016841
15	0xbf0af118	-0.5427413
16	0xbf7241db	-0.9463174
17	0x3fa1fd87	1.2655495
18	0x3fab6641	1.339058
19	0xbf8b8742	-1.0900652
20	0x3e6b5796	0.2298263
21	0xbf3c2c09	-0.7350469
22	0xbf27ffa1	-0.65624434
23	0x40025741	2.0365756
24	0x4008e14c	2.138751
25	0xbfeb6e36	-1.8393009
26	0xbf9f7bee	-1.2459695
27	0x3e7b9838	0.24569786
28	0xbe0cf781	-0.1376629
29	0x3e40d3d4	0.18830806
30	0x3fb74b1f	1.43198
31	0x3f828684	1.0197301
32	0xbf960683	-1.1720737
33	0xbf67613e	-0.90382755
34	0xbf5f5340	-0.87236404
35	0x3f822acd	1.0169312
36	0x3f9fff85	1.2499853
37	0x3fa2b9b6	1.2712924
38	0xbff7455a	-1.931804
39	0x3f75309c	0.957773
40	0xbfd20316	-1.6407192
41	0xbf1e27a3	-0.6177923
42	0xbcaf2b3f	-0.021382926
43	0xbf216ff2	-0.6306144
44	0x3fa87155	1.3159586
45	0xbecd3332	-0.4007812
46	0x3dfce4c0	0.12348318
47	0x3f06534b	0.52470845
48	0xbf3cd5aa	-0.73763525
49	0x3f29bafd	0.66300946
50	0xbf79bc6e	-0.97553146
51	0xbf7ccc9c	-0.9874971
52	0xbf04ab4a	-0.51823866
53	0x3fa22a49	1.2669154
54	0x3fa12e08	1.2592173
55	0xbf1a6ed1	-0.6032534
56	0xbeec9df8	-0.4621427
57	0xbf1b9e77	-0.60788673
58	0x3fa8ff58	1.3202925
59	0x3f967beb	1.1756567
60	0xbfa5f063	-1.2963985
61	0xbf77431e	-0.9658679
62	0x3e65e1d6	0.22449431
63	0xbee60e21	-0.44932655
64	0xbea0786a	-0.3134187
65	0x3f91f805	1.1403815
66	0x3f56a70f	0.8384866
67	0xbf836e14	-1.0267968
68	0x3f2de25b	0.67923516
69	0xbf19d4aa	-0.60090125
70	0x3ffa56cd	1.955774
71	0xbf37fe9a	-0.71872866
72	0xbf83a8e7	-1.028592
73	0x3fda17d5	1.7038523
74	0xbfa09ca0	-1.2547798
75	0xbf4d969e	-0.8030795
76	0xbf088923	-0.53334254
77	0xbf58d601	-0.84701544
78	0xbf489ba9	-0.7836252
79	0x3ff5ecc0	1.9212875
80	0xbfe07c62	-1.7537959
81	0xbfc636f2	-1.5485518
82	0x3fddac11	1.7318135
83	0x3fadf978	1.3591757
84	0xbf213668	-0.6297364
85	0x3ef37671	0.475513
86	0xbe526801	-0.20547487
87	0x3fa8f41b	1.3199495
88	0xbf91a7de	-1.1379354
89	0xbf5cc579	-0.8623882
90	0x3dc5c43d	0.0965657
91	0xbf0e64e6	-0.5562271
92	0x3f589cba	0.84614146
93	0xbdea8af9	-0.11452288
94	0xbf9ce390	-1.2256947
95	0x3f979615	1.1842676
96	0x3f8dfd5e	1.1092947
97	0xbf5142b8	-0.8174243
98	0x3fb324db	1.3995622
99	0x3f8c5d70	1.0966015
100	0xbfd84425	-1.6895796
101	0xbff33075	-1.8999163
102	0x3fe30de1	1.773861
103	0xbfd53947	-1.6658105
104	0x3f8bd96f	1.092573
105	0xbf177e67	-0.5917725
106	0x3ea960b7	0.330816
107	0x3fa81ca5	1.3133742
108	0x3f5bb114	0.85817075
109	0xbf8cf60d	-1.1012589
110	0xbf7d24cd	-0.9888428
111	0xbef09f33	-0.4699646
112	0xbf413cff	-0.754837
113	0xbf34987c	-0.7054517
114	0xbf6509f3	-0.89468306
115	0xbfe4cf33	-1.7875732
116	0x3fc5ac16	1.5443141
117	0x3f9c2a75	1.2200457
118	0x3fba51e8	1.4556246
119	0x2e315b47	4.032621e-11
120	0x2ef759cd	1.12482114e-10
121	0x2e87b37e	6.1709735e-11
122	0x2d8eae41	1.6220915e-11
123	0xac2e0164	-2.472766e-12
124	0xae0b5b2c	-3.1685918e-11
125	0x2d61f30f	1.2843739e-11
126	0x3f5fe7f5	0.87463313
127	0x3dc4ee5d	0.09615777
128	0x3f9f5f19	1.2450897
129	0xbf7135b1	-0.9422255
130	0x3db0e252	0.08636917
131	0xbfa6b48e	-1.3023851
132	0xbee6f21f	-0.451066
133	0xbf32de01	-0.6987
134	0xbf270999	-0.6524902
135	0xbf7a30e6	-0.97730863
136	0x3fd27451	1.6441747
137	0xbf9374c5	-1.152001
138	0xbf0ffd5d	-0.56245977
139	0x3fdc36d4	1.7204232
140	0xbf7afe38	-0.9804416
141	0x3db807e3	0.08985879
142	0xbf8928e9	-1.071561
143	0x3fb0792c	1.3786979
144	0x3fb1943e	1.3873365
145	0xbface9d2	-1.3508856
146	0x3ebe592a	0.37177402
147	0x3ef252d1	0.4732881
148	0xbf801f5c	-1.000957
149	0xbf6ca05f	-0.92432207
150	0x3fac08df	1.3440207
151	0x3fbe0b21	1.4847146
152	0xbf998638	-1.1994085
153	0xbf10c71e	-0.5655383
154	0x3f754222	0.95804036
155	0x3ec10c1a	0.37704545
156	0x3f933ce1	1.1502954
157	0x3f9e0495	1.2345148
158	0xbfcd7242	-1.6050494
159	0xbfbcfb54	-1.4764199
160	0xbef86f4d	-0.48522416
161	0xbf16c23d	-0.58890134
162	0x3e6fc74a	0.23415866
163	0x3fbda813	1.4816917
164	0x3e82cc7d	0.25546637
165	0xbf8a2edb	-1.0795549
166	0xbf733e37	-0.9501681
167	0xbd1f95d5	-0.03896125
168	0xba2829df	-0.00064149307
169	0xb7c2e65e	-2.3233875e-05
170	0xb9caadc7	-0.00038657917
171	0xbc9b94ed	-0.018991912
172	0x330387a8	3.0624193e-08
173	0xb0dc5d45	-1.6033616e-09
174	0xb731acae	-1.0590227e-05
175	0xbf60f89f	-0.87879366
176	0xbea1d9ff	-0.3161163
177	0x3fa64d25	1.2992293
178	0xbf941377	-1.156844
179	0x3f7dcfa9	0.9914499
180	0x3f820683	1.0158237
181	0xbf50c246	-0.8154644
182	0xbf365474	-0.71222615
183	0x3dea42cb	0.11438521
184	0xbec01f89	-0.3752406
185	0x3f80c4b3	1.0060028
186	0x3fac7b4f	1.3475131
187	0xbf338092	-0.7011806
188	0xbf3d8c25	-0.7404197
189	0xbf867cbd	-1.0506817
190	0xbf004463	-0.5010435
191	0x3fc20377	1.5157307
192	0xbf9e8b8d	-1.2386338
193	0x3f84b487	1.0367593
194	0x3fb6f6ec	1.4294105
195	0xbf5e6d82	-0.86885846
196	0x3fb3b513	1.4039634
197	0x3f4b1518	0.7932906
198	0xbfb1e716	-1.3898647
199	0xbfc402bb	-1.5313333
200	0xbfb095d3	-1.3795723
201	0x3fa10286	1.2578895
202	0x3f8cff2a	1.101537
203	0xbf2e7d9a	-0.681604
204	0xbc91b7fd	-0.017787928
205	0xbf6eba74	-0.93253255
206	0x3d85519c	0.065097064
207	0x3f98197b	1.1882776
208	0x3f500ab9	0.8126636
209	0xbeda0268	-0.4257996
210	0xbf472e9f	-0.77805513
211	0xbeaef57a	-0.3417166
212	0x3fa342f0	1.2754803
213	0x3f14a781	0.5806809
214	0xbf95ae44	-1.1693807
215	0xbf2d95fa	-0.6780697
216	0x3e36e17e	0.17859456
217	0x3f6e466d	0.9307621
218	0x3f540ec7	0.8283505
219	0xbfc21c58	-1.51649
220	0xbfc1fac9	-1.5154659
221	0x3f92ef55	1.1479288
222	0x3f8c9d67	1.0985535
223	0xbe431f4e	-0.1905491
224	0xbf76535c	-0.96220946
225	0x3fea980c	1.8327651
226	0xbfb5eaca	-1.4212277
227	0x40109648	2.2591724
228	0xbfb48aca	-1.4104855
229	0xbf9b91c7	-1.2153863
230	0x3f1975cb	0.5994536
231	0xbe15d5e9	-0.14632381
232	0xbeadd8a5	-0.3395435
233	0x3f87b4fa	1.0602105
234	0xbfa60e2f	-1.2973078
235	0x3fb4787a	1.4099267
236	0xbfbac99f	-1.459278
237	0x3f773b32	0.965747
238	0x3f165e59	0.58737713
239	0x3f676236	0.90384233
240	0xbf938434	-1.152472
241	0xbfa30af9	-1.2737724
242	0xbfb85623	-1.4401287
243	0x3fb309fd	1.3987423
244	0x3f859a8f	1.0437793
245	0xbf458779	-0.7715984
246	0xbe1bad16	-0.15202746
247	0xbf731fc7	-0.94970363
248	0x3f87a36a	1.0596745
249	0x3f4c5b0e	0.7982644
250	0x3f42e94a	0.7613722
251	0xbf3649e9	-0.7120653
252	0xbf640190	-0.89064884
253	0x3fbf1056	1.492686
254	0x3ff5d9ff	1.9207152
255	0xc00b2ff2	-2.1748013

gc2.bias f4 [7]
0	0xbe1ca657	-0.15297829
1	0xbf8675e8	-1.0504732
2	0x3eea0db0	0.45713568
3	0x3df92701	0.121656425
4	0x3e507acb	0.20359342
5	0x3f29d611	0.66342264
6	0xbf06c1aa	-0.5263926
