save_model/baseline/m3s-GCN-Cora-3-0.700000.pth (torch, 370623 bytes, 4 tensors)

gc1.weight f4 [1433, 64]
0	0xbc39299f	-0.011301427
1	0xbc6d1924	-0.014471326
2	0x3d37362b	0.044729393
3	0xbc8e7781	-0.017390968
4	0xbd51c2ce	-0.05121117
5	0xbbbb756a	-0.005720784
6	0x3c0b394c	0.008497547
7	0x3bbf25ff	0.005833387
8	0x3bd4b517	0.006491314
9	0x3d37dc21	0.044887666
10	0x3d32f1a5	0.04368748
11	0xbc170dc6	-0.009219592
12	0x3d224a3e	0.039621584
13	0xb1637800	-3.310106e-09
14	0x3a80d50f	0.0009829121
15	0xbc4f2aaf	-0.012644454
16	0x3d25b9e1	0.04046047
17	0xbd06696b	-0.03281538
18	0x3be9fe4b	0.00714091
19	0xbb7fea30	-0.0039049499
20	0xbccc7eb7	-0.024962766
21	0x3bc96371	0.0061458875
22	0xbce3fe95	-0.027831355
23	0xbc320221	-0.010864765
24	0x3c32f4d6	0.010922631
25	0x3c723f2a	0.014785567
26	0x3b53542d	0.0032246218
27	0xbb8ea259	-0.0043528494
28	0x3cb3ed3d	0.02196371
29	0xbb82ee58	-0.003995698
30	0xbc460c32	-0.0120878685
31	0x3c04fe08	0.008117206
32	0x3c496c48	0.012293883
33	0x3cdb5800	0.02677536
34	0x3c944cef	0.018103091
35	0x3cefd592	0.029276643
36	0xbcc0b58b	-0.023524066
37	0xbc24ae44	-0.010051314
38	0x3b8130d6	0.0039425893
39	0xbd2b45cc	-0.04181461
40	0xbc074405	-0.008255963
41	0xbc9ab0f9	-0.018883215
42	0xbc66f992	-0.014097588
43	0x371824fb	9.068516e-06
44	0xb71875d2	-9.087338e-06
45	0xbc81a3df	-0.01582521
46	0x3c0efd72	0.008727418
47	0x3c52ee6a	0.012874225
48	0x3c406819	0.011743569
49	0x3cfe7225	0.031060288
50	0x3c9df124	0.019280024
51	0x3bb521cc	0.0055277105
52	0x3b80bcf9	0.0039287773
53	0x3c985462	0.018594924
54	0x3c22239b	0.009896184
55	0x3cff421c	0.031159453
56	0x3cc12857	0.023578806
57	0x38331307	4.2694646e-05
58	0x36dadfcd	6.52296e-06
59	0x3d0a1d9b	0.03371964
60	0xbc1c88ec	-0.009554129
61	0xbc3c2464	-0.011483286
62	0x3d38eaa2	0.04514564
63	0x3c21a563	0.009866091
64	0xbd8021a0	-0.062564135
65	0xbcfc5a26	-0.030804705
66	0x3d60bcb4	0.05486746
67	0x3c309305	0.01077724
68	0xbda36412	-0.07978071
69	0x3cd07396	0.02544574
70	0x3ce50c92	0.027960096
71	0xbd3f60d1	-0.04672319
72	0x3d1195a2	0.03554309
73	0x3de25360	0.11051059
74	0x3b6175f0	0.0034402572
75	0xbc2b1edd	-0.01044437
76	0x3c3ad8ac	0.011404198
77	0x37bff542	2.2883181e-05
78	0x3c36d186	0.011158353
79	0x3bb7ca04	0.005608799
80	0x3d2762b8	0.04086563
81	0xbcd3bd50	-0.025847107
82	0x3d381afe	0.044947617
83	0x3bd45104	0.0064793844
84	0xbcb87078	-0.022514567
85	0x3d08192b	0.033227127
86	0xbdaf5afa	-0.08562274
87	0xbd1f88c3	-0.038948786
88	0xbb46cbd2	-0.0030333889
89	0x3de4e8d3	0.1117722
90	0x3c9451a0	0.018105328
91	0xbcddf6e2	-0.027095262
92	0xbbc00e3c	-0.005861072
93	0x38f86880	0.00011845026
94	0xbcc5298d	-0.024067665
95	0x3d89afbb	0.06722971
96	0x3cde5774	0.02714131
97	0xbbaf9b18	-0.005359065
98	0x3dc76c96	0.09737508
99	0x3d9eccf2	0.07753934
100	0xbda865a8	-0.082225144
101	0xbc85797f	-0.016293285
102	0x3cbc4e36	0.022986513
103	0xbd994e3c	-0.07485625
104	0xbd741415	-0.059589464
105	0xbd0c3090	-0.034226
106	0xbca9cd64	-0.02072782
107	0xb7990c89	-1.8244858e-05
108	0xb686949e	-4.0108125e-06
109	0xbda1409b	-0.07873651
110	0x3a913e7a	0.0011081242
111	0x3cf1c226	0.029511523
112	0xbb4f3fa4	-0.0031623626
113	0x3d24b96c	0.040215895
114	0x3d59f0f3	0.053208303
115	0x3c5510ce	0.013004495
116	0xbd01c03a	-0.031677462
117	0x3d8a53e4	0.06754282
118	0xbaba51ff	-0.001421511
119	0x3d4441cf	0.047914322
120	0xbb2fdaa3	-0.0026833198
121	0x35c164e0	1.4408979e-06
122	0xb7934f30	-1.756064e-05
123	0x3df64aa9	0.12025959
124	0xbb220d86	-0.00247273
125	0x3cbbc88f	0.022922782
126	0x3cca0394	0.02465991
127	0xbb3cf702	-0.0028833752
128	0xbcc6389c	-0.024196915
129	0xbd3231cd	-0.043504525
130	0x3b71c07b	0.003688841
131	0x3d5a3665	0.05327453
132	0xbdaa4124	-0.08313206
133	0x3d09b704	0.033621803
134	0x3cb43345	0.021997103
135	0xbcb9a395	-0.02266101
136	0x3d3304fc	0.043705925
137	0x3c160e66	0.009158706
138	0x3d6ede15	0.058317263
139	0xbad4f610	-0.0016247649
140	0x3d4e3b7b	0.050349694
141	0xb7a37963	-1.948764e-05
142	0x3c15052a	0.0090954695
143	0x3cf181b2	0.029480789
144	0x3d753fbd	0.05987524
145	0xbd117e5f	-0.035520907
146	0x3d38951d	0.04506408
147	0xbccaafae	-0.024741974
148	0xbbf87860	-0.007582709
149	0x3d283e1a	0.04107485
150	0xbda62bf5	-0.08113853
151	0xbcc8324d	-0.024438048
152	0x3cb2d7aa	0.021831352
153	0xbd017981	-0.031610016
154	0xbbfe2fec	-0.0077571776
155	0x3b882b01	0.004155517
156	0xbbc880a7	-0.006118852
157	0x3c67f733	0.014158058
158	0x3c84e969	0.01622458
159	0xbc84c771	-0.016208382
160	0x3c9fd18e	0.019509103
161	0xbd1428d8	-0.036171764
162	0x3bfc9767	0.0077084783
163	0xbd71103c	-0.058853373
164	0x3cefeb02	0.029286865
165	0xbc350ae8	-0.0110499635
166	0xbc985d54	-0.01859919
167	0xbde09e90	-0.109677434
168	0x3c25f943	0.010130229
169	0xbda56ea8	-0.08077747
170	0x39f1b848	0.00046104402
171	0x36de868d	6.6317793e-06
172	0xb74de6f4	-1.2272725e-05
173	0x3b5f9eec	0.0034121824
174	0x3c10786c	0.008817773
175	0x3cf0f5f2	0.02941415
176	0x3cb0723f	0.021538852
177	0x3d4eb02f	0.05046099
178	0x3d72d557	0.059285488
179	0x3ca99a01	0.020703318
180	0x3c5edae5	0.013601993
181	0xbcd8f8aa	-0.02648576
182	0x3ca13cef	0.019682376
183	0x3db18485	0.08667854
184	0xbca25717	-0.019816918
185	0xb9a94727	-0.00032287205
186	0xb6335956	-2.672508e-06
187	0x3be6f2c0	0.007047981
188	0x3c8e1b42	0.017346982
189	0xbe120fb5	-0.14263804
190	0x3cabcf8b	0.020972988
191	0x3cfd3990	0.030911237
192	0x3c9b2fe9	0.018943744
193	0x3b5663dd	0.0032713332
194	0xbd0edf93	-0.034881186
195	0x3e06c31e	0.13160369
196	0xbd8104d7	-0.06299751
197	0x3e21681c	0.15762371
198	0xbcc1a654	-0.023638882
199	0x3d8ac666	0.06776123
200	0xbd1ff724	-0.03905405
201	0xbd196a59	-0.037454937
202	0xbd0315a3	-0.032003056
203	0x3d55d696	0.0522066
204	0xbdb49eb8	-0.08819336
205	0xb63f38c3	-2.8494258e-06
206	0xbd3376f8	-0.04381463
207	0x3e1b80d5	0.15185864
208	0xbd2efc7a	-0.04272125
209	0x3e1c8d88	0.15288365
210	0x3db21a72	0.0869645
211	0x3bfe0b38	0.007752802
212	0xbcb929c3	-0.022602921
213	0x3e04945a	0.12947217
214	0xbd4f3b17	-0.05059346
215	0xbd081077	-0.033218827
216	0x3c441256	0.011967262
217	0x3c70980a	0.014684686
218	0x3e1d9d03	0.15391926
219	0xbd1efc0b	-0.038814586
220	0xbdd0f7c8	-0.102035105
221	0xbd96be9d	-0.07360575
222	0x3bf3c976	0.0074397875
223	0x3d3b8809	0.04578403
224	0xbd800fcb	-0.06253012
225	0xbdd63b5b	-0.1046054
226	0x3d80a4ee	0.06281458
227	0x3d0cd957	0.03438696
228	0xbc27c8bc	-0.01024073
229	0x3daba678	0.08381361
230	0x3b395182	0.0028277342
231	0xbcf04d24	-0.029333659
232	0x3d5ec682	0.05438853
233	0xbd931f34	-0.07183686
234	0xbd8f181f	-0.069870226
235	0xb55b1148	-8.1609005e-07
236	0xb54add64	-7.557303e-07
237	0x3d17d97a	0.037072636
238	0x3e1b2d96	0.15154108
239	0x3c501a20	0.012701541
240	0xbda46a10	-0.08028042
241	0xbd3ef6ca	-0.046622075
242	0x3e0139f3	0.12619762
243	0x3dc264b8	0.09491867
244	0xbdadccc8	-0.084863245
245	0xbca346be	-0.019931193
246	0xbc6ab792	-0.014325993
247	0x3d5a6b6b	0.053325098
248	0xbd899e27	-0.06719618
249	0xb98a5ef6	-0.00026392163
250	0xb7850119	-1.5855347e-05
251	0xbc8161fe	-0.015793797
252	0x3d6d29ab	0.057901066
253	0x3b838cf2	0.0040146047
254	0xbd86832c	-0.06567988
255	0x3d79f651	0.06102592

gc1.bias f4 [64]
0	0x3dd631c6	0.10458712
1	0x3c09c7c1	0.008409441
2	0x3e15d557	0.14632164
3	0x3d6eaffc	0.0582733
4	0x3d8822b0	0.06647241
5	0x3d075390	0.033038676
6	0x3e090d34	0.13383943
7	0x3dfe32a8	0.12412006
8	0x3dc44678	0.09583753
9	0x3dd6bc6e	0.10485159
10	0x3ded39de	0.11583303
11	0x3d339135	0.043839652
12	0x3e08ed00	0.13371658
13	0xba5fc01c	-0.00085354014
14	0x3dc690af	0.09695565
15	0x3d72885d	0.059212077
16	0x3e0f8560	0.14015722
17	0x3d37f780	0.04491377
18	0x3d81c63c	0.06336638
19	0x3e090339	0.13380136
20	0x3db76654	0.089550644
21	0x3d68f906	0.056878112
22	0x3df5d157	0.12002819
23	0x3e05ce9b	0.13067095
24	0x3e1443f1	0.14479043
25	0x3d9e58ed	0.07731805
26	0x3dc7e60a	0.09760673
27	0x3df5e567	0.12006646
28	0x3e0b98b6	0.13632473
29	0x3da8e09a	0.08245964
30	0x3d6e6f2c	0.05821149
31	0x3d8f383c	0.06993148
32	0x3da14e3e	0.07876252
33	0x3e007662	0.1254516
34	0x3d876ffb	0.066131555
35	0x3df05869	0.11735613
36	0x3d79079b	0.06079827
37	0x3d58c8f5	0.052926023
38	0x3dadf47b	0.084938966
39	0x3deb2cd5	0.114831604
40	0x3df19dfa	0.1179771
41	0x3d71bf2c	0.059020206
42	0x3d88faa2	0.066884294
43	0xbceb29b2	-0.028706405
44	0xbc9c1fab	-0.01905807
45	0x3df4dac3	0.11955788
46	0x3d88f2de	0.06686948
47	0x3dc4fdc4	0.096187145
48	0x3e26b37d	0.16279407
49	0x3e03f598	0.12886655
50	0x3da84cc2	0.082177654
51	0x3dc5b0b7	0.09652846
52	0x3dcdc75b	0.1004779
53	0x3df9d0b2	0.121980086
54	0x3dead482	0.11466314
55	0x3dd3dd7e	0.10344981
56	0x3e17ec0f	0.14836143
57	0x3a52b416	0.0008037699
58	0xbd5590cc	-0.052140042
59	0x3dcae204	0.0990639
60	0x3d944eec	0.07241616
61	0x3db830fe	0.089937195
62	0x3de58853	0.112076424
63	0x3dffff09	0.12499816

gc2.weight f4 [64, 7]
0	0x3e89a338	0.2688234
1	0xbf0cfbf2	-0.5507194
2	0xbf036024	-0.51318574
3	0xbf8787c5	-1.0588309
4	0x3f7e0d3e	0.99238956
5	0xbf8b70a0	-1.0893745
6	0x3fa059d6	1.2527416
7	0xbed1858b	-0.40922198
8	0xbd9c2d16	-0.07625787
9	0xbeecc373	-0.46242866
10	0x3d71a759	0.058997486
11	0xbe8aeeb4	-0.2713524
12	0xbe942dc1	-0.28941157
13	0x3f624857	0.8839163
14	0xbeccb8a4	-0.3998462
15	0x3f3733c7	0.7156338
16	0xbf9a4a63	-1.2053951
17	0x3f85eff3	1.0463852
18	0x3f78de17	0.9721388
19	0x3f9b6e1f	1.2142981
20	0xbfbd9f6a	-1.4814274
21	0x3fc1c8a9	1.5139362
22	0x3f6c4348	0.92290163
23	0x3f947665	1.1598631
24	0x3f70157f	0.937828
25	0xbf97c2dd	-1.1856343
26	0xbf91166c	-1.1334968
27	0xbfa9e685	-1.3273474
28	0xbf7520a5	-0.95752937
29	0xbfc2f931	-1.5232297
30	0x3f85b6d5	1.0446421
31	0x3f9ab83d	1.2087475
32	0xbf7f3a4f	-0.99698347
33	0xbf9b00b9	-1.2109596
34	0x3f95ee63	1.1713375
35	0x3f89d3f3	1.0767807
36	0x3f4f8263	0.8105833
37	0xbe0a8976	-0.13529
38	0xbf76825b	-0.96292657
39	0xbf74212d	-0.9536312
40	0xbf44a191	-0.7680903
41	0x3f09cf06	0.5383152
42	0xbe66ad06	-0.2252694
43	0x3dc1526a	0.09439547
44	0x3fa4d116	1.2876308
45	0xbec74536	-0.3891999
46	0x3f8296ae	1.0202234
47	0xbf768de1	-0.9631024
48	0xbfa940e5	-1.3222929
49	0x3f8bdfc7	1.0927666
50	0xbf43b641	-0.7644997
51	0xbf891f07	-1.0712594
52	0x3f729f3d	0.9477423
53	0x3f91a72b	1.1379141
54	0xbfad6469	-1.3546268
55	0xbf93697b	-1.1516565
56	0xbf63be68	-0.8896241
57	0x3de5db07	0.11223417
58	0x3f975af1	1.1824628
59	0xbf95b050	-1.1694431
60	0xbf4297f2	-0.760131
61	0x3f80bfe1	1.0058557
62	0x3f5cbc46	0.8622478
63	0xbf950012	-1.1640646
64	0x3f8bd7af	1.0925196
65	0x3f60b53f	0.8777656
66	0x3f4b8cf3	0.79511946
67	0xbf93c20c	-1.1543593
68	0x3f6377c9	0.8885465
69	0xbfb9879c	-1.449451
70	0xbe930882	-0.28717428
71	0xbf582859	-0.84436566
72	0xbf2840e2	-0.65724003
73	0xbf8fbe39	-1.1229926
74	0x3f8df4d8	1.1090345
75	0x3f7c906b	0.98657864
76	0xbf915e68	-1.1356936
77	0x3f3371e4	0.7009566
78	0x3db869f1	0.09004582
79	0xbe4d0c52	-0.20024231
80	0x3ec7554c	0.38932264
81	0xbf9a2a15	-1.2044092
82	0x3e9cb7e8	0.3060906
83	0x3f2f9729	0.6859003
84	0xbf8f18af	-1.1179408
85	0xbf597658	-0.84946203
86	0x3f93ee7e	1.1557157
87	0xbf90cdb4	-1.1312776
88	0x3f906764	1.1281552
89	0x3f7fdf65	0.9995025
90	0xbf8af1c4	-1.0855031
91	0x37827aa6	1.555432e-05
92	0xb8841c36	-6.299505e-05
93	0xb7837875	-1.567251e-05
94	0xb89152a8	-6.929535e-05
95	0xb80a3404	-3.2950207e-05
96	0x37d36f81	2.5205083e-05
97	0xb8e45069	-0.00010886865
98	0xbd8a9627	-0.067669205
99	0xbf5456cb	-0.82944936
100	0x3f3437ec	0.7039783
101	0x3f7ce6f2	0.98789895
102	0xbf73b95e	-0.9520472
103	0x3f9471d8	1.1597242
104	0xbfb060cd	-1.3779541
105	0x3f93a5d4	1.1534982
106	0x3f545d49	0.8295484
107	0x3fa50dcb	1.2894834
108	0xbf946983	-1.15947
109	0xbf96890b	-1.1760572
110	0xbf98e986	-1.1946266
111	0x3f717eff	0.94334406
112	0xbed663b1	-0.41872934
113	0xbe59ff42	-0.2128878
114	0x3e020f20	0.12701082
115	0xbf9b3a2f	-1.2127131
116	0x3f9ca149	1.223672
117	0x3f1c4de5	0.6105636
118	0xbfa83843	-1.314217
119	0x3f863a7c	1.0486598
120	0x3f82495f	1.0178641
121	0xbf96fb95	-1.1795527
122	0x3f7b881d	0.9825457
123	0xbf89bd80	-1.0760956
124	0xbf9781aa	-1.1836445
125	0x3f994cd2	1.1976569
126	0x3f860f9b	1.0473512
127	0x3f8d5b10	1.1043415
128	0x3d0f6162	0.03500498
129	0x3e301614	0.17195922
130	0xbf947967	-1.1599549
131	0x3f280499	0.65632015
132	0x3d64b552	0.055836983
133	0xbe1919f2	-0.14951304
134	0xbc0c5cdd	-0.008567062
135	0xbee27c6b	-0.44235548
136	0x3f405e0d	0.7514351
137	0x3f81818b	1.0117658
138	0xbfa01ea6	-1.2509353
139	0xbf9a50f1	-1.2055951
140	0xbef8f34f	-0.4862313
141	0xbf27f41e	-0.6560687
142	0x3f865f79	1.0497886
143	0xbf8017b6	-1.0007236
144	0xbe722372	-0.23646334
145	0xbeff4344	-0.49856007
146	0x3f6f3f83	0.93456286
147	0x3f873f46	1.0566185
148	0x3f7b7cc9	0.9823728
149	0xbf9c7d40	-1.2225723
150	0xbef6fd44	-0.482401
151	0xbf95e932	-1.171179
152	0x3f8cae2b	1.0990652
153	0x3f3661b8	0.71242857
154	0xbed25c7a	-0.4108618
155	0xbf8fa8e2	-1.1223414
156	0x3f60818f	0.8769769
157	0x3f2a3323	0.6648428
158	0x3f28d2f2	0.65946877
159	0xbfa5bee8	-1.2948885
160	0x3f8c98bf	1.0984114
161	0xbf7ab056	-0.9792532
162	0xbf4164f6	-0.7554468
163	0x3f494c41	0.7863198
164	0xbf7d0b2a	-0.9884516
165	0x3f9a8b94	1.2073846
166	0xbf3806bd	-0.7188528
167	0x3f3e59dc	0.74355865
168	0xbe3ea1d8	-0.18616426
169	0xbe748efc	-0.23882669
170	0x3f6d3629	0.92660767
171	0xbe24f514	-0.16109115
172	0x3f687d4d	0.90816194
173	0xbf906bd8	-1.1282911
174	0xbfa90ab8	-1.3206396
175	0xbf9a3fa0	-1.2050667
176	0x3fb3f982	1.4060519
177	0x3f949b84	1.160996
178	0x3f8e417b	1.1113733
179	0xbfa165e2	-1.2609217
180	0xbf9572ab	-1.1675619
181	0xbfa11836	-1.2585514
182	0x3f862718	1.048068
183	0x3f82e9a7	1.0227555
184	0xbfa3101a	-1.2739289
185	0xbf96eb28	-1.1790514
186	0x3f91efed	1.1401345
187	0xbfa2769e	-1.2692449
188	0x3f3804f1	0.7188254
189	0xbead4a84	-0.33845913
190	0xbf4db729	-0.80357605
191	0x3f3e10b4	0.74244237
192	0xbf51d32f	-0.81962866
193	0x3f88f69b	1.0700258
194	0xbf748e90	-0.95530033
195	0xbe5db8d3	-0.21652536
196	0xbf58f9be	-0.84756076
197	0xbf5cc536	-0.8623842
198	0xbf5a789e	-0.853403
199	0x3f96a161	1.1767999
200	0x3f96f17c	1.1792445
201	0x3fa69f5a	1.301738
202	0xbf8986cf	-1.0744265
203	0xbf8d7190	-1.1050282
204	0xbee91527	-0.4552395
205	0x3f89bb55	1.0760294
206	0xbf854efb	-1.0414728
207	0xbf619417	-0.8811659
208	0x3f759daf	0.9594373
209	0x3f31beaf	0.69431585
210	0xbd35a6d1	-0.04434854
211	0xbe91953e	-0.28434175
212	0x3f93debf	1.1552352
213	0xbe783af7	-0.24241243
214	0xbf04bab8	-0.5184741
215	0xbf42f9e6	-0.76162565
216	0x3e4687b5	0.19387706
217	0xbf739451	-0.9514819
218	0x3f9364c7	1.151513
219	0x3f97e5a7	1.1866959
220	0xbfa8c3db	-1.318477
221	0xbf840fe3	-1.0317348
222	0xbf844df9	-1.0336295
223	0x3f5c78a9	0.8612161
224	0xbf25bdd5	-0.64742786
225	0x3db21f54	0.086973816
226	0x3f8c7025	1.0971724
227	0x3f9323db	1.1495317
228	0xbf99e0c9	-1.2021724
229	0x3f8ffd82	1.124924
230	0xbf9f476d	-1.2443672
231	0xbfa3ab95	-1.2786738
232	0xbf9230e8	-1.1421175
233	0xbf86d4a9	-1.0533649
234	0x3f8f8f92	1.1215689
235	0x3f840dcf	1.0316714
236	0x3f8b44c5	1.0880362
237	0xbf89ac47	-1.07557
238	0xbeb5a57b	-0.35477814
239	0x3fab0e16	1.3363674
240	0xbf92f89e	-1.1482122
241	0xbf8408ed	-1.0315224
242	0xbf8cbfc0	-1.0996017
243	0x3f8093af	1.004507
244	0x3f9319a8	1.1492205
245	0xbfa13648	-1.259469
246	0x3fa94db0	1.3226833
247	0xbf8fcf60	-1.1235161
248	0x3f991108	1.1958323
249	0x3f9e29af	1.2356471
250	0xbf70373b	-0.93834275
251	0xbf7760ce	-0.9663209
252	0x3f284a45	0.65738326
253	0xbf9a945c	-1.2076526
254	0x3a92d515	0.0011202419
255	0xbde26f71	-0.11056412

gc2.bias f4 [7]
0	0xbe3f51dd	-0.18683572
1	0xbf1a8194	-0.6035397
2	0x3d6defcf	0.058090027
3	0xbf0c28d5	-0.54749805
4	0x3e7a3503	0.24434285
5	0xbd7a6816	-0.06113442
6	0x3f1e8c6b	0.6193301
