save_model/baseline/m3s-GCN-Cora-20-0.700000.pth (torch, 370623 bytes, 4 tensors)

gc1.weight f4 [1433, 64]
-0.015571314 -0.0072774026 0.00255189 4.126652e-09 -0.0014417211 -0.0285917 0.0012114785 0.004121977
0.00745665 -0.011777574 -0.030134916 -0.023440825 0.009926091 0.0049422933 0.0017548231 0.034022108
0.0056829182 0.0006809428 0.018413903 0.015060672 0.022029616 0.0042066793 -0.005976597 0.017830264
0.0083662085 0.005798931 0.0011222027 0.017805865 0.036066137 -0.020358166 0.016838765 -0.002051204
0.023478873 0.0074026743 0.0015208023 -0.0024566061 0.0045465115 -0.0069762943 -0.017940745 0.021183731
0.012851123 -0.016927332 0.0047956994 0.017762836 0.002627368 -0.0030474025 -0.009264305 -0.0025415588
0.00822334 0.006128415 -0.0027478796 0.016229384 -0.033667102 0.00605974 0.022549402 0.02486614
-0.023882857 -0.01703337 0.0023491809 -0.01581627 0.03412756 -0.012380751 -0.014421172 0.0010276221
-0.066335574 0.062062707 0.05321058 -5.8860996e-09 0.019127682 0.007010348 -0.044782765 -0.029772893
-0.108815596 -0.07948876 -0.06982892 -0.09029453 0.021815488 -0.0018810243 0.056850422 0.14514238
0.13980314 -0.00020387094 0.018068893 0.06612409 -0.022412146 -0.03252385 -0.07790559 0.12373549
-0.04228084 0.046287745 -0.024188746 0.062604964 0.041583993 0.005755855 0.019089462 -0.028036838
0.008233868 0.067693904 -0.024776742 -0.017127791 -0.02595057 -0.011247613 0.109736286 -0.01243458
0.004385054 -0.100438885 0.104256034 -0.027543359 0.05499265 -0.018693425 -0.00631639 0.1032197
0.029174177 -0.042038757 -0.0051932875 0.07773994 -0.063139684 -0.011579083 0.0648806 0.03942273
-0.1016146 -0.044394087 0.004485685 0.01829954 0.07768209 -0.046923075 -0.00040723325 0.060360357
-0.07072939 -0.12516104 -0.08709065 9.14488e-09 0.030705627 -0.1117127 0.021175684 -0.02492588
0.0153485965 -0.08756658 -0.1416801 -0.07343618 0.028653894 0.010684658 0.047405783 0.104741074
-0.029900357 0.10724765 0.082218 0.052818358 0.046815693 0.015135493 -0.049609337 0.044360664
0.025190545 0.0760885 0.019660005 0.07383615 0.15749268 -0.11520638 0.09179799 -0.002093541
0.11798973 -0.027494986 -0.06353423 -0.041785605 -0.00074294745 -0.05571867 -0.016936472 -0.009786593
0.053639535 0.0007664778 -0.023188503 0.14576103 -0.030801062 0.012160005 -0.061650254 0.023840439
0.0035063839 0.016173173 -0.01650497 0.04967151 -0.11169909 0.020179523 0.07354479 0.10676153
-0.12006003 -0.032303542 0.013142216 -0.092245854 0.11656132 -0.039933324 -0.05622483 0.07688177
0.0008751352 -0.045568354 -0.04185287 6.702119e-10 0.095941596 0.036119502 -0.034900494 -0.052418277
-0.032373387 -0.04416331 0.075331286 0.09256877 -0.083320096 0.052311476 0.084554456 0.010343373
0.07451699 0.13375129 -0.0032289936 0.16035737 -0.05550244 -0.11954136 0.12012752 -0.011254031
0.073097125 0.008399288 -0.022639269 -0.06676132 -0.07573727 0.01573564 -0.097400665 0.049107727
0.08884414 -0.08495847 -0.08376068 0.040536556 -0.084410846 -0.038574114 0.19781558 -0.10903649
0.10916555 0.036201455 -0.006699213 0.041029267 -0.005308357 0.10117383 0.03785226 0.08734348
0.10205104 -0.01090245 0.01858255 0.11128741 0.12116518 -0.16044159 0.04620597 -0.046775352
0.067405365 -0.018676367 0.20826174 0.079485044 -0.05774119 0.047389586 0.014440574 0.021990763
00000000: d31e 7fbc 4777 eebb 9c3d 273b 6aca 8d31
00000010: 22f8 bcba 2439 eabc 79ca 9e3a a611 873b
00000020: ea56 f43b baf6 40bc 80dd f6bc f906 c0bc
00000030: 0ba1 223c f6f2 a13b 1802 e63a c45a 0b3d
00000040: c637 ba3b 4c81 323a c1d8 963c 09c1 763c
00000050: 7477 b43c 2fd8 893b 54d7 c3bb c610 923c
00000060: 6c12 093c f504 be3b e016 933a 9bdd 913c
00000070: 16ba 133d 2bc6 a6bc 73f1 893c 7e6d 06bb
00000080: c456 c03c 2292 f23b a855 c73a 03ff 20bb
00000090: e7fa 943b 6699 e4bb 78f8 92bc 8189 ad3c
000000a0: 848d 523c 30ab 8abc 3e25 9d3b 5e83 913c
000000b0: ec2f 2c3b eeb6 47bb 50c9 17bc 4890 26bb
000000c0: 30bb 063c dfd0 c83b c515 34bb 7cf3 843c
000000d0: 84e6 09bd c990 c63b 86b9 b83c 13b4 cb3c
000000e0: fba5 c3bc 9189 8bbc b7f4 193b 1f91 81bc
000000f0: 57c9 0b3d a2d8 4abc c846 6cbc 47b1 863a
00000100: f2da 87bd 7735 7e3d 56f3 593d ae3e cab1
00000110: a8b1 9c3c 10b7 e53b 226e 37bd 48e6 f3bc
00000120: b6da debd 01cb a2bd 7702 8fbd 57ec b8bd
00000130: 65b6 b23c b48c f6ba fddb 683d 34a0 143e
00000140: 8e28 0f3e 30c6 55b9 3705 943c 116c 873d
00000150: ad99 b7bc bb37 05bd f78c 9fbd 0869 fd3d
00000160: ad2e 2dbd 3898 3d3d 7a27 c6bc 0837 803d
00000170: fa53 2a3d 9c9b bc3b 8161 9c3c 83ad e5bc
00000180: 58e7 063c 1aa3 8a3d 98f8 cabc 954f 8cbc
00000190: 4a96 d4bc e847 38bc 6bbd e03d 69ba 4bbc
000001a0: 80b0 8f3b e7b2 cdbd 3084 d53d 9ca2 e1bc
000001b0: f93f 613d f422 99bc b8f9 cebb da64 d33d
000001c0: affe ee3c d530 2cbd 742c aabb 1e36 9f3d
000001d0: 614f 81bd 32b6 3dbc 1fe0 843d bb79 213d
000001e0: 511b d0bd 93d6 35bd a7fc 923b ebe8 953c
000001f0: ca17 9f3d 6932 40bd ec81 d5b9 6c3c 773d
00000200: 92da 90bd 372a 00be 955c b2bd 9c1b 1d32
00000210: 5e8a fb3c a1c9 e4bd a178 ad3c 5c31 ccbc
00000220: ae78 7b3c 1b56 b3bd 9714 11be b565 96bd
00000230: 92bb ea3c b40e 2f3c 912c 423d 7d82 d63d
00000240: 98f1 f4bc a8a4 db3d e961 a83d 1058 583d
00000250: d0c1 3f3d dcfa 773c 2933 4bbd 87b3 353d
00000260: 675c ce3c 4ad4 9b3d 050e a13c 6837 973d
00000270: c345 213e 53f1 ebbd 9600 bc3d ca33 09bb
00000280: 99a4 f13d 2a3d e1bc 3c1e 82bd 6227 2bbd
00000290: 5cc2 42ba 4339 64bd 5bbe 8abc f257 20bc
000002a0: 21b5 5b3d 74ed 483a d1f5 bdbc 6142 153e
000002b0: 8252 fcbc c23a 473c fa84 7cbd 064d c33c
000002c0: 5ccb 653b 9a7d 843c 6e35 87bc 5a74 4b3d
000002d0: 7ec2 e4bd 874f a53c a79e 963d caa5 da3d
000002e0: 08e2 f5bd b850 04bd 7352 573c 65eb bcbd
000002f0: b4b7 ee3d 2091 23bd 024c 66bd 3074 9d3d
00000300: 5469 653a e2a5 3abd ea6d 2bbd f839 3830
00000310: 077d c43d 0bf2 133d d2f3 0ebd 8cb4 56bd
00000320: f599 04bd 96e4 34bd 4a47 9a3d b294 bd3d
00000330: baa3 aabd 8f44 563d e32a ad3d 4077 293c
00000340: 5d9c 983d 19f6 083e 869d 53bb b934 243e
00000350: 8756 63bd 1ad2 f4bd 6b05 f63d d462 38bc
00000360: f2b3 953d 2b9d 093c fd75 b9bc 29ba 88bd
00000370: 241c 9bbd 07e8 803c 007a c7bd 2f25 493d
00000380: ebf3 b53d b5fe adbd b88a abbd a909 263d
00000390: 98df acbd e4ff 1dbd 2b90 4a3e 864e dfbd
000003a0: 3092 df3d fa47 143d 1285 dbbb 4e0e 283d
000003b0: baf1 adbb 3a34 cf3d f90a 1b3d 23e1 b23d
000003c0: 2300 d13d 31a0 32bc 6f3a 983c a7ea e33d
000003d0: 7325 f83d cd4a 24be 7942 3d3d 8397 3fbd
000003e0: d30b 8a3d 2eff 98bc 9142 553e 0ec9 a23d
000003f0: 0782 6cbd 951b 423d 2898 6c3c f925 b43c

gc1.bias f4 [64]
0.060411837 0.08556423 0.11061261 -0.039815698 0.07148404 0.073555015 0.06040253 0.07604319
0.059354782 0.06903528 0.09308088 0.11374041 0.048435863 0.064881034 0.1022035 0.058417287
0.07628876 0.052482042 0.06428098 0.066154346 0.058055926 0.059292454 0.065480225 0.04739834
0.08238905 0.06370476 0.06001207 0.059407912 0.0405263 0.06081013 0.054838315 0.07095048
0.042870868 0.062202692 0.12847485 0.06543926 0.08762211 0.0691768 0.050425768 0.059014775
0.05068347 0.093465604 0.08636473 0.042241357 0.06731358 0.052212525 0.056055654 0.06789546
0.056772422 0.06844991 0.086191095 0.058544867 0.07516124 0.057869725 0.054762483 0.04443608
0.07851946 0.058285657 0.084979154 0.092999 0.0499911 0.064712085 0.052357 0.055961136
00000000: 6772 773d 4d3c af3d dd88 e23d c915 23bd
00000010: 3966 923d 03a4 963d a568 773d 88bc 9b3d
00000020: 001e 733d 5e62 8d3d 30a1 be3d bbf0 e83d
00000030: af64 463d 59e0 843d 1250 d13d f746 6f3d
00000040: 483d 9c3d 69f7 563d bfa5 833d ee7b 873d
00000050: 0dcc 6d3d a5dc 723d 7f1a 863d c324 423d
00000060: 97bb a83d a477 823d 37cf 753d b655 733d
00000070: e8fe 253d 0b14 793d 249e 603d 7c4e 913d
00000080: 5d99 2f3d 40c8 7e3d e98e 033e 0505 863d
00000090: 3973 b33d 91ac 8d3d 408b 4e3d 7ab9 713d
000000a0: 7899 4f3d e56a bf3d fedf b03d 4605 2d3d
000000b0: b4db 893d cddc 553d 9d9a 653d c60c 8b3d
000000c0: 338a 683d 772f 8c3d f584 b03d becc 6f3d
000000d0: 23ee 993d ce08 6d3d a04e 603d 9b02 363d
000000e0: d0ce a03d f1bc 6e3d 8d09 ae3d 4276 be3d
000000f0: 78c3 4c3d c587 843d 4b74 563d 8137 653d

gc2.weight f4 [64, 7]
0.2117933 -0.94546014 1.3634843 0.9641564 -0.9727137 -0.87084997 -0.7216404 -1.4259447
-1.4091729 1.055745 1.1038873 -1.2704166 0.99350435 1.6994357 -1.3278939 -1.5733255
-1.7687161 1.5221347 0.8686816 1.3028007 0.91615903 4.5403755e-08 2.6906978e-08 -5.4903246e-08
-1.696323e-08 -6.693024e-08 -1.5244844e-08 -5.8170135e-09 0.29698285 1.2714627 1.2158247 1.1101264
-1.2745497 -1.3030958 -1.5153847 -0.79816264 -0.8941388 1.1621 1.0512053 -1.0180042
-1.1183332 0.92628175 1.2071663 -1.4520797 -1.2970419 -1.6526201 1.1017436 0.98116887
1.2551638 1.0089105 -1.3772323 -1.2607484 1.3538048 -1.3537326 1.3780346 -1.3251547
1.5111072 -1.2797446 1.6467557 -1.7356575 1.6378257 -1.0642209 -1.2438805 0.9625867
-1.5427033 1.4115924 -1.5961916 1.4136125 -1.4466789 1.3977747 0.8371152 -1.1539801
1.0903584 0.63227963 -1.4246293 -1.2840024 1.5244765 1.1758335 -1.5968825 -1.3190646
1.0884758 1.0628897 -1.2917011 1.0571892 -0.49812707 -0.07289648 -0.9384586 -1.0879955
1.2952898 1.283411 0.7369729 -0.62708503 0.08290214 -0.9661154 1.0771846 1.1708398
-0.87711495 -0.8438612 0.52811736 0.50953794 -1.8910514 -0.60815614 0.090352155 0.37892854
1.1452755 -1.2533579 1.6584655 -1.270843 1.4965624 -1.3323065 1.3510773 -1.5032508
-1.590679 0.66778433 -1.2725891 1.4243988 -1.4716821 0.6935574 1.5479429 0.93378294
1.3779329 -1.2805307 -1.6605816 1.5865908 -1.3711379 0.9113896 0.85651207 0.34525752
-1.2990541 0.7775533 -1.201217 1.361181 -1.4702147 -0.84677243 1.3409678 -1.0069915
1.152494 1.0835347 -1.1381848 -1.1864115 1.4190596 -0.23001242 -1.5889343 -1.5554361
-0.14708628 1.4213421 1.0036922 -0.60599554 -1.054699 1.1273423 -0.5172628 1.2604554
1.2099459 -0.8711972 1.8376099 -1.1177393 -1.0632862 1.5127066 -1.2427032 -0.3944044
-1.3723588 -1.2845482 1.4997505 1.2356657 -1.2278103 -1.1913474 0.7517083 0.96500504
0.48138565 0.29207754 -0.8726303 0.78565973 1.1152445 -0.83249867 -1.3112874 0.79926056
0.60961246 -1.3205161 -1.3788495 0.16859435 0.97228545 1.0170813 -0.8137794 0.1398476
1.2975756 -0.55463725 1.4182451 -1.1059556 -0.3677102 -0.59548414 1.0141915 1.1771755
0.37050632 -1.1278452 1.2010204 -1.5163203 1.194457 1.2862382 1.2624556 -1.6898572
-1.3824548 1.4560112 -1.600514 -0.91730595 -0.91833687 1.4366957 1.3737142 -0.9589929
-0.78125656 0.0015837753 1.1254361 0.8500985 1.2900368 -1.8617995 -1.7007926 1.1971693
-0.29331592 0.25300932 0.4601792 1.3364499 1.1119401 -1.1782708 -1.2536012 -1.4699353
0.60441387 1.2703236 -1.0273159 -0.8531947 1.4500319 -1.2845529 -0.9724752 -1.2081183
0.05359252 1.0902039 -1.299674 -1.039309 1.2347183 1.4746523 0.187488 -1.5843133
-1.1548256 0.67286974 0.8403757 1.1347523 0.39414334 -1.1233226 -0.75888157 -1.0366185
1.4349129 1.4033542 -0.8914195 -0.86128247 -0.1448399 -1.1774392 -0.9611614 1.0450648
00000000: 58e0 583e ad09 72bf a786 ae3f f4d2 763f
00000010: c403 79bf 06f0 5ebf 6dbd 38bf 5b85 b6bf
00000020: c75f b4bf a722 873f 2e4c 8d3f 039d a2bf
00000030: 4d56 7e3f 1c87 d93f 6df8 a9bf bb62 c9bf
00000040: 4a65 e2bf 4fd5 c23f eb61 5e3f 2cc2 a63f
00000050: 6689 6a3f f501 4333 1221 e732 c2ce 6bb3
00000060: 8ab6 91b2 4abb 8fb3 c4f3 82b2 fede c7b1
00000070: 230e 983e 4abf a23f 25a0 9b3f 9f18 8e3f
00000080: 7224 a3bf d8cb a6bf 20f8 c1bf 6354 4cbf
00000090: 48e6 64bf b1bf 943f e58d 863f f64d 82bf
000000a0: 8b25 8fbf cd20 6d3f 6d84 9a3f bfdd b9bf
000000b0: 7805 a6bf 0e89 d3bf ef05 8d3f e22d 7b3f
000000c0: 35a9 a03f fb23 813f 2649 b0bf 3460 a1bf
000000d0: 7a49 ad3f 1c47 adbf 7063 b03f ab9e a9bf
000000e0: f66b c13f acce a3bf e4c8 d23f 062a debf
000000f0: 46a4 d13f 6438 88bf 7a37 9fbf 156c 763f
00000100: 4d77 c5bf 0faf b43f 0250 ccbf 41f1 b43f
00000110: c62c b9bf 48ea b23f 2f4d 563f 9fb5 93bf
00000120: dd90 8b3f 14dd 213f 415a b6bf 315a a4bf
00000130: 0c22 c33f b681 963f a566 ccbf 1cd7 a8bf
00000140: 2d53 8b3f c50c 883f 7656 a5bf fa51 873f
00000150: 830a ffbe c04a 95bd d33e 70bf 7043 8bbf
00000160: 0ecc a53f d046 a43f 42aa 3c3f a588 20bf
00000170: 99c8 a93d 5753 77bf 2fe1 893f 14de 953f
00000180: 9b8a 60bf 4a07 58bf b332 073f 1471 023f
00000190: f90d f2bf 1fb0 1bbf 8d0a b93d ec02 c23e
000001a0: 6398 923f 086e a0bf 9948 d43f fcaa a2bf
000001b0: 5b8f bf3f 0589 aabf 1af0 ac3f 866a c0bf
000001c0: 5f9b cbbf eaf3 2a3f 33e4 a2bf b352 b63f
000001d0: 1460 bcbf fa8c 313f fe22 c63f 660c 6f3f
000001e0: 1b60 b03f 6ee8 a3bf f08d d4bf 6815 cb3f
000001f0: 7281 afbf d450 693f 6044 5b3f 98c5 b03e
00000200: 6847 a6bf bc0d 473f 7bc1 99bf 2e3b ae3f
00000210: ff2f bcbf 14c6 58bf d5a4 ab3f 19e5 80bf
00000220: ec84 933f 44b1 8a3f 0ab0 91bf 55dc 97bf
00000230: bfa3 b53f 6088 6bbe 3362 cbbf 8818 c7bf
00000240: c99d 16be 8aee b53f fc78 803f 8622 1bbf
00000250: 6000 87bf c14c 903f 566b 04bf 9a56 a13f
00000260: 82df 9a3f c806 5fbf cd36 eb3f 1512 8fbf
00000270: c319 88bf 5fa0 c13f e610 9fbf 60ef c9be
00000280: 74a9 afbf 136c a4bf d3f7 bf3f 4b2a 9e3f
00000290: e328 9dbf 127e 98bf f56f 403f 920a 773f
000002a0: 2e78 f63e 308b 953e b364 5fbf ff20 493f
000002b0: 55c0 8e3f a21e 55bf 44d8 a7bf 579c 4c3f
000002c0: 900f 1c3f ac06 a9bf 247e b0bf ffa3 2c3e
000002d0: b3e7 783f b82f 823f d953 50bf 3634 0f3e
000002e0: f516 a63f b5fc 0dbf 0e89 b53f f48f 8dbf
000002f0: 8344 bcbe a671 18bf 07d1 813f b0ad 963f
00000300: 01b3 bd3e 3b5d 90bf 09bb 993f c916 c2bf
00000310: f8e3 983f 74a3 a43f 2598 a13f 3e4d d8bf
00000320: 47f4 b0bf 935e ba3f a5dd ccbf 90d4 6abf
00000330: 2018 6bbf a5e5 b73f ded5 af3f 8f80 75bf
00000340: 6e00 48bf ae96 cf3a 4a0e 903f 0ea0 593f
00000350: ed1f a53f 724f eebf 92b3 d9bf d83c 993f
00000360: 812d 96be 708a 813e 9c9c eb3e ca10 ab3f
00000370: 0e54 8e3f 94d1 96bf 0176 a0bf d726 bcbf
00000380: deba 1a3f f799 a23f 167f 83bf f86a 5abf
00000390: a59a b93f 3b6c a4bf 22f4 78bf 9fa3 9abf
000003a0: d583 5b3d cd8b 8b3f b85b a6bf 1408 85bf
000003b0: 400b 9e3f 68c1 bc3f dbfc 3f3e c7ca cabf
000003c0: 53d1 93bf 3141 2c3f dd22 573f 903f 913f
000003d0: 28cd c93e 09c9 8fbf 1046 42bf eaaf 84bf
000003e0: 3aab b73f 1ca1 b33f 1134 64bf 027d 5cbf
000003f0: e950 14be 54b6 96bf ac0e 76bf afc4 853f

gc2.bias f4 [7]
-0.21495067 -0.14932549 0.4144108 0.24551983 0.4545545 0.2642424 -0.17915724
00000000: 071c 5cbe c8e8 18be a72d d43e 8d69 7b3e
00000010: 5ebb e83e c84a 873e ff74 37be
