save_model/baseline/m3s-GCN-Pubmed-5-0.700000.pth (torch, 130752 bytes, 4 tensors)

gc1.weight f4 [500, 64]
000000 5f e6 99 3e 89 6e 53 be 6c 50 c3 3e 0c 95 db be
       0.30058572 -0.20647635 0.38147295 -0.4288715
000010 05 77 03 3f 4e f1 91 be 8c 76 90 3e 0f 93 af 3e
       0.51353484 -0.28504413 0.28215444 0.34291884
000020 1f 54 3f 3a f8 a9 1f 3d dd 2c 81 bc c5 2c 64 3e
       0.0007298607 0.038980454 -0.015768463 0.22282703
000030 bd 75 68 3e e2 43 9e 3e b5 bf a1 3a 0a a7 53 bc
       0.22701164 0.30911165 0.0012340458 -0.012918243
000040 ba d5 d3 bb b8 78 8b be 21 a3 8b be 13 75 27 3c
       -0.006464687 -0.2724054 -0.27272895 0.010220784
000050 48 2d f8 3e 63 cb e2 be ca 86 92 be 47 69 ab be
       0.48472047 -0.44295797 -0.2861846 -0.33478758
000060 95 6f b3 be 7d a7 d1 be 67 24 bc 3e 22 7b 57 be
       -0.35046068 -0.40948096 0.36746523 -0.21043065
000070 44 b9 8b 3e 26 62 c7 be 27 cb 07 3f 41 bb 8f be
       0.27289784 -0.3894207 0.5304436 -0.2807255
000080 24 c9 92 3e 0c 3c b4 be 01 3e e9 be 9b 18 71 be
       0.28669083 -0.35202062 -0.45555118 -0.23544542
000090 53 73 54 be c3 54 cb 3e a8 64 87 3e 86 3f 67 3e
       -0.20747118 0.39713106 0.26443982 0.22582826
0000a0 fc 2a a7 be 6c e1 c5 be 9d d9 a1 3e 7c 4d 93 3e
       -0.32649982 -0.38648546 0.31611338 0.28770053
0000b0 1b d9 a6 be 03 13 b4 3e c8 6b 52 3e 87 98 f3 3e
       -0.32587513 0.35170755 0.20548928 0.47577307
0000c0 c2 76 a1 be d6 ff 8b bb 67 35 7e 3e 42 3a cb be
       -0.31535918 -0.0042724414 0.24825059 -0.39692885
0000d0 ab 01 98 be 48 45 81 be a5 10 fc bd c6 1d db be
       -0.29688773 -0.2524817 -0.12307862 -0.42796153
0000e0 22 34 8d 3e 0c cc 88 3e a5 92 eb 3e dd 8b bc be
       0.27578837 0.26718175 0.46010318 -0.36825457
0000f0 f2 ae 95 be e6 35 9a 3e 50 b2 7d 3e 11 c2 91 3e
       -0.29235035 0.30119246 0.24775052 0.28468373
000100 ce 25 88 3c 30 63 20 3e 14 e4 df bb a0 a1 80 3d
       0.01661959 0.15662837 -0.006832609 0.062808275
000110 a5 44 b7 bb 78 03 b7 3d 81 1d 93 bd 8c b3 ec bc
       -0.0055929 0.089362085 -0.07183362 -0.028894208
000120 9a d6 23 3c 0f f1 8f 3b 50 4f 85 bb 28 86 51 bd
       0.0099998955 0.00439275 -0.0040682927 -0.051153332
000130 51 9e 61 bc 2b eb 3a bd a6 b9 23 bc fc d7 fb b8
       -0.013770656 -0.04563443 -0.0099929925 -0.00012008843
000140 64 4d 08 3b f7 82 4a 3b 03 a7 f9 3c ae 4c 23 bc
       0.0020798082 0.0030900815 0.030475145 -0.009967012
000150 d6 e3 b0 bd 86 d4 32 3d 79 17 87 3d e3 96 1f 3e
       -0.08637206 0.04365971 0.06596274 0.15584902
000160 9d b3 26 3e 64 c3 80 3d e2 d0 68 bd be b8 14 3e
       0.16279455 0.06287268 -0.05683983 0.14523599
000170 b1 7f 19 3d e3 34 b4 3d 13 bc d2 bc 61 09 d7 3c
       0.03747529 0.0879915 -0.025724446 0.02624959
000180 8e 20 df bc fa 9f 71 3d 9a 91 ae 3d 56 a5 0b 3e
       -0.027237203 0.058990456 0.08523865 0.1363729
000190 f0 f8 0e 3e 3c f4 bc 3b 13 12 36 bd ec 8d 2e bc
       0.1396215 0.0057664197 -0.04445083 -0.010653954
0001a0 da 81 82 3d 76 1f 20 3d 03 c5 0e bd 81 74 96 bd
       0.063724235 0.039092503 -0.034855854 -0.0734644
0001b0 c8 c3 e0 ba 91 57 8e bc 32 35 21 3d e9 ba 9f bd
       -0.0017148191 -0.01737574 0.03935737 -0.07799322
0001c0 6b 1c 3d 3d 5e 84 1e 3c 8c 56 40 3b 13 31 20 3d
       0.04616968 0.0096751135 0.002934846 0.0391093
0001d0 a0 57 97 3d d4 c3 08 bb b7 09 87 3b 4e bb b4 3b
       0.0738976 -0.0020868676 0.004121031 0.0055154925
0001e0 a7 07 fb bc 18 40 10 bd c8 fa 5a bd 90 c2 a5 3c
       -0.030643297 -0.035217375 -0.05346182 0.020234376
0001f0 db 6b db 3c 62 b4 d7 bc d9 75 1e bd 09 eb 00 3c
       0.026784828 -0.02633113 -0.038686607 0.007868537
000200 1f 9d 26 bd 8d 3d fc 3d 24 41 0a bd d1 4b ca 3d
       -0.040677186 0.123164274 -0.03375353 0.09877742
000210 79 2b 0f bd 5b 4b 12 3e 28 f5 6f 3b 5d 59 8d bd
       -0.034953568 0.14286558 0.003661463 -0.0690181
000220 14 1a be 39 ed 83 fc 3d 7d 4c 0c 3b dd 1a 23 bd
       0.00036259054 0.1232985 0.0021407895 -0.03982054
000230 87 b8 9d bd cf 22 b4 bb 8a 40 20 bc 0c 78 60 3b
       -0.077012114 -0.0054973136 -0.009781012 0.003425124
000240 1a b0 b3 b9 c1 db 4b 3d be 6b 60 3d fa 77 ee bb
       -0.00034272746 0.04977012 0.05479025 -0.007277486
000250 30 1a 0b 3b 15 d4 fb 3d e6 65 8f 3d e0 d3 27 3e
       0.0021225326 0.12296311 0.070018575 0.16389418
000260 07 59 13 3e 75 d8 ca bb 55 bb a4 bc 27 e6 47 3d
       0.1438943 -0.0061903545 -0.020108858 0.048803475
000270 a4 0a 0d bd 36 71 1f 3c 27 4b 92 bc 6e 61 fc 3c
       -0.034433976 0.009731581 -0.017858101 0.030808177
000280 f7 30 26 bb 1b d6 45 3d 48 cf c1 3d cf 7e 41 3e
       -0.0025358775 0.04829989 0.09463364 0.1889603
000290 81 ea 2e 3e 23 b1 98 bd d4 07 8b bc 08 a8 4f bd
       0.17081644 -0.07455661 -0.016971506 -0.050697356
0002a0 85 2a 08 3e c0 74 3b 3e 26 3a 9b bc 2d d5 2d 3d
       0.1329747 0.18306255 -0.018948626 0.04243963
0002b0 6a c3 0f 3e c9 51 a0 bc a0 e4 7d bd c3 28 81 3c
       0.14039388 -0.019570248 -0.061985612 0.015766507
0002c0 82 66 20 3d db e0 d5 ba 9a 88 d4 bc 40 7f 09 bd
       0.03916026 -0.0016317623 -0.025944043 -0.03356862
0002d0 f2 05 2b 3e 64 db 4c 3d ca fe 02 bc 2c 8f e6 3d
       0.16701487 0.050013915 -0.007995317 0.112577766
0002e0 ed 5e fe bb 6e df 21 bd 87 26 71 bc df 5b 29 3e
       -0.007762781 -0.03951972 -0.014718658 0.16538952
0002f0 28 31 76 3d fe e1 c7 bc 6a 5a a6 bc 5d 0b 58 bd
       0.060105473 -0.024399754 -0.020306785 -0.052745212
000300 d6 9b 64 bc ff 26 03 be b8 a1 26 3c d0 b6 96 bd
       -0.01395317 -0.12807845 0.010170393 -0.073590875
000310 ad 62 26 3d 32 25 4b bd 04 e2 2d 3e c6 9f 1f 3c
       0.04062145 -0.04959602 0.1698075 0.009742683
000320 79 f2 b2 bb 22 e4 d9 3d 54 15 2a bc 7a d9 09 3e
       -0.005461034 0.10639216 -0.010381062 0.13461867
000330 c4 c2 b2 bc e4 94 8e 3d 2b 17 c7 ba bb 2d 83 bb
       -0.021821387 0.069619924 -0.00151894 -0.004003254
000340 2e 76 1d 3b 44 38 c1 38 72 cb 85 bd 5a 53 83 3b
       0.002402674 9.2134374e-05 -0.06532945 0.004007739
000350 1b d1 57 3e 06 98 a3 bc e6 fc 30 bd 33 63 d6 bd
       0.21075861 -0.019969951 -0.043209933 -0.104681395
000360 63 93 99 bd 91 1f 8e bd 3f fe 1b 3e a1 5e 16 be
       -0.07498815 -0.069396146 0.15233706 -0.14684536
000370 9d 0e 0d bd fe d8 a6 bd db 21 3a 3d c8 fc 54 bd
       -0.034437764 -0.08146857 0.045442443 -0.051998883
000380 b6 b6 10 3d 33 e9 94 bd f4 a3 c6 bd 3a 73 6c bd
       0.035330497 -0.07271042 -0.0969924 -0.057727076
000390 47 50 8d bd 42 12 9d bc f1 af 15 3e 2a 0b 54 3d
       -0.06900077 -0.019173745 0.14617898 0.05176846
0003a0 fc 53 73 ba 02 79 69 3d 90 94 bf 3d 13 57 1d 3e
       -0.0009282229 0.057000168 0.09354508 0.15365247
0003b0 d8 77 8c 3d 6e 61 7c 3d fd 6b f8 bc da 15 26 3e
       0.06858796 0.061616354 -0.03032493 0.16219273
0003c0 4d f5 3a bd 38 78 8a 3b 64 90 ec 3c 3a 33 bf bd
       -0.045644093 0.004225757 0.028877445 -0.093359426
0003d0 65 4d 77 bb 8d 70 e1 3c b0 fe c3 bc d8 3c e2 bc
       -0.003773534 0.027519489 -0.023925155 -0.027616903
0003e0 7d 70 d4 3d e3 54 fc 3d 46 97 16 3e 4c a5 09 3d
       0.10373018 0.12320878 0.14706144 0.033604905
0003f0 81 ba b8 bc f1 01 80 3d 66 38 01 3e 6d 77 fc bc
       -0.02254987 0.0625037 0.1261917 -0.030818665

gc1.bias f4 [64]
000000 26 78 59 3e dc 6a 41 3e d7 d2 42 3e f8 1f 34 3e
       0.21237239 0.1888842 0.19025742 0.1759032
000010 52 d4 02 3e 67 1f 09 3e 02 1f 2a 3d 55 01 4b 3e
       0.12776306 0.13390885 0.041533478 0.19824727
000020 98 ec c2 b9 98 ec 9d 3c dc 1c 81 bd fb 76 13 3e
       -0.0003717884 0.019277856 -0.063043326 0.14400856
000030 33 69 5c 3e cf a1 0c 3d 63 3d d6 bc a2 99 75 bd
       0.21524505 0.034334 -0.026152318 -0.05996097
000040 8c a5 2d ba 37 9e 83 3d ec 53 59 3e be 1d 86 bc
       -0.00066240947 0.064266615 0.2122342 -0.016371604
000050 b2 e2 6d 3d d1 c4 2e 3e c5 74 31 3e 4e 5d 38 3e
       0.05807752 0.17067267 0.173297 0.18004343
000060 8c 52 2c 3e be 27 37 3e b4 d5 f6 3d 07 0c 33 3e
       0.16828364 0.17886254 0.120524794 0.17485057
000070 d9 52 60 3e 9c 08 5a 3e 7a 88 bf 3d 44 f3 26 3e
       0.21906604 0.21292347 0.09352203 0.16303736
000080 a7 d2 5c 3d e5 80 3d 3e 39 c5 55 3e 5e db 1f 3e
       0.05391183 0.185062 0.20876016 0.15611026
000090 f9 55 28 3e b9 76 58 3e 84 f9 b9 3d 0d d2 3b 3e
       0.16439046 0.21139039 0.090807945 0.18341847
0000a0 9d 0a ef 3d cc 32 2d 3d 59 9b c7 3d c9 3e d1 3c
       0.11671946 0.04228477 0.09746427 0.025542634
0000b0 96 61 d8 3c d7 ab 8a 3d 08 61 3e 3e 25 e1 0c 3d
       0.02641372 0.06771057 0.18591702 0.034394402
0000c0 db e7 2c 3e b4 17 99 bc 38 4e d3 3d 2f f7 64 3e
       0.16885321 -0.01868806 0.103176534 0.22359918
0000d0 a3 36 c9 3d 15 f6 18 3d f9 87 aa 3d 5c 62 35 3e
       0.09824874 0.037344057 0.08326716 0.17713302
0000e0 dc 1b 1f 3d 75 df 0b 3e 82 f5 cc 3d 81 6e 68 3d
       0.03884493 0.13659461 0.100077644 0.05674601
0000f0 f0 30 34 3e a9 1d 00 3e db 2d b5 3d 28 d1 69 3e
       0.17596793 0.12511314 0.08846637 0.22833693

gc2.weight f4 [64, 3]
000000 31 d2 6f 3e 70 0b a0 3e c7 d1 06 bf f0 ea 49 bf
       0.23420025 0.31258726 -0.52663845 -0.7887411
000010 7f 05 44 3f 61 23 a3 3e 14 8a c5 3e a0 76 01 3e
       0.76570886 0.3186293 0.38581908 0.12642908
000020 aa f5 1d bf b4 d3 07 bf 3a df 07 3f e8 e0 df 3e
       -0.6170298 -0.5305741 0.5307499 0.43726277
000030 59 38 6a 3e 8e 34 79 be 72 17 0a bf 71 2a 2f bf
       0.22873057 -0.24336454 -0.53942025 -0.68424135
000040 af ce b8 3d a6 4c 32 3f fc 6c 20 3f 12 da 35 bf
       0.09023797 0.69648206 0.62666297 -0.71035874
000050 87 d2 1a be 7e 8f 18 3f 01 86 c0 3e 66 3f 37 bf
       -0.15119372 0.5959395 0.37602237 -0.71581113
000060 e8 14 f3 bd 4a 4a 49 3e dd 16 72 ba e2 e7 f5 bd
       -0.11869222 0.19657245 -0.0009234974 -0.12007119
000070 1b 2b 1b bf 75 19 66 3f c5 41 2f 3c aa 01 47 3c
       -0.6061265 0.89882594 0.010696833 0.012146393
000080 d4 19 38 bd eb f6 0b 3f 61 54 c8 bc 20 c2 5c bf
       -0.044946507 0.5467364 -0.024454297 -0.8623371
000090 c9 16 82 3e 25 2d a6 3e 4f 4f 52 bf 71 b7 16 3f
       0.2540801 0.32456318 -0.82152265 0.5887366
0000a0 49 93 75 be f8 7d d3 3c 78 91 1d be 2d 68 b3 3c
       -0.23981966 0.025816903 -0.15387523 0.02190026
0000b0 25 38 43 be a0 dd 35 39 28 9f fc bd ff ce 14 3e
       -0.19064386 0.00017344067 -0.12335044 0.14532088
0000c0 5a f2 05 3e 0c 48 aa 3b 80 ed f0 bd dc 1e 8e be
       0.13080731 0.005196577 -0.117640495 -0.2775792
0000d0 4e 32 49 be 50 51 ef 3e f8 fe 13 bd 4f 91 50 3f
       -0.19648096 0.46741724 -0.03613183 0.81471723
0000e0 8c 86 23 3f b0 03 fb 3d da a7 24 3e 4c 5b dd bb
       0.6387718 0.12256563 0.16079655 -0.006755268
0000f0 5f 49 39 3f 49 c1 51 bf 81 fa a7 be e6 fd a2 be
       0.7237758 -0.81935555 -0.32808307 -0.31834334
000100 4f 56 9f 3e 69 30 46 3f 5e 62 32 bf fe 35 91 3e
       0.31120536 0.7741762 -0.69681346 0.28361505
000110 7c b0 b6 3e 89 1a 38 bf db 3b f8 3e cf 6b 31 3f
       0.35681522 -0.7191549 0.48483166 0.6930513
000120 2d 9e 5c bf bb b8 08 3f 87 d8 3f 3f b7 de 73 be
       -0.8617886 0.53406876 0.7493977 -0.23815428
000130 d2 4b 3f 3f be 35 c3 be 5b e1 27 3f 16 ac 74 be
       0.7472507 -0.3812694 0.6557824 -0.2389377
000140 82 f0 65 bf d3 71 58 bf 98 ee 6d 3f c2 44 ca be
       -0.8982011 -0.8454868 0.9294219 -0.39505583
000150 d9 b1 3d 3f 54 cc 49 3f 39 cc 4a be 98 f4 a1 be
       0.740995 0.78827405 -0.19804467 -0.31631923
000160 a0 d7 52 3f e6 03 c2 bd 86 ee 55 3f 0d 7d c7 3d
       0.8236027 -0.094734 0.8356708 0.097406484
000170 f8 75 39 3c 3f 46 fb be 5e 0f 7d 3e 5e 93 a4 3e
       0.01131963 -0.4907703 0.24712893 0.32143682
000180 17 f9 b2 3e 18 1b 7d be 22 a7 8c be 4b ed ea be
       0.34955665 -0.24717367 -0.27471262 -0.45884165
000190 fa ac 3c 3f ea dc ee 3d b0 73 49 bf 80 30 8c 3e
       0.7370144 0.1166323 -0.7869215 0.27380753
0001a0 bd d8 87 3e 62 02 61 bf 09 e6 ef 3d d8 d9 3a 3f
       0.26532546 -0.8789426 0.117137976 0.72988653
0001b0 18 1a 49 bf 18 4b 6b 3e e6 f1 1e 3f e8 5d 09 3f
       -0.7855544 0.22977865 0.6208786 0.53658915
0001c0 07 73 34 3f db 3c 6d bf 40 e4 2e 3f f1 4f e5 be
       0.7048802 -0.92670983 0.6831703 -0.44787553
0001d0 d0 66 14 bf a8 51 32 3f 46 91 e8 3e e0 86 08 bf
       -0.5796938 0.6965585 0.45423335 -0.533308
0001e0 01 df 35 bf 9f 55 8c be bc 69 fb 3e 89 79 1a bf
       -0.710434 -0.27409074 0.49104106 -0.603417
0001f0 ac 88 2a bf 43 bd 47 3f 1f f3 33 3f c8 d6 f4 bd
       -0.66614795 0.78023165 0.7029285 -0.11955029
000200 7c 68 9a be 9b 87 4d 3f bd 11 d3 be 12 a0 33 3f
       -0.3015784 0.8028504 -0.4122447 0.7016612
000210 c8 a4 c6 be db d7 17 bf 21 32 43 3f 4b ea 0b 3f
       -0.38797593 -0.59313744 0.76248366 0.5465438
000220 8a 22 f2 bd a8 76 8d be 0d 70 d5 3e d5 de 2c 3f
       -0.11822994 -0.2762959 0.4168705 0.67527515
000230 cb 36 38 bf 26 86 11 3f bb f9 18 bf d5 ef 3e 3e
       -0.7195861 0.5684532 -0.5975606 0.18646176
000240 9d 97 e4 be c5 c3 a6 3e db fd a4 3e 96 34 26 be
       -0.44646922 0.32571235 0.32224926 -0.16230997
000250 fc bf 9f 3b 4c 13 e1 bc 65 03 e9 bb 42 e8 d7 be
       0.0048751812 -0.027475022 -0.0071110004 -0.42169386
000260 ab 94 42 bf 57 82 e4 be 95 5a d1 3e 25 3c 03 bf
       -0.760081 -0.4463069 0.4088942 -0.5126365
000270 2a 86 67 bf 34 79 f9 be 53 24 fc 3e 7a 23 d8 be
       -0.90439093 -0.48725283 0.49246463 -0.42214566
000280 b7 19 d6 be ae a9 ba 3e ef 45 dd bd cb 93 40 3e
       -0.41816494 0.3645758 -0.108043544 0.18806379
000290 24 89 f3 bd 2b 70 4b bf 03 6e 86 be 1f b5 3f 3e
       -0.11891392 -0.7946803 -0.26255807 0.18721436
0002a0 4b 45 24 3f f6 6d 92 be 43 51 25 be 2b 80 de 3e
       0.6416823 -0.2859952 -0.1614428 0.4345716
0002b0 e2 f9 74 be cd dd 5f bf 46 34 32 3f b2 87 b5 be
       -0.23923448 -0.87447816 0.6961101 -0.3545509
0002c0 9b 6e 31 bf 1a 6e 1d bf 58 a7 0c bf 7a 89 38 3f
       -0.69309396 -0.61496127 -0.54942846 0.7208477
0002d0 f5 cc 56 be 1a 5e d8 3e 35 4a 28 3f 87 be 91 3e
       -0.20976622 0.42259294 0.6573823 0.28465673
0002e0 22 ad 8f be 9d de 0f bf 85 de 91 3e 9f 0a 1e bf
       -0.28061777 -0.56199056 0.2849008 -0.61734957
0002f0 67 b7 5c bf b4 b9 04 3f 15 ea 42 3f d3 4a 34 bf
       -0.8621735 0.5184586 0.7613843 -0.7042667

gc2.bias f4 [3]
000000 14 fd 0f 3f f6 dd 1c bf a5 8d f7 3e
       0.5624554 -0.61276186 0.48350254
