save_model/baseline/m3s-GCN-Cora-10-0.700000.pth (torch, 370622 bytes, 4 tensors)

gc1.weight f4 [1433, 64]
00000000: 4649 79bc 0d28 9b30 2280 88bc 9f57 403c
00000010: e987 49bc 80e9 cbb0 7c9c 1836 13db 66bc
00000020: f680 f03b e89e 0cbd d2ac 943c 2a6a 14bc
00000030: 8efe 763a 45cf cbbc e465 86bc a867 313b
00000040: a243 a13c 78e7 c7bc fb88 08bd 3544 ccbc
00000050: c4d8 123c 31f7 c3b0 f1a8 c0bc 4103 2d3b
00000060: 6170 c33a 029e 08bc b450 0a3d 409a 93bc
00000070: cf72 4f3c 8e39 963b 4929 c3bc 4fcf 6e3c
00000080: 2dc2 273d 9f2c a33a 27af 233d 7406 a43b
00000090: 5a00 97bc b886 2fbc d193 293d c9ed cd3b
000000a0: dff8 a33c 06af 19bc fc6b 383b 80ce c734
000000b0: b19d c63c 1eaa fd3b e25f cc3c 8afc ca3c
000000c0: dd0e 72bb 8789 9fbc 2807 1c3b 3f96 40b6
000000d0: 4cb7 c03c 562d 973c 15ee 8e3c 933a c83b
000000e0: 6c5a 873c 58c0 e63b dc64 613b 69cb dcbc
000000f0: 1aac e0bb 7e62 91bc 824d 283c bf3a e6bb
00000100: 432c 2ebd f863 95af aa43 c7ba d970 d4bd
00000110: ac6d b43d 60e4 8c2e be41 c0b7 b9fd babc
00000120: 75f1 febc dd93 203e 01c2 db3c 019a c43d
00000130: 8ae4 a63d 84f3 723d 5c7e 1a3d 788e d2bc
00000140: aaf1 c13d b941 ef3d 3b9f 6e3d c8e3 e63d
00000150: b275 7cbd a2ad 4eb1 305e 403e a7cb 04be
00000160: d3eb aebc db82 fdbc 8524 9ebd d3d8 313d
00000170: 8a24 623d d160 063c 7359 393e 855c 823d
00000180: 25de 573c c089 fb3b 23b4 95bd 619a e3bd
00000190: 6fc5 413d 443c 9cbd 6d75 503d 8660 acbd
000001a0: 5de0 253d 25b9 0cbd a59e 843d c8b3 16b6
000001b0: 7e23 79bd 8000 a93d c6e9 cebd ab1d 9ebd
000001c0: f2d7 d9bc 3850 d23c b0bd 7b3d 6df8 cd37
000001d0: 4404 4fbd 292b ffbc ba8e dbbc 4e0a bfbd
000001e0: 8b65 fdbc 664d 923d 2423 14bd 0492 ecbd
000001f0: f7ef 20bd 626b aabd 2630 cbbb 3a2f 863c
00000200: 05b6 66bd aac4 4831 6e1b 023b dc71 823d
00000210: 5ee1 c6ba 4b37 00b2 d082 8b36 e0ab c93c
00000220: 8657 25bb 60bd bdbd 9e7b 33bc 135d b6ba
00000230: d11f 1fbc 32d9 b5bc 8a81 a0ba 0d21 993b
00000240: 7a0f 04bc 2577 4cbc 79f8 a6bd 38ec 8dbd
00000250: 725d adbc 62c8 5eb1 623c 5abd 2bb4 7a3d
00000260: 321d 24bd a7cf da3b 5b81 933d 9a96 883b
00000270: 6095 4c3d 2fe5 14bd 470c cabd a205 fe3c
00000280: 43b6 683d a2ce 703d 52a4 253d a074 8938
00000290: 824e 9e3b c886 5cbd 9bac 773d 8e9a 403d
000002a0: 9032 a4bc 9d9a 9e3b cc33 bcbc b085 9735
000002b0: 7014 093d 4b44 943d 93d9 253d 181f bf3a
000002c0: cbe8 e3bc e324 a1bd 6fed 753d 07a6 99b7
000002d0: fc35 80bb 30d1 603d 6fa7 0b3d de19 6d3c
000002e0: b8fb 4e3d 0761 b3bc 0eb6 25bd ebd4 a73c
000002f0: 0a6c bbbc b0a7 c2bc 9a9f 2b3d f69d 73bd
00000300: 70ca d83d e658 0531 ee64 bb3d 1ebb 91bd
00000310: bd0d 01bd 38c9 5231 980a 94b7 4a98 d4bd
00000320: 94e1 52bc f38c 513e 5a5c 473c 9e50 673d
00000330: 6d39 b2bc 6134 043e f5ad c43c ce4e 933b
00000340: 5806 393c 9f1b 833d 0d77 9c3d d085 0e3e
00000350: fb87 433d b049 4faf 58f7 873d 4147 1ebd
00000360: ba73 223c 3405 b33d 284b 10be ce0b ca3d
00000370: 03fa c83c bae9 373d 4e26 473e e491 2ebd
00000380: d2f7 73bd b7e1 d1bd f5f8 b1bd b63f 21bd
00000390: 2c4a 1e3c d4d2 4d3c 655b b1bd f39f 9dbc
000003a0: 875c 683d 8077 74bc 7604 f1bb 9960 0bb6
000003b0: 267e ffbc cecc 97bd 87e7 e1bd fc47 0e3d
000003c0: 964b ad39 0d98 a53d babd fcbd e0ab 12b4
000003d0: 24d6 a03c c229 d5bd 812a 97bd 6efd 343d
000003e0: ff72 bbbd 17a5 b93d 40e9 1a3d 2a29 d83c
000003f0: bf9d 7dbd a04d a83d 8e19 47bc 0b1e 963d
-0.015215224 1.1289117e-09 -0.016662661 0.0117396405 -0.01230047 -1.4836559e-09 2.274085e-06 -0.014090317
0.007339592 -0.034331232 0.018148813 -0.009058515 0.0009422087 -0.024879107 -0.016406007 0.002706984
0.01968557 -0.024402365 -0.03333376 -0.024934867 0.008962814 -1.4258373e-09 -0.023518058 0.0026399645
0.0014910811 -0.008338453 0.03376837 -0.018017888 0.01266165 0.004584498 -0.023823397 0.014575793
0.040956665 0.0012449211 0.03996196 0.005005652 -0.018432785 -0.010713272 0.041400734 0.0062844497
0.020016132 -0.009380108 0.0028140536 3.7216887e-07 0.024245115 0.007741227 0.024948064 0.024778623
-0.0036935129 -0.019474758 0.0023807976 -2.8697684e-06 0.023524903 0.018454235 0.01744751 0.006110498
0.016522609 0.007041972 0.0034392392 -0.026952462 -0.0068564536 -0.01774716 0.010272386 -0.007026046
-0.04252268 -2.7173974e-10 -0.001520266 -0.103730865 0.08809981 6.4070305e-11 -2.2918797e-05 -0.022826063
-0.031120995 0.15681405 0.026825907 0.095996864 0.08149059 0.059314266 0.037718162 -0.0257027
0.09469922 0.116824575 0.058257323 0.112739146 -0.06163568 -3.0075644e-09 0.1878593 -0.12968312
-0.021352684 -0.030946186 -0.07721809 0.04341967 0.055210628 0.008201794 0.18100528 0.06365303
0.013175522 0.007676333 -0.07309749 -0.1111343 0.047307428 -0.07628682 0.050893236 -0.08416848
0.040497173 -0.034356255 0.064755715 -2.2456388e-06 -0.060824864 0.082520485 -0.101031825 -0.077205025
-0.026592229 0.025673017 0.061460197 2.4553587e-05 -0.050541177 -0.03114851 -0.026801456 -0.09328137
-0.030932209 0.07143669 -0.036166325 -0.11551288 -0.03929135 -0.08321263 -0.006200808 0.016379941
-0.05632593 2.921562e-09 0.0019852775 0.06369373 -0.0015173366 -7.463153e-09 4.1577514e-06 0.02461809
-0.002522917 -0.09264636 -0.010954766 -0.0013913236 -0.0097121755 -0.022198293 -0.0012245637 0.0046731294
-0.0080603305 -0.012479578 -0.08152861 -0.06929821 -0.021162722 -3.2419156e-09 -0.05328024 0.061206978
-0.040066905 0.006677586 0.07202407 0.0041683437 0.049947143 -0.03635138 -0.09865623 0.031008545
0.056814443 0.05879081 0.04043991 6.554392e-05 0.004831136 -0.053839475 0.060467344 0.047022395
-0.020043641 0.0048402087 -0.022973917 1.1289285e-06 0.033466756 0.07239588 0.040490698 0.001458141
-0.027820965 -0.07868364 0.060040887 -1.8316334e-05 -0.0039126854 0.054886997 0.034095224 0.014471499
0.050533026 -0.021896852 -0.040456824 0.02048727 -0.022878665 -0.0237616 0.041900255 -0.059476815
0.10585487 1.940458e-09 0.0915011 -0.07115768 -0.031507242 3.0673402e-09 -1.7647908e-05 -0.10380609
-0.012871165 0.20463924 0.012168014 0.056473367 -0.021755898 0.12910606 0.02400873 0.0044954782
0.011293016 0.06401753 0.07639895 0.13918233 0.047737103 -1.885272e-10 0.06638974 -0.03864217
0.009915287 0.08741227 -0.1409117 0.09865533 0.024533277 0.044900633 0.19448206 -0.0426196
-0.05956251 -0.1024813 -0.08690063 -0.0393674 0.009661239 0.012562472 -0.0866001 -0.019241309
0.056728866 -0.014921069 -0.007355268 -2.0768841e-06 -0.031188082 -0.0741211 -0.110304885 0.03473662
0.00033053447 0.08085642 -0.12340875 -1.3659837e-07 0.01963336 -0.10408355 -0.07381154 0.044187002
-0.09152793 0.090646915 0.0378201 0.026386816 -0.061918017 0.08217931 -0.012152089 0.07329949

gc1.bias f4 [64]
00000000: e408 d33d d2e7 38bd 8ce9 8d3d 7049 8b3d
00000010: 0bea 853d d0b9 4ebd 2158 6438 f865 893d
00000020: 905f 483d 7265 853d d18d 543d f66a 9b3d
00000030: 6823 483d 6666 3b3d 876f 723d c008 183d
00000040: f25a 973d 5581 403d f712 903d 384f 833d
00000050: 8085 983d 8b1f 0dbd 949f 1a3d 667d 833d
00000060: 9250 b73d 8deb 723d 65f4 8d3d cf85 3a3d
00000070: 5c9b 953d 83f6 a53d d5d8 633d d7b2 433d
00000080: 9f2f aa3d 05ca 513d 24f9 b83d 8696 8c3d
00000090: 4a1c 313d 7a84 9e3d b00b 673d 0642 a83d
000000a0: bcb7 843d 7090 4c3d a6f5 9a3d 92ec 0737
000000b0: 1985 d03d 1e91 f73c 4a2b dc3d 1fb1 a83d
000000c0: 14a8 6e3d 0b2e 8c3d ddfa 0c3d 6a96 7bb9
000000d0: 2dc7 963d 16cc 9e3d bba1 c33d fa35 c93d
000000e0: d732 783d aa29 8d3d cdff dd3d a929 8f3d
000000f0: f436 a83d 0694 8a3d f767 5e3d 3fda a33d
0.1030443 -0.045142956 0.06929311 0.068011165 0.06538781 -0.050470173 5.4441512e-05 0.06708902
0.04891926 0.0651349 0.05189306 0.075887606 0.04886189 0.04575195 0.059188392 0.03711772
0.07390393 0.04699834 0.07034867 0.06411594 0.07447338 -0.03445391 0.03774984 0.06420402
0.089509144 0.05930667 0.0693138 0.045537766 0.07305023 0.08103659 0.05562671 0.047777977
0.08309864 0.05121805 0.09031895 0.068646476 0.04323987 0.07740112 0.05640763 0.08215718
0.06480357 0.049942434 0.07566385 8.101708e-06 0.10181636 0.030220564 0.10750444 0.08236908
0.05826576 0.068447195 0.03441893 -0.00023993259 0.073622085 0.0775377 0.09552332 0.09824748
0.06059536 0.068927124 0.10839806 0.06990368 0.082136065 0.067665145 0.054298367 0.080006115

gc2.weight f4 [64, 7]
00000000: ec6d e93d cb6f a5bf 38b3 a3bf b914 8d3f
00000010: 3b4d ab3f 21dc a9bf 7f3f 103f cc47 06b5
00000020: d5ac 2a39 6b4b ea30 9a2c 0bbb 44a5 ca38
00000030: 62e7 a831 c014 013a 18bf ba3f 2418 253f
00000040: d16d aebf fe67 81bf 3e78 903f b953 a7bf
00000050: 9b21 02bf 9140 b63f 57b2 b3bf 2184 a5bf
00000060: c136 9cbf d9b3 983f fc1e a73f 2cdd dbbe
00000070: 9a40 d43e 17df 8b3f 9dad 543f e478 c8bf
00000080: be93 b7bf 9748 503f 9e13 853f 6470 3838
00000090: c988 033a 6dda 7cb1 ad0e 59bc e667 93bb
000000a0: cb32 4b31 9564 1038 f2d8 8a37 1747 ddb9
000000b0: b1f0 3bb9 b2ee 37b9 5a42 143a 3904 1738
000000c0: 35be de38 a111 54bd 774c 9ebf 44f6 923f
000000d0: 4a24 a4bf ac6d 87bf 8da9 aa3f 75ed 893f
000000e0: 11af 20bf d87b 67bf de32 c53f 759b c83f
000000f0: 2e6e 83bf c688 52bf 646c 8abf f750 913f
00000100: a1f1 9f3f 0181 bcbf 2dc4 b23f 2e78 c6bf
00000110: 3dba b4bf 780d 973f 9dec 4fbf f454 173f
00000120: 0100 3bbf 4161 153e b0d1 ad3f 618a 4fbf
00000130: cfae 32bf c374 8d3f 64d4 563f 0b4d d6bf
00000140: ab71 1fbf 384c e3bf 331f b23f 9b72 813f
00000150: d898 b7bf 7eed e43f fb08 c73f a3a3 a83f
00000160: 8005 a4bf 41d7 92bf fdd5 b5bf 5c4d a43f
00000170: 81ef 563f 4a8d 8bbf 115b ae3f 8f70 8cbf
00000180: a86c 71bf eebb 62bf a47c 163f e7e9 aa3f
00000190: 4574 8e3f 8686 8e3f 527b 96bf 984c 97bf
000001a0: 2f59 bbbf 65fb 93be 6f7d 2bbf e76d 9d3f
000001b0: f5a6 5e3f 8fba 10bf ee8c 09bf c235 00bf
000001c0: c9e6 a9bf d1b5 cc3d 7361 97bf 40f0 bb3f
000001d0: 2afb 9fbf 8ddf ac3f 6f37 ed3e d798 6b3f
000001e0: 7ea9 c03f ba6a c83f f864 f1bf 9a4f c7bf
000001f0: d048 9fbf a74c 7b3f 592c 9fbf 0fac 6bbf
00000200: 1364 9e3f 6fa4 ac3f 269c a4bf e266 8fbf
00000210: 16e1 c13f c749 5a3f 425f c63f 00e1 afbf
00000220: b984 cfbf 72b9 973f 19d0 b1bf 0702 cc3f
00000230: efee 21bf 94e4 71bf fbd4 7ebf 08b4 c03f
00000240: 0eac ca3f 49cb 81bf 6453 82bf 4305 a2bc
00000250: 70da fd3c 7c63 2832 b12c 0abd 55ad cabb
00000260: a82c 00b4 3726 523b 5a7b adbf 49fc 0940
00000270: 9127 153f fed7 e9bf f72e 42bf c082 0fbf
00000280: 5f67 d03f fcbe d13f bd7e b6bf 137e d13f
00000290: 0f93 eebf c780 da3f 6faa adbf e618 e7be
000002a0: 5ed2 6bbf f3fc 0dbf 53c7 193f 5aa2 3b3f
000002b0: 031a 183f a47e 96bf 2e4c efbc af55 2c3f
000002c0: 6526 efbe 6e57 95bf 2252 923f c42d 95be
000002d0: bdce 83bf 7e19 13bf 55d5 91bf 8d9e 59bf
000002e0: 5254 943f 92d8 55bf 0fb0 9a3f ca23 953f
000002f0: 4214 6fbf 8d3d 8b3f b8ed 383f 319d 9cbf
00000300: 99d8 9c3f ffce 85bf 65a1 7abf 7ea1 70bf
00000310: d3d6 6a3f 9967 973f 63bd b4bf 080b c7bf
00000320: 2f97 523f eedb 713f 9edd 0c3f 45e8 29bf
00000330: 94a8 0fbf 64d2 77bf cdb8 993f 5b75 3b3f
00000340: eb9d 7ebf cedd b93d 8120 1bbe f167 c63f
00000350: 7267 d3bf fc87 d33f 26d1 e7bf a718 50bf
00000360: 1a50 9c3f 1b3e 89bf 921c d63e b699 92bf
00000370: 8ca4 ae3f 5420 8abf e708 a93f b3f8 17bf
00000380: 7721 c5bf fce4 8f3f 3939 a5bf 82ad e53d
00000390: 702d b43f ff83 b33f 5fdf a5bf acb5 803f
000003a0: 5cfc 8d3f 9800 8a3f c053 b9bf cd82 a6bf
000003b0: b1ab 873f a172 94bf 5eba 15bf 4b92 74bf
000003c0: 7461 73bf f427 953f a547 a03f 3b1a a53f
000003d0: a29a 89bf 47bc 2e3f fc33 7abf 4674 af3f
000003e0: 38f1 7dbf 3be8 ae3f 82fd 81bf e4fe 89bf
000003f0: 2a1a a5be 81d0 943f 9d5d b63f b51c 413f
0.11397919 -1.2924742 -1.2789068 1.1021949 1.3382944 -1.3270303 0.5634689 -5.002337e-07
0.00016276848 1.7047176e-09 -0.0021236301 9.662894e-05 4.9157487e-09 0.00049240515 1.4589567 0.6448996
-1.3627263 -1.0109861 1.1286695 -1.3072425 -0.5083253 1.4238454 -1.40388 -1.2930948
-1.220421 1.1929885 1.3056331 -0.42942178 0.41455537 1.0927457 0.8307741 -1.5661893
-1.4341962 0.81360763 1.0396612 4.397369e-05 0.0005017636 -3.6794987e-09 -0.013248128 -0.0044984696
2.956926e-09 3.442595e-05 1.6551905e-05 -0.0004220537 -0.00017923374 -0.00017541161 0.0005655639 3.6005138e-05
0.00010621214 -0.051774625 -1.2367085 1.1481404 -1.2823575 -1.0580344 1.3332993 1.0775591
-0.6276713 -0.90423346 1.5406148 1.5672442 -1.0267999 -0.8223995 -1.0814328 1.1352834
1.2495614 -1.4726869 1.3966118 -1.5505426 -1.4119335 1.1800985 -0.8122042 0.59114003
-0.7304688 0.1458788 1.3579617 -0.81070524 -0.69797987 1.1051258 0.8391783 -1.6742262
-0.6228282 -1.7757635 1.3915771 1.01131 -1.4343519 1.7884977 1.5549616 1.3174938
-1.2814178 -1.147194 -1.4205929 1.2836108 0.83959204 -1.0902493 1.3621541 -1.097185
-0.9430642 -0.8856801 0.58783937 1.3352631 1.1129233 1.1134803 -1.1756384 -1.182025
-1.4636592 -0.28902736 -0.6698827 1.2299165 0.86973506 -0.56534666 -0.53730667 -0.5008203
-1.3273555 0.09995616 -1.1826614 1.4682693 -1.2498524 1.3505722 0.46331355 0.9203009
1.5051725 1.565757 -1.8858938 -1.5571167 -1.2444096 0.9816384 -1.2435409 -0.92059416
1.237429 1.3487681 -1.2860153 -1.1203272 1.5146816 0.85268825 1.549782 -1.374054
-1.6212379 1.1853468 -1.3891631 1.5938119 -0.6325521 -0.9448941 -0.9954373 1.5054941
1.5833757 -1.0140163 -1.0181699 -0.0197779 0.030987948 9.801507e-09 -0.033734027 -0.0061852136
-1.1937175e-07 0.0032066235 -1.3553269 2.1560233 0.582635 -1.826904 -0.7585291 -0.56058884
1.6281546 1.6386409 -1.4257427 1.63666 -1.8638629 1.707055 -1.3567637 -0.45136184
-0.9211787 -0.55464095 0.6006977 0.73294604 0.5941469 -1.1757398 -0.02921113 0.6731824
-0.4670898 -1.1667306 1.1431315 -0.2913648 -1.0297467 -0.57460773 -1.1393229 -0.85007554
1.1588233 -0.83533585 1.2084979 1.1651547 -0.93390286 1.0878159 0.7223773 -1.2235471
1.22536 -1.0453795 -0.9790252 -0.9399642 0.91734046 1.182849 -1.4120296 -1.5550241
0.8226194 0.9447621 0.5502566 -0.6637004 -0.56116605 -0.96805406 1.2009522 0.73225945
-0.99459714 0.09075509 -0.15149118 1.550047 -1.6515944 1.6525874 -1.8110702 -0.81287616
1.2211945 -1.0722078 0.41818672 -1.1453159 1.3643966 -1.0791116 1.3205842 -0.5936386
-1.5400838 1.1241755 -1.2908088 0.112147346 1.4076366 1.4024657 -1.2958792 1.0055442
1.1092639 1.0781431 -1.4478683 -1.3008667 1.0599271 -1.1597482 -0.584875 -0.95535725
-0.95070577 1.1652818 1.2521864 1.289863 -1.0750315 0.6825604 -0.9773557 1.3707359
-0.99196196 1.3664621 -1.015549 -1.0780911 -0.32246524 1.162613 1.4247319 0.7543443

gc2.bias f4 [7]
00000000: 2025 0bbe 4065 6ebd 7e18 0d3f e0e7 dd3c
00000010: 83d2 bbbd aacf b33e 8215 a3bd
-0.13588381 -0.05820203 0.551155 0.027088106 -0.09171011 0.35119373 -0.07963087
