save_model/baseline/m3s-GCN-Pubmed-10-0.700000.pth (torch, 130753 bytes, 4 tensors)

gc1.weight f4 [500, 64]
-0.6684824 0.50431484 0.8022448 -0.5644003 -0.48189202 5.800453e-05 0.49247405 0.54292923
-0.5708365 0.61280495 -0.58218986 -0.6565541 -0.69842476 -0.5855967 0.51176685 0.10393728
-0.65431035 -0.65741897 0.7751899 0.7588847 0.7759419 0.85884696 -0.62051845 -0.73240346
0.00017886657 -0.7496421 -0.6731748 0.66420275 -0.64188975 0.69403976 -0.7271712 0.64713895
0.78116906 0.00039143406 -0.3199508 -0.6205077 -0.66536885 0.00031785155 -0.6647607 0.6486807
-0.64210397 -0.7160373 0.5489915 -0.453546 -0.5226485 -0.65922827 -0.4395307 0.5872317
-0.4509016 -0.65351963 0.003604996 0.74307394 0.61312926 0.69451267 0.78551733 0.6427137
-0.64150053 -0.5665319 0.0010376575 0.7425276 -0.6450518 0.62922347 8.0945465e-06 0.029191488
0.15831116 -0.08994945 -0.035988342 0.09000741 -0.040242672 -0.00046498008 0.0927119 -0.09273945
-0.051709093 0.08838133 0.11128409 -0.047009885 0.10501387 -0.042907972 0.07357288 -0.0718236
0.108402446 0.020092359 0.0724321 -0.092403136 -0.03791142 -0.09098407 0.123531215 0.09694157
-0.00043253996 0.13935216 -0.029112525 -0.09388656 0.1203241 0.07214314 0.11225389 0.0486263
-0.051808752 -0.00074857863 0.004505691 -0.06544215 0.1046173 0.0005557093 0.08738031 -0.050652385
0.11751743 0.03564427 -0.09662449 -0.055004705 -0.060471024 0.070130885 -0.053071313 -0.083014235
0.12458439 0.07526522 -0.011336169 -0.053925984 -0.09585451 -0.06645964 0.06616022 0.068123594
0.11633448 -0.053131614 -0.0005107994 -0.087631896 0.09862578 -0.047266964 -0.00027992862 -0.0834068
0.05695994 -0.005214763 -0.021414425 0.039054476 0.020758362 -0.0008963002 0.03875167 -0.0012879891
0.026534481 0.04309667 0.053422526 0.025075678 0.054647915 0.0304614 0.022764537 -0.0031420216
0.056987777 0.042862702 0.031327758 -0.013916402 -0.0102652805 -0.012034849 0.051543027 0.040090542
4.944249e-05 0.07014452 0.008662983 -0.005463631 0.05821247 0.017675865 0.057014253 0.02509655
-0.027821044 0.000400358 0.016052522 0.027786555 0.038251124 0.00014209529 0.08528562 -0.028737815
0.046900515 0.050579987 0.0039928425 0.0028330914 0.002624481 0.08106083 0.022674754 -0.020698536
0.051615495 0.07616179 0.00024851935 -0.024552608 0.002158289 -0.031775817 0.026974946 0.03413532
0.054447845 0.018667843 -0.00016871963 0.0048017115 0.039885547 -0.026334478 0.0008449877 0.01029976
0.014820482 0.037599947 0.05808644 0.004634721 -0.017326418 -0.00012636094 0.057408478 0.038602546
-0.02446853 0.07599301 0.00055568875 -0.016602168 0.0069733327 -0.011911907 0.0641657 -0.0034670455
-0.0012676005 -0.034219224 0.07399512 0.039627496 0.07081173 0.024841476 0.0121122245 0.002867818
0.00029914067 0.013135773 -0.018036246 0.043556657 0.0060168123 0.05988027 0.011494127 0.05088488
0.10340594 0.0003842473 -0.009749634 -0.02504761 0.0031093752 -0.00072481355 -0.018689074 0.10485745
0.002039929 -0.034578044 0.016440507 -0.029606555 -0.024658391 -0.019129971 -0.0220269 0.042491514
0.002169427 -0.026286809 -0.001616841 0.0746609 0.07464136 0.08137418 0.062092926 0.059861023
0.0040778276 -0.024498643 2.6530543e-05 0.042035744 -0.0013926761 0.07307114 -8.1229926e-05 -0.0020437608
00000000: aa21 2bbf c71a 013f ea5f 4d3f 8a7c 10bf
00000010: 8dba f6be e449 7338 8f25 fc3e 69fd 0a3f
00000020: 5722 12bf c9e0 1c3f 650a 15bf ee13 28bf
00000030: f7cb 32bf aae9 15bf 2703 033f 12dd d43d
00000040: e280 27bf 9c4c 28bf d872 463f 4546 423f
00000050: 21a4 463f 65dd 5b3f 4cda 1ebf cb7e 3bbf
00000060: 218e 3b39 8be8 3fbf 2f55 2cbf 3109 2a3f
00000070: e352 24bf 97ac 313f e427 3abf e6aa 253f
00000080: b2fa 473f 6439 cd39 97d0 a3be 98d9 1ebf
00000090: 9d55 2abf 50a5 a639 c22d 2abf f00f 263f
000000a0: ed60 24bf 384e 37bf b58a 0c3f 2e37 e8be
000000b0: 4bcc 05bf 2fc3 28bf 2b0a e1be d154 163f
000000c0: 93dc e6be 104d 27bf cc41 6c3b 183a 3e3f
000000d0: 0af6 1c3f 95cb 313f aa17 493f e388 243f
000000e0: 6139 24bf 3c08 11bf 0202 883a 4a16 3e3f
000000f0: 1d22 25bf ca14 213f d0cd 0737 fd22 ef3c
00000100: 521c 223e 6b37 b8bd 8368 13bd ce55 b83d
00000110: 80d5 24bd 92c8 f3b9 bddf bd3d 2eee bdbd
00000120: eacc 53bd 4501 b53d eae8 e33d 708d 40bd
00000130: 8311 d73d 45c0 2fbd 61ad 963d 4018 93bd
00000140: 1a02 de3d bb98 a43c 4857 943d db3d bdbd
00000150: 0149 1bbd db55 babd effd fc3d 4d89 c63d
00000160: 88c6 e2b9 55b2 0e3e 647d eebc 9947 c0bd
00000170: 7b6c f63d c8bf 933d 5ee5 e53d 5f2c 473d
00000180: 6a35 54bd 433c 44ba 7aa4 933b 8906 86bd
00000190: 9841 d63d 05ad 113a 73f4 b23d e078 4fbd
000001a0: faac f03d baff 113d 10e3 c5bd 9d4c 61bd
000001b0: 77b0 77bd c8a0 8f3d 4e61 59bd 5e03 aabd
000001c0: 1a26 ff3d a724 9a3d 57bb 39bc 7ee1 5cbd
000001d0: 5f4f c4bd fe1b 88bd 027f 873d 6284 8b3d
000001e0: c640 ee3d 89a0 59bd 2be7 05ba 5a78 b3bd
000001f0: 50fc c93d 019b 41bd 62c3 92b9 2fd1 aabd
00000200: d34e 693d 9ae0 aabb 4e6d afbc 96f7 1f3d
00000210: 710d aa3c b0f5 6aba 12ba 1e3d bed1 a8ba
00000220: d75e d93c 2286 303d 94d1 5a3d 826b cd3c
00000230: 7ed6 5f3d 308a f93c b27c ba3c 60ea 4dbb
00000240: 046c 693d cd90 2f3d 8951 003d 9f01 64bc
00000250: b52f 28bc d12d 45bc c81e 533d fb35 243d
00000260: 7860 4f38 eea7 8f3d 2fef 0d3c 4208 b3bb
00000270: 3370 6e3d facc 903c c787 693d 4897 cd3c
00000280: f5e8 e3bc 24e7 d139 9480 833c a1a0 e33c
00000290: 36ad 1c3d 6aff 1439 3aaa ae3d 916b ebbc
000002a0: c11a 403d f62c 4f3d 64d6 823b 63ab 393b
000002b0: 7cff 2b3b 3803 a63d 68c0 b93c fa8f a9bc
000002c0: c56a 533d b6fa 9b3d b44b 8239 8d22 c9bc
000002d0: 1572 0d3b 5c27 02bd 90fa dc3c 7ad1 0b3d
000002e0: b404 5f3d 4eed 983c 55ea 30b9 ad57 9d3b
000002f0: 075f 233d 67bb d7bc 2a82 5d3a 53c0 283c
00000300: 9bd1 723c 6702 1a3d 0cec 6d3d dcde 973b
00000310: 22f0 8dbc c27f 04b9 2725 6b3d b41d 1e3d
00000320: 3a72 c8bc 39a2 9b3d a4ab 113a 4501 88bc
00000330: 8e80 e43b 292a 43bc 4e69 833d 5f37 63bb
00000340: 9d25 a6ba 7529 0cbd c18a 973d 7150 223d
00000350: be05 913d 5a80 cb3c 5a72 463c 01f2 3b3b
00000360: fbd5 9c39 6d37 573c c0c0 93bc 7768 323d
00000370: ae28 c53b 0445 753d dd51 3c3c aa6c 503d
00000380: 7ec6 d33d cd74 c939 eebc 1fbc a530 cdbc
00000390: a9c6 4b3b 6a01 3eba d419 99bc 81bf d63d
000003a0: 54b0 053b b5a1 0dbd 3eae 863c 7289 f2bc
000003b0: 6500 cabc 75b6 9cbc c271 b4bc 950b 2e3d
000003c0: f22c 0e3b 6f57 d7bc 2eec d3ba d0e7 983d
000003d0: 92dd 983d 82a7 a63d 2755 7e3d d530 753d
000003e0: 4c9f 853b 61b1 c8bc e88d de37 ac2d 2c3d
000003f0: 758a b6ba 52a6 953d fc59 aab8 9ef0 05bb

gc1.bias f4 [64]
0.033103995 0.11932914 0.069718055 0.033616412 0.1007179 -0.0029623224 0.04908441 0.113308236
0.09494893 0.052776538 0.03219836 0.09333965 0.04046548 0.09575551 0.057407692 0.10868585
0.048525605 0.14556389 0.060023345 0.114323616 0.05042655 0.11637839 0.04482784 0.035516273
-0.035172362 0.028152658 0.11698394 0.11494437 0.033910565 0.045266323 0.028922807 0.04467128
0.07095592 -0.031682186 0.09163947 0.09673497 0.030112308 -0.04991369 0.104283005 0.07150649
0.033485863 0.14229673 0.10134895 0.10727147 0.09042106 0.11347685 0.103370495 0.12225176
0.04648064 0.1273279 0.088227205 0.07570371 0.098475166 0.08425177 0.04425402 0.047907468
0.035097454 0.09574532 -0.007972108 0.11631743 0.035793632 0.07831984 -0.0598326 0.09361333
00000000: 0e98 073d d662 f43d 57c8 8e3d 5db1 093d
00000010: 3045 ce3d 8623 42bb bc0c 493d 260e e83d
00000020: 9674 c23d 362c 583d 6de2 033d dc28 bf3d
00000030: 22bf 253d 771b c43d 5424 6b3d b096 de3d
00000040: c9c2 463d b30e 153e 0adb 753d 8022 ea3d
00000050: 128c 4e3d cb57 ee3d 669d 373d 8379 113d
00000060: e510 10bd 67a0 e63c 4795 ef3d f467 eb3d
00000070: cee5 0a3d 2e69 393d 86ef ec3c 3bf9 363d
00000080: 5651 913d 2ec5 01bd 79ad bb3d fc1c c63d
00000090: 16ae f63c 4c72 4cbd 5492 d53d ff71 923d
000000a0: 7928 093d 3cb6 113e 0a90 cf3d 25b1 db3d
000000b0: ad2e b93d 8d66 e83d e9b3 d33d 215f fa3d
000000c0: 7c62 3e3d 3f62 023e 77b0 b43d 8c0a 9b3d
000000d0: 59ad c93d 318c ac3d b443 353d 9f3a 443d
000000e0: 59c2 0f3d 1f16 c43d 729d 02bc d537 ee3d
000000f0: 589c 123d 2766 a03d 0713 75bd 58b8 bf3d

gc2.weight f4 [64, 3]
-0.35148627 1.2264144 -1.1226592 0.95538116 -0.85387236 0.7868725 0.9944728 -0.2818234
-0.23690352 -0.6150274 0.6609798 -0.5949199 -0.32442802 -0.22363186 1.2096831 0.024951626
0.00013977918 -0.0015495789 0.926636 1.1420475 -0.922631 0.6499471 -1.1501882 0.79438674
-0.8137782 -0.6618097 1.0248624 1.0627351 1.1259545 -0.95796716 -0.5007043 1.0699598
-0.3635101 -0.8096259 -0.77176523 0.8245156 -0.40327126 1.123777 -0.30559206 -0.71280915
-0.66841036 1.0154268 0.7604027 0.89118207 -0.77625304 0.34024554 -0.29110527 1.0424123
-0.5590735 1.2163025 -0.14375798 -0.48253474 0.57967716 0.9854155 0.9005881 0.72988594
-0.868263 0.83985364 -0.7209191 0.82185537 1.1347849 -0.50711095 -0.56054664 0.6936856
-0.74784744 0.69163674 -1.2131228 0.9259542 -0.7487748 -0.20273815 1.154716 -0.18168212
2.2080007e-05 0.0011206757 -0.00020671116 -0.84210753 1.1451461 -1.0176538 -0.40253994 -0.31251165
0.9472494 1.1012568 -0.74138886 1.0524421 -1.0710404 0.721938 -0.92264056 0.7089182
0.6264852 -0.94207406 -0.7539655 0.96609586 -0.70226264 0.6580157 0.5893251 -0.70009774
0.98363173 -1.110613 -1.0554318 -0.011590047 0.015923323 5.3826632e-05 -0.35887724 0.006621344
0.30577093 -0.8467102 -0.934978 0.94393927 -0.6640051 0.74205226 -0.7546035 0.0018206395
0.0022326065 -0.001445906 -1.077908 1.0327965 0.86804795 1.1807712 -0.9719575 -1.0142537
-1.145813 0.5209194 -0.9866894 -1.1030773 0.16485535 0.45462233 0.23804364 -1.0642364
0.81951016 -0.035841793 -0.18722546 1.0727994 -0.7160801 -0.8952221 0.6622572 -1.1041653
0.7575812 0.73362553 -1.2004635 -0.7460465 1.0862417 0.9462149 -0.6281636 0.5238447
-0.88885695 1.1855924 -0.3592746 -1.2112298 0.8208762 0.89124286 0.0018967183 -0.13794287
0.18592595 1.0770898 -0.9417601 -0.7220965 1.0768669 -1.0833702 0.7950759 1.008589
-1.0735892 -0.66641206 0.8534907 0.7806291 -0.8343763 0.97353697 1.0032357 -0.6434887
-0.7987841 0.89290553 -0.77349865 -0.73721844 -0.7775335 0.78380996 -0.0004125798 0.018377863
7.490206e-05 0.7499623 -0.9407514 0.7304489 -0.59158176 0.8907199 -0.50144017 0.9817849
-0.8612407 -0.7962357 -0.0059912624 -0.017588178 -0.0057069855 -0.11070958 -1.0263563 1.1517595
00000000: 02f6 b3be 26fb 9c3f 4cb3 8fbf dc93 743f
00000010: 6197 5abf 7a70 493f c595 7e3f 284b 90be
00000020: d696 72be 7072 1dbf f935 293f ac4c 18bf
00000030: 6e1b a6be c0ff 64be e5d6 9a3f 5a67 cc3c
00000040: b091 1239 3d1b cbba 0438 6d3f 9d2e 923f
00000050: 8c31 6cbf ef62 263f 5e39 93bf ee5c 4b3f
00000060: c553 50bf 5c6c 29bf b12e 833f b407 883f
00000070: 471f 903f 563d 75bf 282e 00bf 71f4 883f
00000080: ff1d babe a543 4fbf 6892 45bf 7413 533f
00000090: 9279 cebe edd7 8f3f 9076 9cbe a97a 36bf
000000a0: f11c 2bbf 81f9 813f c0a9 423f 8224 643f
000000b0: 85b8 46bf aa34 ae3e c00b 95be c46d 853f
000000c0: 711f 0fbf cdaf 9b3f 4b35 13be cb0e f7be
000000d0: b965 143f 3144 7c3f f18c 663f ced9 3a3f
000000e0: 7c46 5ebf a600 573f 278e 38bf 1d65 523f
000000f0: a240 913f 06d2 01bf fc7f 0fbf 6195 313f
00000100: ee72 3fbf 1b0f 313f 9c47 9bbf 560b 6d3f
00000110: b5af 3fbf 979a 4fbe bccd 933f e10a 3abe
00000120: 7438 b937 a3e3 923a 9bc0 58b9 5c94 57bf
00000130: 2694 923f 7b42 82bf b719 cebe 8701 a0be
00000140: f07e 723f fcf5 8c3f a9cb 3dbf 6cb6 863f
00000150: da17 89bf eed0 383f 2c32 6cbf aa7b 353f
00000160: 5661 203f c42b 71bf e203 41bf 0f52 773f
00000170: 7cc7 33bf b873 283f 02de 163f 9b39 33bf
00000180: 4acf 7b3f 9128 8ebf 6418 87bf 2ee4 3dbc
00000190: a171 823c e8c3 6138 c2be b7be dcf7 d83b
000001a0: 028e 9c3e 00c2 58bf b85a 6fbf 01a6 713f
000001b0: 3dfc 29bf 23f7 3d3f b22d 41bf 86a2 ee3a
000001c0: ec50 123b 8e84 bdba e4f8 89bf ad32 843f
000001d0: 6438 5e3f 8323 973f 35d2 78bf 11d3 81bf
000001e0: 00aa 92bf f95a 053f ad97 7cbf a331 8dbf
000001f0: d7cf 283e 42c4 e83e b6c1 733e e638 88bf
00000200: 6bcb 513f d8ce 12bd 08b8 3fbe 7e51 893f
00000210: 0751 37bf 472d 65bf b089 293f 4a55 8dbf
00000220: d7f0 413f e2ce 3b3f caa8 99bf e7fc 3ebf
00000230: f809 8b3f 243b 723f 54cf 20bf b01a 063f
00000240: 218c 63bf 7ec1 973f d7f2 b7be 9409 9bbf
00000250: f124 523f 7e28 643f 4e9b f83a e540 0dbe
00000260: 5f63 3e3e 14de 893f 3117 71bf 51db 38bf
00000270: c6d6 893f e0ab 8abf 188a 4b3f 7219 813f
00000280: 5f6b 89bf fb99 2abf 5e7e 5a3f 4fd7 473f
00000290: af99 55bf b839 793f 076a 803f adbb 24bf
000002a0: 1d7d 4cbf 7595 643f 0204 46bf 59ba 3cbf
000002b0: 6f0c 47bf c5a7 483f 864f d8b9 2c8d 963c
000002c0: bd14 9d38 87fd 3f3f 15d5 70bf b3fe 3a3f
000002d0: e771 17bf 3806 643f 625e 00bf 4156 7b3f
000002e0: 457a 5cbf 1ad6 4bbf 5a52 c4bb 1515 90bc
000002f0: aa01 bbbb b4bb e2bd a55f 83bf db6c 933f

gc2.bias f4 [3]
-0.15960865 1.0040876 -0.07509642
00000000: 7370 23be f185 803f 27cc 99bd
