save_model/baseline/m3s-GCN-ACom-20-0.700000.pth (torch, 200901 bytes, 4 tensors)

gc1.weight f4 [767, 64]
000000 38 22 99 bd 00 98 bd bc ae ce f9 bc 4a e2 9e bd
       -0.0747723 -0.023143768 -0.03049406 -0.07758005
000010 80 24 e7 ba 09 34 92 bd e2 3f 74 bd 8e 6d 30 3d
       -0.0017634779 -0.07138831 -0.059631236 0.04307323
000020 b4 02 fa bd a5 17 74 bc fc 0c 83 b7 92 40 dd bd
       -0.12207547 -0.014898215 -1.5622463e-05 -0.108033314
000030 ad 28 54 bd 07 77 4f bd b5 d4 36 bb 8b 4b 37 bd
       -0.051796604 -0.050650623 -0.002789778 -0.044749778
000040 78 40 83 bd c7 20 2b be 4e eb ee bd 59 9f 2b bd
       -0.06408781 -0.16711722 -0.116659746 -0.041900013
000050 e6 f2 c8 3c c8 33 0f bc f6 86 b6 bd 2c 16 5e bc
       0.024529886 -0.008740373 -0.089124605 -0.013555091
000060 f5 14 a5 3a d6 78 ce 3d 96 07 70 bc 5d 2f cf bd
       0.0012594747 0.100816414 -0.014650246 -0.10116456
000070 93 01 7a bd 51 da b3 bd d0 e9 16 bd 73 e5 c6 bd
       -0.061036658 -0.08781875 -0.036844075 -0.09711733
000080 a9 41 67 bc 68 01 95 bc 11 e8 19 3d ed f7 a6 bd
       -0.014114776 -0.018189147 0.03757483 -0.08152757
000090 33 08 ef 3a 9f 72 31 bb 31 a2 fb bd ad b7 92 3b
       0.0018236696 -0.0027076376 -0.12286795 0.0044774623
0000a0 fe 28 0a 3e 8b a9 65 3d 47 6c 93 3d 77 7d 49 bc
       0.134922 0.056069892 0.07198387 -0.01229798
0000b0 63 31 04 bc 8f b2 fc bb 85 3a b5 3b 4d 98 c8 bd
       -0.008068415 -0.0077117155 0.0055306577 -0.09794674
0000c0 47 8a 35 3d 9e df 75 bd 50 ee bb 3a 88 ac 47 bd
       0.044321325 -0.06002771 0.001433799 -0.048748523
0000d0 f9 74 3e bd fa ed 05 bd 1a 2d a6 b9 2f e3 da bc
       -0.046498273 -0.032697655 -0.0003169559 -0.026719658
0000e0 05 41 26 be b7 64 b0 bd 57 e3 50 bd 19 a9 2c bd
       -0.1623574 -0.0861296 -0.05099806 -0.04215345
0000f0 df 08 15 be 6c 80 28 3d 88 bb 14 3c f3 2d d0 3c
       -0.14554165 0.041138098 0.009077914 0.025412535
000100 b3 68 18 be 24 47 8b 3d 32 20 28 bd c3 45 cd bd
       -0.1488369 0.06800678 -0.04104633 -0.100230716
000110 41 b5 10 be 23 96 8f bd 4e 66 48 3b 9e 82 0c be
       -0.14131643 -0.07011058 0.0030578556 -0.13721702
000120 a0 08 a2 3d bd 52 0b 3d fc c3 2a bd 97 37 13 be
       0.07911801 0.034014452 -0.04169081 -0.14376675
000130 e7 54 49 bd 6f 1d 09 be 8e 92 1b be 49 7e 2a 3c
       -0.049153235 -0.13390134 -0.15192625 0.010406085
000140 6a 34 de bd 3b ef 1f 3d 59 e5 67 bc 21 d4 fe 3b
       -0.10849841 0.039046507 -0.014153802 0.0077767526
000150 e5 a8 e1 bd 38 15 5b 3a a3 b5 0e be fb dd ad bd
       -0.11018542 0.0008357349 -0.13936476 -0.08489605
000160 c4 43 0b 38 ef 69 c2 3d 41 f2 e2 bd 61 4b ae bd
       3.3203294e-05 0.094928615 -0.110813625 -0.08510471
000170 82 56 49 bc 40 52 d6 3d f5 62 8e bd 55 27 4a bd
       -0.0122886915 0.10464907 -0.06952468 -0.049353916
000180 8c dd c7 3b bb d4 04 bd 91 3e d4 3b 35 53 bf bd
       0.0060994085 -0.032429438 0.006477185 -0.09342042
000190 27 1f 57 3d 44 3f 5d 3c f9 61 00 be 57 7c 46 bd
       0.052519944 0.013503853 -0.12537374 -0.048458423
0001a0 69 10 86 bc bc a1 cd 3d 25 e3 f4 3d 88 47 88 bd
       -0.016365247 0.10040614 0.11957387 -0.066542685
0001b0 48 02 97 bd 79 17 c5 bd 15 10 9b 3d 7c 78 22 be
       -0.07373482 -0.09623618 0.07571427 -0.15866274
0001c0 18 d0 d4 bd a7 5b 94 3b 13 0a 06 bb 61 6a 72 3d
       -0.10391253 0.0045275274 -0.0020452782 0.059183482
0001d0 c5 94 11 3d 61 39 6c bc 02 25 2a bb 0c 3f 3a 3d
       0.03554227 -0.014417977 -0.0025962 0.045470282
0001e0 a7 5c 10 be a3 df 17 be 4c 8f e0 bd 33 9d 20 be
       -0.14097844 -0.14831404 -0.10964832 -0.15684967
0001f0 62 61 d1 bd f0 55 78 bd 3b 51 9a 3d 80 be e9 bd
       -0.102236524 -0.06062883 0.07535025 -0.11413288
000200 e1 a0 91 bd 5c ab 29 3e af 6d 8a bd 6d a8 1c be
       -0.07110763 0.16569275 -0.06759202 -0.15298624
000210 2b 5f e8 bd c4 b9 4f bb a2 c2 a8 bc 24 26 a7 3d
       -0.11346277 -0.0031696418 -0.02060062 0.081615716
000220 fe 9a e4 3c 9f 4e 92 bd 9f f6 8f 3b f8 a9 e8 bd
       0.027905937 -0.07143902 0.004393413 -0.11360544
000230 7e 90 e5 3c 7c 2a 51 3d 42 33 e1 bd e1 bc af bd
       0.028023 0.051065907 -0.10996105 -0.08580948
000240 b4 e3 38 ba c5 e8 ce bd bb 9b 34 bd f7 74 db bd
       -0.00070529734 -0.10102991 -0.04409383 -0.10715669
000250 36 a1 14 be 3b da 2e bc c8 75 5f bc cc f9 37 be
       -0.14514622 -0.010672147 -0.013638921 -0.17966384
000260 6a 13 99 38 65 56 ae 3c 51 9c 1e 3d 23 01 0b be
       7.299225e-05 0.02128143 0.038723294 -0.13574652
000270 80 ee 22 bc 75 90 d9 ba d7 d4 3e bc ac af 80 bc
       -0.009944558 -0.0016598838 -0.011647425 -0.015708767
000280 0f 60 62 3c 87 3e 1a bd a4 ec c4 3c 96 84 14 bc
       0.0138168475 -0.037657287 0.02403862 -0.009064814
000290 50 29 7d bd ed 93 b2 bc 8c 97 dd bd b2 30 36 bd
       -0.061806977 -0.021799052 -0.10819921 -0.044480033
0002a0 4e 49 96 3d 73 22 b2 3d b3 71 2b bd a8 2e 62 bd
       0.073382005 0.08697977 -0.04185648 -0.055220276
0002b0 fe 87 b8 bd 3d 04 dc bd fc 73 e0 3d 25 54 49 3d
       -0.090103135 -0.10742996 0.10959622 0.049152512
0002c0 15 9e 41 bd bb e5 d5 bc ce 47 59 bc 65 7e d9 bd
       -0.0472699 -0.02611052 -0.0132617485 -0.10619811
0002d0 42 d2 eb bc 74 9e ad bb e3 e5 25 3b 31 f0 05 3e
       -0.028786782 -0.00529843 0.0025314025 0.13079907
0002e0 b2 71 75 bc 8e e0 2e bb b9 73 f7 bb c7 ac 81 bd
       -0.01498072 -0.0026684138 -0.007551637 -0.06331783
0002f0 27 ea c1 bd c2 0c 28 3e 78 9e 22 3d a8 b7 d2 bc
       -0.09468489 0.16411117 0.03970191 -0.02572234
000300 97 e5 f6 bd e0 7b 84 bd 45 71 40 bd 19 63 fb 3b
       -0.120555095 -0.0646894 -0.046983022 0.0076717255
000310 2b 89 a2 bd d2 99 b0 bd 6f 11 0c be f4 85 ff bd
       -0.07936319 -0.08623089 -0.13678525 -0.124767214
000320 9c 85 88 3d 29 1b c1 bd 86 a8 e2 bd 45 48 99 bd
       0.06666109 -0.094290085 -0.110672995 -0.074844874
000330 b2 5f d0 bc 98 1f 81 3d db 76 f2 bd 87 f1 d7 bc
       -0.025436256 0.06304854 -0.11839076 -0.026360286
000340 df ed a3 bd 0f 2e e0 bd dc 9c a0 3c 3a bf 6f bd
       -0.08004355 -0.10946285 0.019606046 -0.058531977
000350 7a 4f 7f bd 9d 6b 64 3b 58 33 0f be d1 f3 74 bd
       -0.062331654 0.0034854182 -0.1398443 -0.059802834
000360 d7 0b 1f 3a f9 28 10 3e 61 a6 07 be 3f 3b af 3d
       0.0006067133 0.1407813 -0.13247062 0.08556222
000370 29 81 3d bd 71 20 92 bd 22 8f 43 3c be cd 29 bc
       -0.046265755 -0.07135094 0.011935981 -0.010363994
000380 3f 15 5a 3c c2 fc 32 bd af 84 60 bd eb c3 ae bd
       0.0133107295 -0.04369808 -0.054814037 -0.08533462
000390 f8 93 b4 bd 45 4c 17 3a 70 23 ae bb 69 15 89 3c
       -0.08817285 0.0005771558 -0.005314283 0.016733842
0003a0 b1 7e ba bb a8 42 0a be 08 4d 2d 3d 7d 82 0c be
       -0.0056913723 -0.1350199 0.04230979 -0.13721652
0003b0 b4 2e c0 bb 66 fe 65 bd ee 92 0c bd a7 b1 11 3d
       -0.0058649424 -0.056150816 -0.03431981 0.035569813
0003c0 42 02 20 3d 24 12 52 3b 9b d6 e3 3c 07 3c 6c bd
       0.039064653 0.003205427 0.027812293 -0.057674434
0003d0 12 15 72 3d 36 3b cd bc cc c1 60 3a 89 da f9 3c
       0.059102125 -0.025052648 0.00085738 0.030499713
0003e0 81 30 cc bd 3f 0d a1 bd d1 09 8e 3d 58 21 45 bd
       -0.09970189 -0.078638546 0.06935466 -0.048127502
0003f0 63 76 8e bd 4d a1 33 bd 7f a7 ea bd b3 af 03 bd
       -0.06956174 -0.043855 -0.114577286 -0.03214998

gc1.bias f4 [64]
000000 17 92 a1 bc 44 b3 1c 3d cf 56 19 be 5b ef 16 3d
       -0.019722981 0.0382569 -0.14974521 0.03684936
000010 08 7c c4 bd 63 a2 88 bb a9 75 10 be 1e 55 8c bd
       -0.095939696 -0.0041697486 -0.14107384 -0.06852172
000020 b6 bd 0d 3d 54 1e 1b be b2 ef ac 3c ca b5 ae bc
       0.03460475 -0.15148288 0.02111039 -0.021326918
000030 b3 d7 aa bd 87 93 10 bd cc 28 15 3d e2 4f 19 3c
       -0.083419226 -0.035296943 0.03641586 0.009357424
000040 89 55 0c b7 a1 a1 36 3d 0a 88 09 be ef 9a 40 3e
       -8.3645655e-06 0.044587735 -0.13430801 0.18809102
000050 c6 9d af 3b 52 8c 11 3c a6 f4 21 be 06 bd a6 bc
       0.005359384 0.008883553 -0.15815982 -0.020353805
000060 39 a5 ac bc 63 a3 16 bd 32 fa 8d bb 59 a2 d8 3c
       -0.021074878 -0.03677691 -0.004332804 0.0264446
000070 fe 67 6a bb e8 ce fb 3c 72 1d 24 3d 1c 0e a2 bd
       -0.003576755 0.030738309 0.040067144 -0.079128474
000080 b7 ff 21 3c 2a 13 84 bd 01 e5 e5 3d 07 7d 0b be
       0.009887627 -0.06448968 0.1122532 -0.13621913
000090 3e 9e 15 be 3a a4 bf bd 66 04 93 bb 5a 29 15 bc
       -0.14611146 -0.093574956 -0.0044866083 -0.009104097
0000a0 fd 0e bc 3c 78 b7 0f 3e 64 34 e4 bc 03 9d 27 bd
       0.022956366 0.14034832 -0.027857013 -0.040921222
0000b0 19 27 c7 bc a2 f4 07 be 5d b2 38 bd 87 b9 1b be
       -0.024310635 -0.13276914 -0.045091975 -0.15207492
0000c0 30 37 ec bc 0f 86 88 3c 7c b5 0b be d9 f6 4f 3d
       -0.02883491 0.016665487 -0.1364345 0.05077252
0000d0 89 c0 51 bc 35 10 91 3c ec 4a 47 bc 53 fd 39 3d
       -0.012802252 0.017707923 -0.012163859 0.045407604
0000e0 38 d9 60 bd 36 bf 98 bd 7b 46 7a bd 0e 8c b7 bc
       -0.054894656 -0.074583456 -0.06110237 -0.02240565
0000f0 ab 94 ae bd ff 4c 82 3d b1 67 9b 3d 05 59 91 3e
       -0.0852445 0.06362342 0.07588137 0.2838823

gc2.weight f4 [64, 10]
000000 8e 73 31 3e aa cd 6c 3e 0e bc 68 be 28 ee a8 3e
       0.17329237 0.2312533 -0.22727987 0.329942
000010 e6 dd 7f 3e d9 4a b1 3e 9e 12 9b bd cc 94 56 be
       0.24986991 0.34627417 -0.0757191 -0.20955199
000020 d8 4f 6c 3e 62 82 3b be 9c ef dc be 3a 0c e1 3e
       0.23077333 -0.18311456 -0.43151557 0.4395464
000030 90 80 dc 3e 11 73 1b be df a2 fb be c3 3c a5 be
       0.43066835 -0.15180613 -0.49147698 -0.3227292
000040 55 19 1f 3e 75 ce a4 3e 9b 21 91 be c2 29 fb be
       0.15537007 0.32188764 -0.2834595 -0.49055296
000050 59 2f 36 be e6 b0 b1 bd 87 8c 14 3e e1 0f 21 be
       -0.17791499 -0.08676319 0.14506732 -0.15728714
000060 48 9a 45 bd 72 9c 76 bd e2 a1 16 3d 14 9e d2 3b
       -0.048242837 -0.06020779 0.036775477 0.006427536
000070 b8 93 52 be bc 31 5d be 6e da 1d 3e a1 c4 e1 bd
       -0.20564163 -0.21601003 0.15415356 -0.11023832
000080 56 08 cc bc 17 cf 2f 3e df af 62 bc 8f 11 b3 3d
       -0.024906319 0.17168842 -0.013835876 0.087435834
000090 94 54 11 be 4f 47 d4 bd 99 af e6 3c 7a c9 2a be
       -0.1419242 -0.103651635 0.028159903 -0.1667842
0000a0 07 c7 1d be 63 18 de bd ae 0b 45 be be 48 c1 3b
       -0.15407954 -0.10844495 -0.19242737 0.005898564
0000b0 3a b9 ca bd a7 73 a1 be d5 c7 3a 3e d9 7b 8e bd
       -0.098986104 -0.31533548 0.18240292 -0.06957216
0000c0 b8 ed 7a bd 0c 4e 7c be 98 23 11 3e 70 d1 3c 3d
       -0.061261863 -0.24639148 0.14173734 0.046098173
0000d0 ac 19 17 3a 2b 61 7c 3d 0b 7c 16 bd ef 14 97 3d
       0.0005764018 0.061616104 -0.03673939 0.0737704
0000e0 be 67 90 be 2c f9 a0 bd 32 b9 05 be 08 a1 31 be
       -0.2820415 -0.07860026 -0.13058928 -0.17346585
0000f0 03 a3 16 3e 27 02 2f be 97 07 73 bd 7e 1d d4 bc
       0.14710622 -0.17090665 -0.05933341 -0.02589297
000100 53 55 3e 3e 45 93 52 3e 84 d2 54 3e fd fe f7 bd
       0.18587236 0.20563991 0.2078343 -0.12109182
000110 7e aa 16 be 20 0c 0c be 68 e5 e0 3d a9 e7 19 be
       -0.14713475 -0.136765 0.10981256 -0.15029778
000120 d6 1c 98 3e 01 b8 64 3e 49 60 d4 3d 46 c4 33 3e
       0.297095 0.22335817 0.103699274 0.17555341
000130 c6 ad 26 be d0 74 3c 3e 22 31 80 3d 8b 99 31 3c
       -0.16277227 0.18403935 0.06259371 0.01083983
000140 92 31 37 3c 66 68 b5 3e 5f b8 17 bd f1 6d 25 3e
       0.011181252 0.35431212 -0.037041064 0.1615522
000150 45 ce dc bd e4 25 ff 3d 51 6f aa 3e f9 06 96 be
       -0.1078153 0.12458399 0.33288053 -0.29302195
000160 c6 b8 04 be b8 83 8b be 80 00 2b bb 26 a4 55 bc
       -0.1296111 -0.2724893 -0.0026092827 -0.013039624
000170 96 f7 4e bd 3b fd 2f bb d2 a6 da 3d 59 d3 27 bb
       -0.050529085 -0.0026853818 0.1067635 -0.002560815
000180 e2 10 32 be 2b de 3b 3e 6a 44 91 3e 44 35 f4 3c
       -0.17389253 0.18346469 0.28372508 0.029810555
000190 70 57 f8 bd 8a fc 8e 3e 8c 82 4a be 87 25 fa bd
       -0.121260524 0.27927047 -0.19776362 -0.12214189
0001a0 06 1e 02 3e 18 e6 46 bd be 79 8e 3e 8b 12 99 3d
       0.12706766 -0.04855928 0.27827257 0.0747424
0001b0 e6 6c 9a 3e 43 cd 03 3e 3b 35 17 bd 89 1f 0b be
       0.30161208 0.1287127 -0.036916 -0.13586248
0001c0 de be bb bc a1 23 c1 3d a4 ee 97 3c 1e 28 fc bd
       -0.022918161 0.09430624 0.01854641 -0.12312339
0001d0 24 66 82 be a0 e8 9e 3e 25 2b 2c 3e c9 2f 93 3d
       -0.25468552 0.31036854 0.16813333 0.07186849
0001e0 9c 65 f7 bc d1 1b a6 3b a5 b3 78 be dc 40 2d 3e
       -0.030199818 0.005069234 -0.24287279 0.16919273
0001f0 b6 91 9f 3d 4f cc 16 be 09 0f a1 3d d2 39 01 be
       0.07791464 -0.14726375 0.07864196 -0.12619713
000200 b0 dc 22 be cb 17 37 be 56 f2 00 3e 50 fc 9d 3e
       -0.15904498 -0.1788017 0.12592444 0.30856562
000210 64 8a 89 3e 1d c4 9c bd 2f 28 88 3e d0 40 09 3e
       0.26863396 -0.07654593 0.26593158 0.1340363
000220 bd f4 c1 3d 21 c1 42 be 12 03 69 bc d8 f8 c6 bc
       0.09470508 -0.19018985 -0.014221923 -0.02428858
000230 ed 18 56 3b 19 b1 38 3e be 7a 78 ba 26 aa 9d be
       0.0032668666 0.18036307 -0.0009478739 -0.30793875
000240 28 a2 76 bd 57 6c 03 3e ce 8a 3b bd 4c 23 9a 3d
       -0.060213238 0.12834297 -0.04578667 0.075262636
000250 65 0e ea bd 87 35 6b 3e ea 7b c3 3e f1 ad 6f be
       -0.11428527 0.22969638 0.38180476 -0.23406197
000260 bf 56 cc bd bd 1b 02 bd c3 9c a2 3e 37 86 08 bd
       -0.09977483 -0.031764735 0.31760225 -0.033331122
000270 c4 78 36 3d 18 55 30 3e 26 16 86 bd a5 39 ce be
       0.044548765 0.1721996 -0.06547193 -0.40278354
000280 4e a3 87 be 5c cc 58 be c1 13 ba bc 43 53 5d be
       -0.2649178 -0.21171707 -0.022714498 -0.21613793
000290 f9 67 c7 bd ad a7 04 bd c0 20 18 be 3d 62 d2 3d
       -0.09736628 -0.03238647 -0.14856243 0.10272644
0002a0 94 d0 81 3e e1 0c 70 3e c5 b9 ba 3d 50 e2 0b 3e
       0.25354445 0.23442413 0.09117464 0.1366055
0002b0 be 61 ab 3c c6 de cf 3c 4a 2b d8 bd 8d 5f 6d be
       0.02092063 0.025374781 -0.10555132 -0.23180981
0002c0 0e 5d 3f bd 1a fc cd 3d f2 02 6e be 07 45 d8 bd
       -0.046719603 0.1005785 -0.23243311 -0.10560041
0002d0 55 1c 74 be fc 08 08 3e 42 d3 3d be 58 ba 71 be
       -0.23838933 0.13284677 -0.1853762 -0.23606241
0002e0 e5 bf 32 bc 69 57 b4 3d 04 8a 04 3d 29 f1 c4 3d
       -0.010910009 0.08805735 0.032358184 0.0961631
0002f0 45 d4 6b 3e 84 dd 6b 3e 31 a8 6d be 46 4e 92 3d
       0.23030193 0.2303372 -0.23208691 0.07143836
000300 03 30 b5 be 4f e7 78 be ec 77 db bd c3 a6 e2 3d
       -0.35388193 -0.24306987 -0.10716233 0.110669635
000310 c1 66 25 bc a1 47 e4 bd 89 c5 72 3e 70 14 7a 3e
       -0.010095299 -0.11146475 0.23708166 0.24421859
000320 63 be 3b 3d 37 ce 1d 3e e8 e2 a9 ba a9 5e 4f be
       0.045835864 0.15410696 -0.00129613 -0.20250954
000330 a0 e7 54 be ef e4 5b 3e 7b b6 6c bd 40 67 46 be
       -0.20791483 0.2147405 -0.057791214 -0.19375324
000340 12 58 c5 bd a5 21 98 be 64 13 70 ba 0b 34 9b bc
       -0.09635939 -0.2971317 -0.0009158163 -0.018945714
000350 74 df f8 ba 8c 9b 36 ba 59 c3 00 3e 16 28 18 bc
       -0.0018987493 -0.00069659273 0.12574519 -0.009286901
000360 d7 e5 c4 bd e3 34 96 bb 04 17 0b 3d a2 a9 f1 3d
       -0.09614151 -0.0045839413 0.033957496 0.11799933
000370 c1 93 02 be a4 a0 af 3d 46 4e 79 be ff 7c af bd
       -0.12751676 0.08575562 -0.24346265 -0.08568763
000380 90 39 37 bd 0c 38 bb bc d5 f2 4b be 52 60 b3 3e
       -0.04473263 -0.022853874 -0.19916852 0.35034424
000390 eb 8e 65 3e 86 40 28 bd 59 49 d4 be 43 93 cd 3e
       0.224178 -0.04107716 -0.4146221 0.40151414
0003a0 d4 99 00 bf c5 8c b0 3c 1d 05 a4 3e f2 32 0a bf
       -0.50234723 0.0215515 0.3203515 -0.53983986
0003b0 33 13 d8 be e3 85 cb be bf 48 b9 bd 02 4c c9 3d
       -0.42202148 -0.39750585 -0.09047078 0.098289505
0003c0 88 23 f4 ba 1e 02 91 3b 20 e2 e8 ba 52 fe 9c b9
       -0.0018626312 0.004425301 -0.0017767586 -0.00029944122
0003d0 3c ab 72 3a e3 b5 54 3b 52 bd a2 ba b7 6d 91 bb
       0.00092570833 0.0032457046 -0.0012416041 -0.004438128
0003e0 45 d9 f2 3c bc 06 b8 3c a6 b8 20 bd 0f 1e b1 be
       0.029644618 0.022464149 -0.039238594 -0.34593245
0003f0 d1 23 6e be 3e 7c 11 3e 10 e6 33 be e1 bb e6 3e
       -0.2325585 0.14207551 -0.1756823 0.45065215

gc2.bias f4 [10]
000000 8c 12 8b 3e f3 7a 7f 3e 4c 65 6e 3e 34 3a be be
       0.27162588 0.24949245 0.23280829 -0.3715378
000010 d3 79 f9 3d c0 72 70 be 8b 55 9e bd 5d 87 f3 bd
       0.12181439 -0.23481274 -0.0773116 -0.11891053
000020 b2 fb c9 bd de 08 18 be
       -0.0986246 -0.14847133
