save_model/baseline/m3s-GCN-Pubmed-3-0.700000.pth (torch, 130753 bytes, 4 tensors)

gc1.weight f4 [500, 64]
0	0xbf1230c4	-0.5710566
1	0xbef1ee7d	-0.47252265
2	0xbf193098	-0.59839773
3	0xbee86e83	-0.45396814
4	0xb959bb2a	-0.00020764457
5	0xbf0c29e7	-0.5475144
6	0x3f0cb6a2	0.54966176
7	0x3f0db52d	0.5535458
8	0x3f2301b1	0.63674456
9	0xbf00e5fd	-0.50350934
10	0xbec9330d	-0.3929676
11	0x3f26157f	0.6487655
12	0xbe46ea7b	-0.19425385
13	0x3f251d64	0.6449797
14	0xbf21f783	-0.632683
15	0x3f206433	0.6265289
16	0x3ab65baf	0.0013912822
17	0xbf155d02	-0.58345044
18	0xbee5760e	-0.4481663
19	0x3f088735	0.5333131
20	0xbe7687b1	-0.240752
21	0xbf0b820c	-0.5449531
22	0xbf022d8d	-0.50850755
23	0x3ef8212a	0.48462802
24	0xbf2d9283	-0.67801684
25	0xbede1c15	-0.433808
26	0x3efe029b	0.49611363
27	0xbcefc137	-0.029266937
28	0xbec7005b	-0.3886746
29	0xbee50175	-0.44727674
30	0xbeff5fb5	-0.49877706
31	0xbe98ad6d	-0.29819813
32	0xb95ccb00	-0.00021056458
33	0xbea656fa	-0.32488233
34	0xbf06c67b	-0.5264661
35	0x3f12ca18	0.5733962
36	0x37e8dea0	2.7760223e-05
37	0xba9fd2de	-0.0012193581
38	0x3a933022	0.0011229555
39	0xbefbb695	-0.49162737
40	0xbed5ab5d	-0.41732302
41	0x3f133253	0.57498664
42	0x3e81cbcc	0.25350797
43	0x3f2a8672	0.666114
44	0x3e499e2a	0.19689241
45	0x3e99040b	0.29885897
46	0xbf0cb55c	-0.5496423
47	0xbb9d778f	-0.0048055123
48	0x3ae36cd0	0.0017351154
49	0x3f1bb7ee	0.6082753
50	0xbf05ecbc	-0.52314353
51	0xbed9e1ca	-0.42555076
52	0xbeb7c46f	-0.35892054
53	0xbee82b43	-0.45345506
54	0x3f4465cd	0.76717836
55	0x3f325d76	0.6967386
56	0xb9bcd5ab	-0.0003601735
57	0xbf0a3e2e	-0.5400113
58	0x3a3c1227	0.0007174336
59	0x3f0feb8c	0.5621879
60	0xbf1cc0fb	-0.61231965
61	0x3f25edf0	0.6481619
62	0x3a3b4a90	0.00071445946
63	0x3ae47956	0.001743118
64	0x3e429d37	0.19005285
65	0xbd958330	-0.07300413
66	0x3e37ab93	0.17936544
67	0xbd38144f	-0.044941243
68	0x37ec7a60	2.8190378e-05
69	0x3d94fae4	0.07274416
70	0xbe4e0ece	-0.20122835
71	0xbe1269e3	-0.14298205
72	0xbe009ee2	-0.12560609
73	0x3e052224	0.13001305
74	0xbd7e2544	-0.062047258
75	0xbd868a5e	-0.0656936
76	0x3e5cbbbf	0.21555994
77	0xbde27fbc	-0.1105952
78	0x3d923925	0.07139806
79	0xbe0517f9	-0.12997426
80	0x3addf877	0.001693501
81	0x3da3a96a	0.079912975
82	0xbda6737e	-0.08127497
83	0xbd5a1af9	-0.05324838
84	0x3d6d4f04	0.057936683
85	0x3d1db6d7	0.038504448
86	0x3e1aaafa	0.15104285
87	0x3ccfbd7b	0.025358906
88	0x3e0ce51f	0.13759278
89	0xbd920ba9	-0.0713113
90	0xbd6c0c50	-0.05762893
91	0xb9cb2b9b	-0.00038751666
92	0xbd7efa11	-0.0622502
93	0x3e0f2e2d	0.13982458
94	0xbd625d24	-0.055264607
95	0x3cd77baa	0.026304085
96	0xba862b06	-0.0010236211
97	0x3e5491d6	0.20758757
98	0x3dd9b300	0.10629845
99	0xbcf8b470	-0.030359477
100	0xb9fc1ee5	-0.00048088204
101	0x3a016965	0.00049366645
102	0x3aa219f8	0.0012367358
103	0x3e6401a5	0.22266252
104	0x3db71ceb	0.089410625
105	0x3d91ed1f	0.071253054
106	0xbce14472	-0.027498458
107	0xbd3e2fef	-0.04643243
108	0x3dff5fc5	0.124694385
109	0x3dec71f3	0.115451716
110	0x3daf0ecb	0.085477434
111	0xbb025619	-0.0019887744
112	0xbb102fa2	-0.0022001048
113	0xbd701701	-0.05861569
114	0x3e1b1a0e	0.15146658
115	0xbd818073	-0.06323328
116	0x3e856466	0.2605316
117	0xbd8f4d55	-0.06997172
118	0xbd47b4f6	-0.048756562
119	0xbdbf9e45	-0.093563594
120	0x3a479a38	0.0007614228
121	0x3e1dbd08	0.15404141
122	0x3adee310	0.0017004926
123	0xbe3cad5b	-0.18425505
124	0x3e229dff	0.15880583
125	0xbe3190df	-0.1734042
126	0xba467979	-0.00075712014
127	0xb98cfeb2	-0.00026892644
128	0x3e0d120e	0.13776419
129	0xbc5d2c81	-0.01349938
130	0x3e00601e	0.12536666
131	0xbcab7051	-0.02092758
132	0xb97ca2a9	-0.00024093188
133	0x3d8d3f13	0.06896796
134	0xbd31b2d3	-0.04338343
135	0xbd6d99d4	-0.05800803
136	0xbd421316	-0.047381483
137	0x3dc36986	0.095416114
138	0xbc5d45c0	-0.013505399
139	0xbd220209	-0.039552722
140	0x3e3abe95	0.18236764
141	0xbd5caa23	-0.053873193
142	0x3d938b13	0.07204261
143	0xbd8ddce2	-0.06926896
144	0xb9ba338c	-0.0003551509
145	0x3d9e22d4	0.07721487
146	0xbce39e92	-0.027785573
147	0xbcaee5df	-0.021349845
148	0x3cfe5eba	0.031051029
149	0x3d364176	0.044496022
150	0x3de1afe3	0.11019876
151	0x3cf06be2	0.029348318
152	0x3dc3e851	0.09565795
153	0xbc87f744	-0.016597398
154	0xbcf6fda7	-0.030150248
155	0x39bb7cf4	0.00035760517
156	0xbc88ba17	-0.016690297
157	0x3db43b54	0.088003784
158	0xbc0eea8d	-0.008722913
159	0x3cbec947	0.023289336
160	0xbb1657b5	-0.002294046
161	0x3e2c5775	0.16830237
162	0x3dc34b1b	0.095358096
163	0xbb929dba	-0.004474369
164	0x39faf91e	0.00047869323
165	0x3a9f8bd4	0.0012172409
166	0x39135859	0.00014051925
167	0x3e1fe5ef	0.15615056
168	0x3d32fcf0	0.04369825
169	0x3d752a24	0.05985464
170	0xbc4c6553	-0.012475329
171	0xbd0d98a5	-0.0345694
172	0x3dc9cead	0.098538734
173	0x3df0f1de	0.117648825
174	0x3de77916	0.11302392
175	0xbad16997	-0.0015976903
176	0xbafd68b8	-0.0019333577
177	0xbcc2540c	-0.023721717
178	0x3dbbc9f1	0.09169377
179	0xbc453d3a	-0.012038523
180	0x3e6447fa	0.22293082
181	0xbc862024	-0.016372748
182	0xbd06fb44	-0.03295447
183	0xbd50e7ba	-0.05100224
184	0xbaa1104b	-0.0012288181
185	0x3e0c37dc	0.13693184
186	0x36c4a300	5.860231e-06
187	0xbd87cd7d	-0.06630991
188	0x3db1162a	0.086468056
189	0xbd409f4a	-0.04702691
190	0xba8b0672	-0.0010606779
191	0x3a70ca0d	0.00091853814
192	0x3bba1ee6	0.005679953
193	0xbd3d923c	-0.046282038
194	0x3b8eb898	0.0043555014
195	0xbd38ab87	-0.045085456
196	0x3ab22c3c	0.0013593505
197	0xbd013778	-0.03154704
198	0x3d2787b3	0.040900897
199	0x3c9a3f2a	0.018828947
200	0x3c7d394b	0.015455554
201	0xbc872582	-0.016497377
202	0xbd05e2f9	-0.03268716
203	0x3d69db75	0.057094056
204	0x3da62def	0.0811423
205	0x3e0a6722	0.13515905
206	0xbc61981f	-0.013769179
207	0x3b05b9f8	0.0020405035
208	0x39c59783	0.00037687653
209	0xbcbad31c	-0.022805743
210	0xbd265ba8	-0.040614754
211	0x3d8e078d	0.06935034
212	0x3be49bca	0.0069765793
213	0xbc9d5b5a	-0.019208599
214	0x3ce053c1	0.027383687
215	0x3d947192	0.07248224
216	0x3c41d97c	0.0118316375
217	0xbd3d5c1f	-0.04623043
218	0x3d21ea26	0.039529942
219	0xbb842a48	-0.0040333606
220	0xbd4175d8	-0.047231525
221	0x3b4d1690	0.0031293966
222	0xbd38d1f0	-0.045122087
223	0xbc5821c5	-0.013191645
224	0x39987718	0.0002908043
225	0x3da45304	0.080236465
226	0xbcab86d0	-0.020938307
227	0x3d81840f	0.06324016
228	0x3a93e65a	0.001128386
229	0x3a7ed360	0.00097208284
230	0xbade30f2	-0.0016951843
231	0x3c610da8	0.013736166
232	0x3b353618	0.002765065
233	0x3de07c24	0.10961178
234	0x3ca4c666	0.020114135
235	0x3d8e7f1a	0.069578364
236	0x3d7e11bf	0.062028643
237	0x3dc9546b	0.098305546
238	0xbd15e3cd	-0.0365942
239	0xbb00c0e3	-0.001964622
240	0x3ac354e2	0.0014902616
241	0x3d8ed701	0.069746025
242	0x3cc2f243	0.02379716
243	0xbd253ae7	-0.040339377
244	0x3c65319a	0.013988877
245	0xbd490b26	-0.049082898
246	0x3d4b5994	0.049645975
247	0x3dd7f78e	0.10545264
248	0x3930470e	0.00016811138
249	0x3c0dfe9c	0.008666661
250	0xba3c53df	-0.00071841286
251	0x3c1b0906	0.009462601
252	0x3c8733c0	0.016504169
253	0x3c33458d	0.010941875
254	0xb96b5388	-0.00022442464
255	0x3a07e730	0.0005184291

gc1.bias f4 [64]
0	0x3d9cfe83	0.07665732
1	0x3def809e	0.11694454
2	0x3d804450	0.062630296
3	0x3e09f993	0.13474111
4	0x35b33000	1.3350509e-06
5	0x3e00d782	0.1258221
6	0x3e10525c	0.14093918
7	0x3e2e4dce	0.17021868
8	0x3e2c317d	0.16815753
9	0x3dfe3f06	0.124143645
10	0x3dd3164b	0.103069864
11	0x3dffd333	0.12491455
12	0x3d9e8e7c	0.077420205
13	0x3e03d740	0.1287508
14	0x3de8f9f1	0.113757975
15	0x3e35f1a6	0.17767963
16	0xbc08c694	-0.008348126
17	0x3dea7f6d	0.11450086
18	0x3e061e97	0.13097607
19	0x3da06df5	0.07833473
20	0x3d0ca0a9	0.034332905
21	0x3e15dd7b	0.1463527
22	0x3d479f73	0.048736047
23	0x3df7923e	0.1208844
24	0x3d75ea74	0.060038045
25	0x3de5014c	0.11181888
26	0x3de131d0	0.10995829
27	0xbd66d3ad	-0.056354214
28	0x3e0b6e53	0.13616304
29	0x3d948e0a	0.07253654
30	0x3de4a6a7	0.11164599
31	0x3d98a3ca	0.07453115
32	0xbce9a494	-0.02852086
33	0x3d9b23d7	0.07575195
34	0x3de68c62	0.11257245
35	0x3de6461b	0.1124384
36	0xbcf9d4d8	-0.030497
37	0xbc883c35	-0.016630271
38	0xbc1f0ffd	-0.009708402
39	0x3d7c2ba6	0.061565064
40	0x3d29eaca	0.041483678
41	0x3dfaba6a	0.12242587
42	0x3dfb37b7	0.12266486
43	0x3e0cc58c	0.13747233
44	0x3de02252	0.10944046
45	0x3dc6d951	0.097094186
46	0x3deadb26	0.114675805
47	0xbb92f91b	-0.004485262
48	0xbd1f0040	-0.038818598
49	0x3dc630c8	0.09677273
50	0x3d61dab2	0.055140205
51	0x3dd0f2e7	0.1020258
52	0x3d9753f4	0.0738906
53	0x3df8b850	0.1214453
54	0x3e09d3d4	0.13459712
55	0x3e0816af	0.13289903
56	0xbc87e59c	-0.016588978
57	0x3da4a8e6	0.08040027
58	0xbc17b58d	-0.009259594
59	0x3e16b773	0.14718418
60	0x3d57569d	0.052572835
61	0x3e07913a	0.13238993
62	0xbc5c3091	-0.0134393135
63	0xba09ffc0	-0.0005264245

gc2.weight f4 [64, 3]
0	0xbf945e5e	-1.1591299
1	0x3f1131f5	0.56716853
2	0xbf241cd2	-0.64106476
3	0xbf1bbfef	-0.6083974
4	0xbf117bf2	-0.5682975
5	0x3f5460c6	0.82960165
6	0xbf83c795	-1.0295283
7	0x3f014de8	0.505095
8	0xbf7ac004	-0.9794924
9	0xbf2931be	-0.66091526
10	0xbe88bc05	-0.26705948
11	0x3f823bfd	1.0174557
12	0xbc183982	-0.009291055
13	0x3d12da5d	0.03585278
14	0x3d6ae2e3	0.057345282
15	0xbf3a39b5	-0.72744304
16	0x3f3ee871	0.7457343
17	0x3f7d5b13	0.98967093
18	0x3f2cd90f	0.67518705
19	0xbf85cf91	-1.0453969
20	0x3f3b5106	0.73170507
21	0x3f0ff4cc	0.56232905
22	0xbf7f5ea7	-0.99753803
23	0x3f1635fe	0.58676136
24	0x3f247f6c	0.6425693
25	0xbf1c51eb	-0.61062497
26	0x3f2daf71	0.6784583
27	0xbf300ea3	-0.68772334
28	0x3f52c966	0.8233856
29	0x3f0d6d37	0.55244774
30	0xbf07302b	-0.52807873
31	0xbf06f1c1	-0.5271264
32	0x3f34d28d	0.70633775
33	0x3f8672f7	1.0503834
34	0xbe83685c	-0.25665557
35	0xbe775272	-0.24152544
36	0x3dd1a028	0.102356255
37	0x3f804fe6	1.0024383
38	0xbf93808d	-1.1523606
39	0x3f8772b7	1.0581883
40	0xbf5e1c12	-0.8676158
41	0xbf4598d7	-0.7718634
42	0xbf24f66b	-0.64438504
43	0x3f243813	0.6414806
44	0x3f213698	0.6297393
45	0x3f2b4a83	0.6691057
46	0xbf369016	-0.7131361
47	0x3f68e203	0.90969867
48	0x3c2e96c6	0.010656064
49	0x3a7dad18	0.0009676977
50	0xb9d4cb8c	-0.00040587445
51	0xbf56adfd	-0.83859235
52	0x3f0bf439	0.5466953
53	0x3f15af71	0.5847083
54	0xbf39b8ea	-0.7254778
55	0xbf47fb64	-0.78117967
56	0x3f7d7b50	0.99016285
57	0x3f392afd	0.7233122
58	0xbf036485	-0.51325256
59	0xbf06a9ee	-0.5260304
60	0xbdc44f81	-0.09585477
61	0x3eb4b06b	0.35290846
62	0xbe648f36	-0.22320256
63	0xbf94557e	-1.158859
64	0x3dbc4a5d	0.09193871
65	0x3f3a690c	0.7281654
66	0xbf17ce91	-0.5929957
67	0x3f5da390	0.865777
68	0xbf0507cf	-0.5196504
69	0x3f26f6df	0.65220445
70	0x3d2d70a2	0.042343743
71	0xbf6675ad	-0.9002331
72	0xbebf3849	-0.3734763
73	0x3f7b0f52	0.9807025
74	0xbeac464c	-0.33647382
75	0xbf7b2da5	-0.98116523
76	0xbf6a1d0f	-0.9145059
77	0x3f00c6cf	0.5030336
78	0x3ec9b9b9	0.39399508
79	0xbf144b08	-0.5792699
80	0xbeea91da	-0.458144
81	0xbc9778a6	-0.018490147
82	0xbca4a790	-0.020099431
83	0x3ddeeaed	0.10884652
84	0xbf418e12	-0.7560741
85	0xbec008d8	-0.37506747
86	0x3f770799	0.9649597
87	0xbe40c53c	-0.18825239
88	0x3f734f8f	0.9504327
89	0xbf198764	-0.59972215
90	0xbe9da0f8	-0.30786872
91	0xbe7f3e14	-0.24926025
92	0x3f83f0f5	1.0307909
93	0xbea8f934	-0.33002627
94	0x3e70552b	0.23469989
95	0x3ea49bc1	0.3215008
96	0xbc32c00a	-0.0109100435
97	0x3c461bcc	0.012091588
98	0xbba60fa4	-0.0050677825
99	0x3d22832b	0.039675873
100	0x3f899adf	1.0750388
101	0xbf86105d	-1.0473744
102	0xbf599add	-0.8500193
103	0x3f713d6a	0.94234335
104	0x3f54a187	0.8305897
105	0x3f75ff26	0.9609245
106	0xbe2f9c8c	-0.17149562
107	0xbf03a0a2	-0.5141698
108	0xbc37ff27	-0.011230267
109	0xbbf28194	-0.007400701
110	0x3b29cbd7	0.0025908852
111	0xbd7aeb02	-0.061259277
112	0x3c07661c	0.008264091
113	0xbc38fc1d	-0.011290577
114	0x3b12debb	0.002241059
115	0xb9dca528	-0.0004208472
116	0x3c774455	0.015091975
117	0xbf84bcd4	-1.0370126
118	0x3f371fb0	0.71532726
119	0xbf64dfcb	-0.8940398
120	0xbec720f9	-0.38892344
121	0x3ee1fba8	0.4413731
122	0xbeaed110	-0.34143877
123	0x3ee0542f	0.43814227
124	0x3e6bd535	0.23030551
125	0xbf91ea42	-1.1399615
126	0x3e61dffe	0.22058102
127	0xbe639d5f	-0.22228001
128	0xbe57653a	-0.21034709
129	0x3f452fdf	0.7702617
130	0xbf0491b8	-0.5178485
131	0xbf4eeaea	-0.808272
132	0x3ee2cc10	0.44296312
133	0x3f4dfee3	0.8046705
134	0xbf47f148	-0.7810254
135	0x3ee82cdc	0.45346725
136	0x3f3e7aad	0.7440594
137	0xbf900ea3	-1.1254467
138	0xbf81b9ed	-1.0134865
139	0x3f6471ca	0.8923613
140	0x3f90abba	1.1302407
141	0xbd6e0473	-0.05810971
142	0x39e04600	0.00042776763
143	0x399faafa	0.0003045423
144	0x3c3f59ab	0.011679093
145	0xbd898162	-0.06714131
146	0x3b12ae86	0.0022381856
147	0x3f474ba8	0.7784982
148	0xbf0404f7	-0.51570076
149	0xbf0d23d0	-0.5513277
150	0xbf35d62b	-0.7102992
151	0x3f4cadb2	0.7995254
152	0xbf0c738d	-0.54863816
153	0xbf1d08fe	-0.61341846
154	0xbf1287db	-0.5723855
155	0x3f3abbca	0.72942793
156	0xbf93b390	-1.1539173
157	0x3f8c2fda	1.0952103
158	0xbed1cbb1	-0.40975717
159	0xbf749b53	-0.95549506
160	0xbf5a2a67	-0.8522095
161	0x3f167302	0.5876924
162	0x3f850be4	1.0394254
163	0xbd9600eb	-0.07324394
164	0xbe4c2f17	-0.19939838
165	0x3f23d82b	0.6400172
166	0xbf7cce2f	-0.9875211
167	0xbf642e25	-0.8913291
168	0xbb045a04	-0.0020195255
169	0x3cc81aac	0.02442678
170	0xba9d5b92	-0.001200544
171	0xbf46d827	-0.7767357
172	0x3f5a87da	0.85363543
173	0xbe784a0d	-0.24246998
174	0xba2e215e	-0.00066425453
175	0x3a78b48c	0.0009487353
176	0x3d238bf1	0.03992838
177	0x3f2874cd	0.65803224
178	0xbf4fa01b	-0.81103677
179	0x3f68fe04	0.910126
180	0xbebd79db	-0.3700703
181	0x3f6e2a69	0.9303346
182	0xbf0c2d1c	-0.5475633
183	0x3f0735c9	0.52816445
184	0xbf6a67b0	-0.91564465
185	0x3f61284b	0.8795211
186	0x3b9cdc55	0.004787008
187	0xba8ab295	-0.0010581786
188	0xbaa69265	-0.0012708424
189	0xbb06c7e4	-0.0020565921
190	0xbbbc1c4c	-0.005740678
191	0xbd68fbb2	-0.05688066

gc2.bias f4 [3]
0	0x3da1cff3	0.07900991
1	0x3e01f979	0.12692823
2	0xbe8869ab	-0.26643118
