save_model/baseline/m3s-GCN-ACom-5-0.700000.pth (torch, 200896 bytes, 4 tensors)

gc1.weight f4 [767, 64]
00000000: fc8d e4bc 579a b83b 82c2 83bc 9082 29be
00000010: 41c3 17bd c00d a539 af34 00bc 55a4 0abd
00000020: 2a71 563d 594d e33d e5e4 45bd 53cc 26be
00000030: 4e14 b43b 3f41 713c c38b 3cbd 1671 8fbd
00000040: bc92 29bd cc97 54bc 7132 e8bc 37d9 38bd
00000050: 6a97 d7bc 3a7f 393a f1fb 5b3e 4afe 3bbd
00000060: f99d 4fbe dc72 72bd 1cc2 06bb e0b8 8ebd
00000070: 4332 1ebb 85a8 e6bd d034 5dbd ce2d 1ebd
00000080: 7af7 41bc 7400 473d 9753 a13b eade 28ba
00000090: cc8e 35be ce93 353d 663d a33c 96d6 8cbd
000000a0: 05a1 cfbc 5cf7 86bd 0c28 c93c 5050 0c3d
000000b0: fa3f bebd d958 43bc 889e eeba 4caf 13bd
000000c0: 8307 b6bd 2be7 00bb f2e8 fbbc 9696 743d
000000d0: 1909 1fbd 3826 d13d 7cb6 4f3d 8d3d 7a3c
000000e0: 1fc9 6c3a 867e a2bc 7759 0abe 0751 54bb
000000f0: f00b 433e 7bd3 e5bc 4b02 0fbb dd86 aa3b
00000100: 357b 453d 8818 b23b 205d 77bd 3ad2 6bbd
00000110: a0c7 7ebd 7fb1 92bc a3d2 d73d fb41 10bd
00000120: 9012 9d3d 61fb ccbd 92c7 01be c5a9 f6bd
00000130: 0069 28be 9812 58bd 4245 f5bd 7394 e5bc
00000140: fa3f a1bd 8d0b 66bd 7b2d b1bc 58f4 8ebd
00000150: cde4 92bd 7d8d bbba 09c1 90bd a9e2 d4b9
00000160: b74d ca3d 5dc5 5bbd 79a6 b4bb 4a9e 643d
00000170: 2349 49bb e51b f6bd afd6 983d 8d85 0a3d
00000180: b048 7cbd abe0 75bd 1857 ecbb 6d98 96bb
00000190: 6bf2 25bd 4055 e0bb 88d3 733c a077 a5bd
000001a0: c2aa 9cbd ab4b 4cbd c07e 17bd 6128 f73d
000001b0: dd34 783c 8fdc ea3b 7ab6 a53b bdfd d3bd
000001c0: 366c 713d 463b c0ba 9e9e e3bc 0518 7b3d
000001d0: 70bb 463c 7e49 823d 35e1 95bd 8668 85bd
000001e0: 3baf b1bd 9ac3 fcbc cc5b 00bd b481 693b
000001f0: c2f6 b13d f62c 2f3d 5c7c 233d 77ce 823b
00000200: 8649 57bd ea83 c439 8596 493d a9e0 c53c
00000210: 9a56 71bd 243a 79ba 8708 63be 9bae 68bd
00000220: 5416 883e c240 053d b21b 43bd 3534 1dbd
00000230: b781 d4bd ca65 133d e2bf 543d 0b55 acbc
00000240: 6df6 85bd 7a60 08bd d54c 403d cdbe 0bbd
00000250: c1c5 c2bd d1ae 6dba d1b8 023a 7ae8 88bd
00000260: e2e0 abbd 6018 fabd de35 633b 386d 83bd
00000270: c27d 34bb 8c4c 67bd e082 fa3c f907 bbbd
00000280: ed43 a13b eb6a 363e cabe 28bd 37d6 c93d
00000290: 82fd 773d 8415 87bc ca03 b5ba de97 ffbd
000002a0: f38d 2fbc 9c86 11bd 1f31 3d3d db07 163d
000002b0: 806f 50bc 4cd7 c6bc 66e0 86ba 66ce 75bd
000002c0: 5d5c 133d 42fa afba ba71 07bd 01d0 eabd
000002d0: 77e5 75bc 42ce ccbd 9d67 df3c 75a0 b53c
000002e0: 74ea 0abe bbf4 9cbc 3f08 00be ae2c 00bb
000002f0: 170d 3cbd bab3 f6bb 8698 263e 84de 2aba
00000300: 6403 41bd 9864 023a 85ba c5bd fdfa 96bd
00000310: efdb 4fbd c520 40bb e170 5a3e 7a78 27bd
00000320: 5ca3 af3c 12be eebb d438 d6bd 5174 8dbc
00000330: 2a6a 12be d1eb dfbd a06d ef3a 69bd 63bc
00000340: 09b5 513c 8ff2 1abe b415 afbd 2914 ffbd
00000350: c336 f4bd 4c1d 2cba 1da2 cf3c b2cf 27bd
00000360: e1fd 99bb dc96 03be 6c37 553b 2914 22be
00000370: d146 ab3a 86ac 9ebc 7ba9 efbc 5661 7d3c
00000380: 1ba1 d7ba 60d3 073d cb28 ce3b 758e 8abd
00000390: af71 c33d abc6 a83b eef6 b7bc 2c31 51bd
000003a0: 2b42 0b3c 6125 11bd 5e5a d9bc 33ce a7bc
000003b0: eb1d 613c 5e11 60bd 37c9 88b9 1bc7 68bd
000003c0: 56dd cf3d 6419 763b 9cc7 dcbc 9548 54bd
000003d0: 96a6 e4bd 0f39 983d 08c3 013d 96e7 7a3d
000003e0: c433 c2bc ace1 91bc fbb5 ecbd f4d2 f9ba
000003f0: dc1a d53d a93f 8d3c 1c61 8a3d 2f50 a03b
-0.027899735 0.005633633 -0.01608396 -0.16553712 -0.037051443 0.00031481497 -0.007825061 -0.033848125
0.052354015 0.11098737 -0.048313994 -0.16288881 0.0054955846 0.014725029 -0.046031725 -0.07003991
-0.041399702 -0.012975644 -0.028344365 -0.045129027 -0.026317317 0.0007076148 0.21482827 -0.045896806
-0.20275106 -0.05919157 -0.0020562476 -0.06968856 -0.0024138845 -0.11262611 -0.054005444 -0.0386179
-0.011838788 0.048584417 0.0049232948 -0.0006441908 -0.17730254 0.04433041 0.019926738 -0.068768665
-0.025345335 -0.06590149 0.024555229 0.03425628 -0.09289546 -0.011923038 -0.0018205205 -0.036055848
-0.088881515 -0.0019669037 -0.030750725 0.059713922 -0.038827036 0.10212368 0.05071114 0.015273464
0.0009032655 -0.019835722 -0.1351069 -0.003239693 0.19047523 -0.028054943 -0.0021821435 0.0052040652
0.048213203 0.0054350533 -0.060391545 -0.057573535 -0.062202096 -0.017906902 0.10538223 -0.035219174
0.07669556 -0.10008884 -0.12673786 -0.120441 -0.16446304 -0.052752107 -0.119761005 -0.028024888
-0.07873531 -0.05616336 -0.021628132 -0.069801986 -0.071725465 -0.0014309135 -0.070680685 -0.00040604666
0.09878104 -0.053655017 -0.005513009 0.05581502 -0.003071376 -0.12017039 0.07462823 0.03381877
-0.061592758 -0.060028713 -0.007212531 -0.0045958073 -0.04051439 -0.0068461 0.014881976 -0.08079457
-0.07649757 -0.04987685 -0.036986113 0.120682485 0.015149322 0.007167406 0.0050571533 -0.10351131
0.05894109 -0.0014666102 -0.027785596 0.061302204 0.0121296495 0.06361674 -0.073183455 -0.06514077
-0.08676001 -0.030854989 -0.031337544 0.0035630288 0.086896434 0.042767487 0.03991352 0.0039918977
-0.05256035 0.00037482317 0.049215812 0.024154978 -0.05892048 -0.000950726 -0.22171222 -0.05680714
0.26579535 0.03253246 -0.047633834 -0.038379867 -0.10376304 0.035985745 0.051940806 -0.021036645
-0.065411426 -0.033295132 0.046948273 -0.03411751 -0.09510375 -0.0009066882 0.0004986646 -0.066849664
-0.08392502 -0.122116804 0.0034669559 -0.06417316 -0.0027540778 -0.056469485 0.030579984 -0.0913238
0.0049214275 0.17814223 -0.041197576 0.09855311 0.0605445 -0.016489752 -0.0013810333 -0.12480138
-0.010714996 -0.035528764 0.046189424 0.036628585 -0.012721896 -0.024272583 -0.0010290265 -0.06001129
0.035976756 -0.0013426023 -0.033067442 -0.11465455 -0.015008322 -0.10000278 0.027271086 0.022171238
-0.13566 -0.019159665 -0.12503146 -0.0019557881 -0.04591092 -0.0075287493 0.1626912 -0.0006518143
-0.047122374 0.0004974096 -0.096547164 -0.07372091 -0.050746854 -0.0029316407 0.21332122 -0.04088638
0.0214402 -0.0072858417 -0.10460058 -0.017267378 -0.14298311 -0.1093365 0.0018266924 -0.013900139
0.01279951 -0.15131591 -0.085490614 -0.12455017 -0.119245075 -0.0006565645 0.025345856 -0.040969558
-0.004699454 -0.12850517 0.0032534255 -0.15828003 0.001306737 -0.019369375 -0.02925562 0.015465101
-0.0016451211 0.033160567 0.006291484 -0.06765453 0.09543168 0.005150636 -0.022456612 -0.051072285
0.008499662 -0.035436038 -0.026532348 -0.020484066 0.013740043 -0.054704063 -0.00026089858 -0.056830507
0.10149638 0.0037551755 -0.02695065 -0.051827032 -0.11164586 0.07432758 0.031680137 0.061256014
-0.023706324 -0.017807804 -0.115581475 -0.0019060061 0.10405514 0.01724227 0.067568034 0.004892371

gc1.bias f4 [64]
00000000: c645 f8bd 7102 51bc e5ac bf3c 5ccb 1dbc
00000010: f079 a03c 15ab cb39 9c3e 26be 0ceb 0dbd
00000020: d67e 4fbe 2241 253d 94f1 073e 3896 ed3c
00000030: 11a4 eebd fa89 523e 443e 75bd 2807 60bc
00000040: e4fa 73bd 109e 443c 220e 1c3d 0a1f 90bd
00000050: 3ca2 2e3d 7e2e 04bd 8fe7 a5bd 5ef2 f93d
00000060: 6aea 133e a37e 44bc cedc 523c 58bd 27be
00000070: e543 96bc 5c34 813d abcd 823e 11ab d1bd
00000080: 4335 97bd 7d67 f3bb 2ca0 4cbd 7481 b3bb
00000090: 83b2 5c3e 2267 81bd 5b4d 8b3a a6c5 6db9
000000a0: 2149 45bb 220e 92bc b5eb f7bd 69b4 c7bd
000000b0: bccb 16be 2a22 49bd 4ffe c2bc 2194 a5bd
000000c0: cd40 773d eba1 babc 4775 a9bd 0982 053e
000000d0: 71c0 163c 4998 513d 78ac af3a 10c0 29be
000000e0: e512 6139 c69a 4dbd da2a 7ebd b4f6 8abd
000000f0: f571 8b3d 4f64 463d fb40 a33d 5fdf 71bd
-0.12122683 -0.01275693 0.023397872 -0.009631004 0.019589394 0.00038846643 -0.16234821 -0.034647986
-0.20263228 0.04034532 0.13275748 0.029002294 -0.11652387 0.20560446 -0.059873834 -0.013673581
-0.05956544 0.012000576 0.038099416 -0.0703717 0.042635188 -0.0322709 -0.08100807 0.12204431
0.1444489 -0.011993083 0.012870027 -0.16380823 -0.018342922 0.06308815 0.25547537 -0.102377065
-0.07383206 -0.0074281082 -0.04995744 -0.0054780785 0.21552472 -0.06318499 0.0010627912 -0.00022675711
-0.0030103403 -0.017829005 -0.121055044 -0.097512074 -0.14726156 -0.049104847 -0.023802904 -0.08084894
0.060364533 -0.022782287 -0.08274322 0.13037886 0.009201155 0.05117062 0.001340284 -0.16577172
0.00021464711 -0.05019643 -0.062052585 -0.06785336 0.06808845 0.048435505 0.079713784 -0.059050914

gc2.weight f4 [64, 10]
00000000: 791a 223e 6b9d 6fbd 8286 0bbe a425 70bd
00000010: 14ee 61be 69c3 a63e e89c a6bd 1d4d 723e
00000020: 043b 8cbc 5d62 bcbd de33 723b 6650 913d
00000030: ffd2 393c e3ed 27bc 04a7 7bbb c9a2 ac3d
00000040: a26b 3dba daaa 193b 9c09 51bb e3c7 b5ba
00000050: 59f5 973d bbd8 d6bd 8e31 aa3e 27ca 13be
00000060: b6a4 0cbe 762b a13d fd62 13be 801d b63d
00000070: 3b8f 813e 354c 2ebe b13d b0bd 3d1d 9f3d
00000080: e3ee b73d 2f4a 81be 813e 23be 06a1 ae3d
00000090: 6396 663e 20e1 813d 4ce5 893b e70e 82be
000000a0: 30fb 1bbe a4c1 be3d 7a84 943e fd1b de3d
000000b0: fabb 053e d72b 6e3e 284e 67bc 7943 3f3e
000000c0: 131a b63d 0f43 2bbe b467 71b8 d1fc 083d
000000d0: 97a6 0f3d adf3 e3ba ded9 c3bc 3050 e13c
000000e0: 1497 523b 9329 3fbd 0806 74bb ffd5 8abc
000000f0: 130e afbe f8f9 c9bd b59d 7ebe 53f1 343e
00000100: 687a efbd 7cf9 0d3f ab41 8bbe 8499 983e
00000110: daa0 a8be 6254 a13e 3673 d6bd 69b9 da3d
00000120: 275e 5f3d 4f72 9bbd a963 2cbe d984 99be
00000130: a45c 26bd c63b 08be 0ad4 33be e59e 4e3d
00000140: 930e 1a3e 6049 dbbe d250 9f3e 03c8 5d3e
00000150: 683a 83be e98a 3ebe 108d 513e 8bf6 a33e
00000160: 2f59 0dbe bada 54bd 6801 523e 3501 9cbe
00000170: 1672 343e 853d 1cbe 50ae 913e ab91 cfbd
00000180: 0f30 94be 9008 b4be be92 8d3e c1fb ac3e
00000190: e319 69be e8db 883e dac8 61bd 4634 3b3e
000001a0: 6d4c ed3b 5b3d 4abe 0331 3c3e a2ae cb3c
000001b0: 3cfd 05bc f70a f23a 50d8 1e3e 8f6f 773d
000001c0: 1a5d df3d fb7e 07bc 6203 28be 135d afbe
000001d0: ef3b 5fbe 28d1 1abe b661 31be dc87 a63c
000001e0: c744 853e 5456 bf36 46f8 313e bef9 1b3d
000001f0: 2a15 24be 79da 74be 0649 09be c240 3fbe
00000200: f99c ebbd 3acf 0c3c 8024 583e 7d5d 513e
00000210: 3325 a1be 26d7 febb e06b 8e3e 19ff 66be
00000220: b9f8 44be 1398 9ebe 6590 0e3e c3d7 9cbe
00000230: 4cea 0ebe 6331 913b b257 823e 91a4 173d
00000240: 8c5e 7ebc 5a97 0bbe 8260 87be 85f1 af3c
00000250: 19be 733e a6c9 373e d0d5 0a3e fb83 16be
00000260: ac2a 1bbe dfac 57bd ddfd 9abe ca2f 76bd
00000270: 58e2 2bbe a3c1 10be 1b4d 4fbd a611 09bd
00000280: 84a3 82be 8212 b7bc 2c13 fcbd f73c 213e
00000290: 3f8d 183d 4aeb 5b3e 5224 803e e918 2ebd
000002a0: 4832 b93d 5584 6cbc 54b2 f73d f74e 01be
000002b0: 4b9e 1bbe 838b 7dbe 26e5 063c 162d a6bc
000002c0: 0016 c7bd a18c 5b3d 70a8 173e 1944 323e
000002d0: 112c c73d c537 e1bc 61e0 a9bc b3c4 50be
000002e0: a28c 343e 5628 43be 02d5 993e 0f88 893e
000002f0: 0074 8a3e 453f a83e 5a54 b0bd 3d2c c13d
00000300: 8f32 fdbd e2be 66be b174 7ebd 039d 2b3e
00000310: ad6f 3ebe 7a89 fb3d 0757 823c 8daa 0cbd
00000320: 5e6f b7bc ec4a 31bd 479b c9bd 0dcb bbbd
00000330: d750 893e e97f 3f3e c34f 5a3e 2d13 333e
00000340: 1c57 a13d 1aee 9b3d a7b2 1dbc 7c45 31bc
00000350: 58e0 283b 4e70 bcbb e4af 1abb 0d50 3bbb
00000360: 552b d9bb 7af4 3b3c cc8e 8cba 0042 73bb
00000370: 2bcd 9ebc a8bc a7be 256a 91be 64a0 7d3e
00000380: de87 913e b3b0 9b3d d590 7ebd 0ea9 b6b9
00000390: 698a 1dbd 9ef2 313e ef27 2c3e 0fa0 aa3e
000003a0: 3d52 47be 5058 95be ac39 663e e944 6cbe
000003b0: b8c9 6f3e c375 253d 56bb b83e 2e95 0abd
000003c0: ccd7 29be b96a c7bd 96cf a4be 92d9 9dbe
000003d0: 3f6c b2be fae0 95be 6098 fabb d86e 1bbe
000003e0: 72ff 71be ba78 a0bd 3ce0 51bd 0a6a 89bd
000003f0: 678f cd3d 8064 40ba e632 613d ce20 ff3d
0.15830411 -0.058499735 -0.1362553 -0.058629647 -0.22063476 0.3257096 -0.08135396 0.23662229
-0.017117985 -0.09198449 0.0036957185 0.07095413 0.011341809 -0.010249588 -0.003839911 0.08429486
-0.00072258164 0.0023447783 -0.0031896597 -0.0013868775 0.07419843 -0.10490557 0.33240932 -0.14432584
-0.13734707 0.07869618 -0.1439323 0.088923454 0.2530459 -0.17021258 -0.08605517 0.07769249
0.08981111 -0.2525191 -0.15941812 0.085268065 0.22518305 0.06341767 0.0042082425 -0.25401995
-0.15232539 0.09314278 0.29007322 0.10845182 0.13059989 0.23258911 -0.014117755 0.18678083
0.08891692 -0.167248 -5.755546e-05 0.03344423 0.03507098 -0.0017391347 -0.023907598 0.027504057
0.0032133507 -0.046670508 -0.003723504 -0.016947744 -0.34190425 -0.09862131 -0.24864848 0.17670183
-0.11693269 0.5545881 -0.27198538 0.29804623 -0.3293522 0.3150969 -0.104711935 0.106798954
0.05453315 -0.07590162 -0.16834892 -0.29984167 -0.040615693 -0.13304052 -0.17561355 0.050444502
0.15044622 -0.42829418 0.31116349 0.2165833 -0.25630498 -0.18607678 0.20463967 0.32024035
-0.13803552 -0.051966406 0.20508349 -0.3046967 0.17621645 -0.15257843 0.28453302 -0.10135206
-0.28942916 -0.35162783 0.27651018 0.33785823 -0.22763781 0.26730275 -0.055123188 0.1828166
0.0072417767 -0.19749968 0.18378071 0.024863545 -0.008178052 0.0018466403 0.15512204 0.060409125
0.109064296 -0.008270021 -0.1640754 -0.34250697 -0.21800207 -0.1511885 -0.1732243 0.020328455
0.26029035 5.7022935e-06 0.17379865 0.03807997 -0.16023698 -0.23911466 -0.13406762 -0.18677047
-0.115045495 0.008594329 0.21107674 0.20445819 -0.31473693 -0.0077771125 0.27816677 -0.2255825
-0.19235505 -0.30975398 0.1392227 -0.30633363 -0.13956565 0.004430936 0.2545753 0.037022177
-0.015525471 -0.13631955 -0.26440817 0.02147747 0.23802985 0.17948017 0.13558125 -0.14698784
-0.15152997 -0.052655097 -0.30271807 -0.06010417 -0.16785562 -0.14136367 -0.050610643 -0.033464096
-0.25515378 -0.022347692 -0.12308344 0.15745912 0.037244078 0.21476474 0.2502771 -0.042504225
0.090427935 -0.014435847 0.1209456 -0.12627779 -0.15197103 -0.24760251 0.008233344 -0.02028517
-0.09720993 0.05360091 0.14810348 0.1740879 0.09725202 -0.027492413 -0.020736875 -0.20387535
0.17631772 -0.19058356 0.30045325 0.26861617 0.27041626 0.3286077 -0.08609839 0.09432266
-0.12363159 -0.22533754 -0.062123004 0.16759114 -0.18597288 0.12282081 0.015910638 -0.034342337
-0.022391971 -0.04328434 -0.0984407 -0.09169588 0.26819488 0.18701138 0.21319489 0.17487784
0.07877943 0.07613774 -0.009625114 -0.010819789 0.0025768485 -0.0057506924 -0.0023603374 -0.002858165
-0.00662748 0.011471862 -0.0010723709 -0.0037118196 -0.019384941 -0.3276112 -0.28401294 0.24768215
0.2842397 0.07602062 -0.06214984 -0.000348397 -0.038462076 0.17377707 0.16812108 0.3332524
-0.19464965 -0.2916894 0.22482938 -0.23073162 0.23416793 0.04039551 0.36080426 -0.033833675
-0.16586226 -0.097371526 -0.32189626 -0.30830055 -0.3484821 -0.29273206 -0.007647559 -0.15179002
-0.23632601 -0.07835527 -0.051239237 -0.067096785 0.100371175 -0.00073391944 0.05498018 0.12457429

gc2.bias f4 [10]
00000000: 4d29 8cbd a7f0 e73e 1154 d63d d5eb 023e
00000010: 9fa4 8f3e 5e2c 4abd 8ba0 16bf 7827 823b
00000020: 8dae 4abd 1241 a1bc
-0.06843815 0.4530079 0.10465253 0.12785275 0.28055283 -0.049358718 -0.5883872 0.00397199
-0.04948287 -0.019684348
