save_model/baseline/st-GCN-Cora-3-0.650000.pth (torch, 370623 bytes, 4 tensors)

gc1.weight f4 [1433, 64]
0	0xbc7fa899	-0.015604162
1	0xbc0375a5	-0.008023654
2	0xbcd19c5f	-0.025587259
3	0x3c1c365e	0.0095344465
4	0x3c902377	0.017595036
5	0xb787a125	-1.6168293e-05
6	0x3ca2f79a	0.019893456
7	0xbc87e8c0	-0.016590476
8	0x3ce86942	0.028370503
9	0x3ceb1a55	0.02869908
10	0x3c9fc3ce	0.019502547
11	0xbb022b88	-0.0019862372
12	0x35857e20	9.945979e-07
13	0xb6b45c90	-5.3751937e-06
14	0xb8d77f48	-0.00010275707
15	0x3c0d2ed5	0.008617123
16	0x3bbb7d3e	0.005721717
17	0xbc83e027	-0.016098095
18	0xbc9b68cc	-0.01897087
19	0xbc3e4d5e	-0.011615125
20	0x389a5400	7.3589385e-05
21	0xbbb2b15d	-0.0054532723
22	0x399e17cb	0.00030153836
23	0xbca3bb86	-0.01998688
24	0x37d2f426	2.5147641e-05
25	0x3d19a386	0.037509464
26	0xbc13c4f4	-0.009019125
27	0xb79b7d5b	-1.8535813e-05
28	0xbb573190	-0.0032835938
29	0x3be91a16	0.0071137054
30	0xbaeb82e6	-0.0017968088
31	0xbb0b783c	-0.0021281382
32	0xbc9ebdd2	-0.019377623
33	0x3cec1386	0.028817903
34	0x3c228113	0.009918469
35	0x3babb93c	0.0052405875
36	0xbcbedf8e	-0.023299959
37	0x3bec64c5	0.007214161
38	0x3c872c9f	0.01650077
39	0x3c6edb52	0.014578657
40	0xbb83eedc	-0.004026277
41	0x3bb1d36a	0.005426814
42	0xbcc94396	-0.02456836
43	0xbca647f1	-0.020297976
44	0xbcb689b4	-0.022282459
45	0x3c908f05	0.017646322
46	0xbbed2bb7	-0.007237877
47	0x37d8a416	2.5825615e-05
48	0xba04ef37	-0.0005071046
49	0xbb291810	-0.0025801696
50	0xbd0b557b	-0.034017067
51	0x3a4307f4	0.0007439845
52	0x3c4ee7ad	0.012628478
53	0xbc709784	-0.014684562
54	0x3c28a1e2	0.010292502
55	0xb6dcee00	-6.5842178e-06
56	0x3cbb0604	0.022830017
57	0x38b83145	8.782981e-05
58	0xbbaa1ad3	-0.005191186
59	0xbba892a2	-0.005144433
60	0x3d02b436	0.031910144
61	0x3d361fcc	0.044463918
62	0xbc95f5c3	-0.018305665
63	0xbc2fb37a	-0.010723943
64	0xbb9f855f	-0.004868194
65	0xbc71a776	-0.014749398
66	0x3d03eea8	0.032210022
67	0x3d1a9b41	0.037745718
68	0x3c00dc78	0.007865064
69	0x37bdc5f8	2.2622742e-05
70	0x38642e60	5.4402626e-05
71	0xbb0a576c	-0.0021109236
72	0xbc9750ee	-0.018471207
73	0x3b8e88f4	0.004349822
74	0xbc0a2004	-0.008430485
75	0xbb2ef31f	-0.0026695204
76	0x37d064de	2.4842502e-05
77	0xb7d00fee	-2.480295e-05
78	0xb8e4a918	-0.000109033834
79	0x3d09eff7	0.033676114
80	0xbcb7403e	-0.0223695
81	0xbbbea398	-0.0058178417
82	0x3c79e145	0.015251462
83	0x3c9e529f	0.019326506
84	0xb89d4a8a	-7.5002274e-05
85	0xbcc5445a	-0.024080444
86	0xbd1558e0	-0.03646171
87	0x3bba115c	0.005678339
88	0x38968de0	7.178984e-05
89	0x3befbde8	0.0073163398
90	0x3c621a2f	0.013800188
91	0x36b55d9c	5.405118e-06
92	0xbc8ad176	-0.016945582
93	0xbd7450a7	-0.05964723
94	0xbbd51a25	-0.006503361
95	0xbca483d9	-0.020082401
96	0xbca5c48f	-0.020235328
97	0x3c3994e0	0.0113269985
98	0xbcc40e7c	-0.023932688
99	0x3d5abe30	0.053404033
100	0xbc8a1e75	-0.016860226
101	0x3d619a70	0.055078924
102	0x3cb74c71	0.022375317
103	0x3c656852	0.014001923
104	0xbd003242	-0.03129793
105	0xbc1bdbe1	-0.009512872
106	0x3bb850a8	0.0056248493
107	0x3c814079	0.015777813
108	0xbd11524b	-0.03547887
109	0xbc55d22f	-0.0130506
110	0xbc6fd76d	-0.014638764
111	0xb814436b	-3.5348738e-05
112	0xbc22d7b0	-0.009939119
113	0xbd210e0b	-0.039320033
114	0xbb82efde	-0.0039958796
115	0xbc8b155f	-0.016977964
116	0x3cb57c6d	0.022154057
117	0xbb98326f	-0.004644684
118	0xbd5c676d	-0.053809572
119	0x3ccd4926	0.025059294
120	0x3c1caf0b	0.009563218
121	0xb7bda9f2	-2.2609693e-05
122	0xbd16d420	-0.036823392
123	0xbcaece2c	-0.021338545
124	0x3c08396a	0.00831447
125	0x3ca6d218	0.020363852
126	0xbc997d8b	-0.018736621
127	0x3be8e9b0	0.007107936
128	0xbd4a31d5	-0.04936393
129	0xbc299ce8	-0.010352351
130	0x3baf77b4	0.005354846
131	0x3cb3ab57	0.021932287
132	0x3c9bb436	0.01900683
133	0x3850569e	4.9671733e-05
134	0x3d4be7d3	0.04978163
135	0xbd168d4d	-0.03675585
136	0x3d5499e5	0.051904578
137	0x3c694cae	0.014239473
138	0xbba73f0b	-0.005103951
139	0xbba41b47	-0.0050081345
140	0xb8360778	-4.3399137e-05
141	0xb7be8359	-2.2710929e-05
142	0x384501ee	4.6970257e-05
143	0x3d46fd2a	0.04858128
144	0xbbdd3ba9	-0.006751497
145	0x3c8baf3c	0.017051332
146	0xbc645f3b	-0.01393872
147	0xbaf6dde0	-0.0018834434
148	0x38b72e75	8.734773e-05
149	0xbc3f017c	-0.011658069
150	0xbc316588	-0.01082743
151	0xbd851af7	-0.06499284
152	0x38dd8252	0.00010562375
153	0x3d05bea1	0.0326525
154	0x3c3b9744	0.011449639
155	0x37208c8a	9.569465e-06
156	0x3c935c00	0.017988205
157	0xbc86eac5	-0.016469369
158	0xbc4176bc	-0.011808094
159	0x3c818408	0.015810028
160	0xbd856892	-0.06514086
161	0x3c57400f	0.013137831
162	0xbca8446f	-0.020540444
163	0x3cf83b97	0.030301852
164	0xbca499dd	-0.020092899
165	0x3c1f3568	0.009717323
166	0x3d2982c1	0.041384462
167	0x3c0b474a	0.008500883
168	0x3d299c7f	0.041409012
169	0xbccb98f7	-0.024853213
170	0xbd4d80f5	-0.05017181
171	0xbc2af576	-0.010434499
172	0x3a00bc38	0.0004910859
173	0x3ceb351a	0.028711844
174	0xbcafca60	-0.021458805
175	0xb7eaedc8	-2.80057e-05
176	0x3c95945a	0.018259216
177	0x3ca6a5e1	0.02034277
178	0xbb49abc8	-0.0030772556
179	0x3c2b2cf4	0.010447729
180	0x3cdd15f1	0.026988002
181	0xbcdebad6	-0.0271887
182	0xbd6758b8	-0.056481093
183	0xbc20cf4e	-0.00981505
184	0x3d94115c	0.072298735
185	0xb8531945	-5.0329854e-05
186	0xbc984dd9	-0.018591808
187	0xbc39a2d2	-0.011330323
188	0x3cc3dc8b	0.023908874
189	0x3d90303b	0.07040449
190	0xbd5d37e7	-0.05400839
191	0x3d42d9f6	0.047571145
192	0x3e3ba015	0.18322785
193	0x3cf91d61	0.030409517
194	0x3e3fe5fa	0.18740073
195	0x3d87fded	0.066402294
196	0xbb92a1bd	-0.004474847
197	0xb8c5f7af	-9.439827e-05
198	0xbe0f35fa	-0.13985434
199	0x3da1613e	0.078798756
200	0xbdb77ede	-0.08959745
201	0xbe152757	-0.14565788
202	0xbe1be350	-0.15223432
203	0xbb17eb4a	-0.0023181015
204	0xb76fd5e7	-1.4295313e-05
205	0x36030830	1.9525287e-06
206	0xb7c9f6d7	-2.4076011e-05
207	0x3dcec901	0.10096932
208	0x3cc1d091	0.023659023
209	0x3ca497d5	0.02009193
210	0x3e201e2d	0.15636511
211	0x3dae37be	0.08506726
212	0x390f657f	0.00013675353
213	0xbdba8c12	-0.091087475
214	0xbd1b0aab	-0.03785197
215	0x3e03eb46	0.12882718
216	0xb8822b33	-6.2069295e-05
217	0xbdbf806e	-0.09350668
218	0x3db5f695	0.088849224
219	0xb837891e	-4.37583e-05
220	0xbd05a631	-0.032629196
221	0xbcf67140	-0.030083299
222	0x3daa44cb	0.083139025
223	0xbd35227e	-0.044222347
224	0x3df0a5af	0.11750352
225	0xbdb53295	-0.088475384
226	0x3bfbceb6	0.007684554
227	0x3d4595e8	0.048238665
228	0x3dc5a9fc	0.096515626
229	0x3d992296	0.074773
230	0xbd37dce8	-0.044888407
231	0xbca14d92	-0.019690309
232	0xbcc69f3f	-0.024245856
233	0xbabf38b2	-0.001458904
234	0x3df084d1	0.11744083
235	0x3e2236cc	0.15841216
236	0x3dbb15d4	0.09135023
237	0x3c8fd90a	0.017559547
238	0x3d2796c1	0.040915255
239	0xb78bdf9f	-1.6674223e-05
240	0xbc81292f	-0.015766708
241	0xbd0248fc	-0.031807885
242	0x3e432eb0	0.19060779
243	0x3bf6338a	0.007513468
244	0xbdd309a7	-0.103045754
245	0xbc89c10b	-0.016815683
246	0xbc7b5a63	-0.015341374
247	0x3d840c36	0.064476416
248	0xbc49c7dc	-0.012315717
249	0x3842f39d	4.6480087e-05
250	0xbcefba8b	-0.029263755
251	0x3b077500	0.0020669103
252	0xbe1d449e	-0.15358207
253	0xbccc3d09	-0.024931448
254	0x3dba1323	0.09085681
255	0xbd41b3d2	-0.04729063

gc1.bias f4 [64]
0	0x3df34a4c	0.118794054
1	0x3e06319a	0.13104859
2	0x3d8c0d15	0.06838433
3	0x3d950035	0.0727543
4	0x3db5ffb0	0.08886659
5	0xb9d9f6c7	-0.0004157333
6	0x3dbf9417	0.09354418
7	0x3dd7cecd	0.10537491
8	0x3e001e65	0.12511595
9	0x3da8bcec	0.08239159
10	0x3dde0f30	0.108427405
11	0x3e3eef02	0.18645862
12	0xbcb944eb	-0.02261587
13	0xbcb093ef	-0.021554915
14	0xbd25165f	-0.040304538
15	0x3dc4496a	0.09584315
16	0x3ea05e0f	0.3132176
17	0x3d3aadb6	0.04557582
18	0x3d89473d	0.06703041
19	0x3d491d2e	0.049100094
20	0x39c47614	0.00037472008
21	0x3dbd5192	0.09244074
22	0x3e01697a	0.12637892
23	0x3da8b338	0.08237308
24	0xbd424e7f	-0.04743814
25	0x3debaa07	0.115070395
26	0x3da86ce3	0.082238935
27	0xbd75b9f0	-0.059991777
28	0x3da3c855	0.07997195
29	0x3dfd36cb	0.123639666
30	0x3e0fe383	0.14051633
31	0x3da828c8	0.082109034
32	0x3daa7b92	0.083243504
33	0x3e238045	0.159669
34	0x3e111c2f	0.14170907
35	0x3d832dd2	0.06405224
36	0x3dbb5d17	0.09148615
37	0x3d6502da	0.055910923
38	0x3dac949e	0.08426784
39	0x3d8151e5	0.06314448
40	0x3da63e8f	0.08117401
41	0x3dbbd147	0.09170776
42	0x3dd89797	0.105757885
43	0x3d8ba415	0.068184055
44	0x3dbc73ab	0.092017494
45	0x3e0c89d2	0.1372445
46	0x3df46920	0.119341135
47	0xb77cacb8	-1.5060585e-05
48	0x3df162d7	0.1178643
49	0x3da0f7d3	0.07859769
50	0x3d90f87f	0.07078647
51	0x3e02248b	0.12709253
52	0x3db2b741	0.08726359
53	0x3d5f1acc	0.054468915
54	0x3e151910	0.14560342
55	0x3dea276e	0.11433302
56	0x3da35eea	0.07977088
57	0xbb94478b	-0.00452513
58	0x3e0d8415	0.13819917
59	0x3e152c2e	0.14567634
60	0x3dde93c9	0.108680315
61	0x3dac3b81	0.08409787
62	0x3dcb5ceb	0.09929832
63	0x3dade1de	0.08490346

gc2.weight f4 [64, 7]
0	0x3f8e97e4	1.1140103
1	0xbdf4235e	-0.11920808
2	0xbf7a85dd	-0.9786051
3	0x3f947898	1.1599302
4	0x3f9641d7	1.1738843
5	0xbf868cb3	-1.0511688
6	0xbeeb2eb9	-0.45934084
7	0xbf7c030a	-0.9844214
8	0xbe852de0	-0.26011562
9	0xbf3b1f0e	-0.7309426
10	0x3f84df86	1.0380714
11	0x3f50ba3b	0.81534165
12	0xbf6d00ff	-0.92579645
13	0xbe831a43	-0.25605974
14	0x3f971400	1.1802979
15	0xbd920bd8	-0.07131165
16	0xbf98cf59	-1.1938277
17	0x3f9a58f2	1.2058394
18	0xbfa73d72	-1.3065627
19	0xbf9dd65d	-1.2331043
20	0xbe954934	-0.29157412
21	0x3f94a424	1.1612592
22	0xbe548ab5	-0.20756038
23	0xbf8aa3e7	-1.0831269
24	0xbf7e41af	-0.99318975
25	0xbf21b255	-0.6316274
26	0x3f43567d	0.76303846
27	0xbf0e6622	-0.5562459
28	0x3f8994cd	1.0748535
29	0xbd1b1a54	-0.037866905
30	0x3f8d65ab	1.1046652
31	0xbf958d38	-1.1683722
32	0xbf92dff8	-1.14746
33	0x3f7fe3dc	0.9995706
34	0xbeefb2f9	-0.46816233
35	0xb9be0436	-0.0003624276
36	0x38197640	3.658817e-05
37	0xbac079aa	-0.0014684696
38	0xb9bbc420	-0.00035813544
39	0xb9840ba2	-0.0002518567
40	0x3a06545d	0.00051242654
41	0xba41cff6	-0.00073933543
42	0xbf768f6b	-0.9631259
43	0xbe934e1d	-0.28770533
44	0x3f90464e	1.1271455
45	0xbf30c2cd	-0.6904724
46	0xbf870fe9	-1.055173
47	0x3f656382	0.8960496
48	0xbedecd88	-0.43516183
49	0x3fa0762d	1.2536064
50	0xbe9226fe	-0.28545374
51	0x3f006361	0.5015164
52	0xbf04d59f	-0.5188846
53	0x3f729d79	0.94771534
54	0xbe42fe74	-0.19042379
55	0xbdc6f921	-0.09715486
56	0xbf909d70	-1.1298046
57	0xbe9258d5	-0.28583398
58	0x3f245127	0.6418633
59	0x3f500911	0.81263834
60	0x3e1594c6	0.14607534
61	0x3f8659b8	1.049613
62	0xbf0022f4	-0.50053334
63	0xbf7b77f5	-0.98229915
64	0xbdd14e81	-0.102200516
65	0x3f8d4de3	1.1039394
66	0xbf8a2c42	-1.0794756
67	0xbf7ceaba	-0.98795664
68	0x3f8cacb6	1.0990207
69	0xbe746579	-0.23866834
70	0xbf7bdcc2	-0.98383725
71	0xbed10270	-0.40822172
72	0x3f94f34b	1.1636747
73	0xbf85855b	-1.0431322
74	0x3f86ad43	1.0521625
75	0x3f1879c1	0.5956078
76	0xbee92dc5	-0.45542732
77	0x3f1c5d28	0.61079645
78	0xbeb97161	-0.36219314
79	0x3f6a7537	0.91585106
80	0xbedafcb8	-0.42770934
81	0xbf0d4785	-0.55187255
82	0x3e9f012b	0.3105558
83	0xbf282303	-0.65678424
84	0x38fb49b0	0.00011982338
85	0xb7c97408	-2.4015098e-05
86	0x3974dc39	0.00023351693
87	0x37b4de10	2.1561078e-05
88	0x38b53c45	8.641979e-05
89	0x37676d31	1.3794096e-05
90	0xb8589bf3	-5.1643652e-05
91	0x36809078	3.8315156e-06
92	0xb9b63c19	-0.0003475852
93	0x3909f7c6	0.00013157641
94	0xb8c19cdc	-9.2321745e-05
95	0x39b581a9	0.00034619615
96	0x39bf160c	0.00036446785
97	0xb9598173	-0.00020742956
98	0x3801d0fb	3.0950625e-05
99	0xb82d14df	-4.1265852e-05
100	0xb934e3e3	-0.00017251032
101	0xb89e5a49	-7.550844e-05
102	0x378b145d	1.6579574e-05
103	0x38b705f7	8.727231e-05
104	0x34c36900	3.6397978e-07
105	0x3f7aa6d7	0.9791083
106	0xbe7b9c77	-0.24571405
107	0xbf85a907	-1.0442208
108	0x3f961394	1.1724725
109	0xbf826203	-1.0186161
110	0x3f96e390	1.1788197
111	0xbeea599d	-0.45771495
112	0x3ed17ea6	0.40916938
113	0xbdc19669	-0.094525166
114	0x3eb68dd9	0.35655096
115	0x3f0a8870	0.5411444
116	0x3f1af0e9	0.6052385
117	0x3e058376	0.1303843
118	0xbf19a58c	-0.6001823
119	0xbf8042fe	-1.0020444
120	0xbda94ee5	-0.08267001
121	0xbf77afe4	-0.9675276
122	0x3f91cb88	1.1390238
123	0xbf6c8043	-0.9238321
124	0xbf454f15	-0.77073795
125	0xbd3e1199	-0.0464035
126	0x3fa57c93	1.2928642
127	0xbde535f8	-0.11191934
128	0xbf683a33	-0.90713805
129	0xbe64a277	-0.223276
130	0xbf8897c3	-1.0671314
131	0xbf961c0b	-1.1727308
132	0xbe86a9af	-0.26301333
133	0x3f94a424	1.1612592
134	0xbed339fd	-0.4125518
135	0xbf0cc545	-0.5498851
136	0xbf2be8ab	-0.671519
137	0xbf1e425c	-0.61820006
138	0xbe0983e9	-0.13429226
139	0xbe04cd2d	-0.12968893
140	0x3a59c783	0.00083076226
141	0xba921daf	-0.0011147762
142	0xbaad7494	-0.0013233596
143	0xb9d58b7e	-0.00040730456
144	0x3a3810f2	0.0007021568
145	0x3b11cffe	0.0022249217
146	0xbbc5150e	-0.006014473
147	0xbf8fe06c	-1.1240363
148	0x3c9857b3	0.018596506
149	0x3f917a2b	1.1365408
150	0xbf950667	-1.1642579
151	0x3f9ddaff	1.2332457
152	0xbf899858	-1.0749617
153	0xbe9019fb	-0.28144822
154	0xbf8cc02d	-1.0996147
155	0xbf04dae1	-0.5189648
156	0x3f82c3b0	1.0215969
157	0x3f934760	1.1506157
158	0x3f741d36	0.9535707
159	0xbf87c958	-1.060832
160	0xbe186b40	-0.14884663
161	0x3f97b1ee	1.1851175
162	0x3de30d0e	0.11086474
163	0xbf74f428	-0.9568505
164	0xbf7e7cb0	-0.9940901
165	0x3f96bfcd	1.1777283
166	0xbf766fa1	-0.9626408
167	0xbecd4de1	-0.4009848
168	0xb89d022c	-7.486748e-05
169	0x3a8433dc	0.0010086256
170	0x38dccd79	0.0001052869
171	0x38070040	3.218674e-05
172	0xb9006917	-0.0001224618
173	0x3aa7a942	0.0012791532
174	0x3c206166	0.009788847
175	0xbf8dabd6	-1.1068065
176	0xbe6b7e09	-0.22997297
177	0xbf9160bf	-1.135765
178	0xbf93c5b0	-1.1544704
179	0x3f935fe2	1.1513636
180	0x3f7f1704	0.99644494
181	0xbe7c9a7d	-0.24668308
182	0x3f85b221	1.0444986
183	0xbea85b1e	-0.32882017
184	0xbf2f34d0	-0.6843996
185	0x3f552fee	0.8327626
186	0xbf0c0888	-0.5470052
187	0x3f0aee69	0.54270035
188	0xbed5411e	-0.41651243
189	0x3937e944	0.00017539138
190	0xb9815df3	-0.00024674795
191	0x3a1a9972	0.0005897499
192	0xb7f86531	-2.9611025e-05
193	0x3842c260	4.643423e-05
194	0x38d1cea2	0.00010004385
195	0xb7967b66	-1.7938855e-05
196	0xbf58d5d8	-0.847013
197	0xbd3f42dd	-0.046694625
198	0x3f9f8c2e	1.2464654
199	0x3fa24f24	1.2680402
200	0xbf456db9	-0.7712055
201	0xbea38bf9	-0.31942728
202	0x3db43fe7	0.08801251
203	0xbf715e77	-0.94284767
204	0xbe7dfc82	-0.24803355
205	0x3f947db5	1.1600863
206	0x3f7c7f9b	0.9863221
207	0x3f95625c	1.1670642
208	0xbf726d6f	-0.9469823
209	0xbedab283	-0.4271432
210	0x3f8078bb	1.0036844
211	0xbe97545e	-0.29556555
212	0xbf88e02c	-1.0693412
213	0x3dc4aef7	0.096036844
214	0x3f6d2f5c	0.9265039
215	0x3f143d0d	0.57905656
216	0xbf03b148	-0.51442385
217	0xbf048bda	-0.51775897
218	0xbe9d7585	-0.30753723
219	0x3f523a3c	0.8212011
220	0x3f332c38	0.6998935
221	0xbf2dd63e	-0.6790503
222	0x3cecc26a	0.028901298
223	0xbee85754	-0.45379126
224	0x3f9d87bd	1.2307049
225	0xbcdda2c6	-0.027055155
226	0xbf569e5d	-0.83835393
227	0xbf5274ca	-0.82209456
228	0x3f9a5bfc	1.2059321
229	0xbf64769f	-0.892435
230	0xbe267c67	-0.16258393
231	0xbf296309	-0.6616674
232	0xbe11e123	-0.14246039
233	0xbf191ab0	-0.59806347
234	0xbece5d30	-0.4030547
235	0x3f4ea7d3	0.8072483
236	0x3f5c7474	0.86115193
237	0xbec5d8d3	-0.38641986
238	0x3f812900	1.0090637
239	0xbee82c98	-0.45346522
240	0x3f9098a1	1.1296579
241	0xbf878714	-1.0588098
242	0x3ef0ccd4	0.4703127
243	0x3ead16d0	0.33806467
244	0xbf3a5750	-0.7278948
245	0x3f97f6f1	1.1872236
246	0x3ce4fdd9	0.027953075
247	0xbf8b2f66	-1.087384
248	0xbf8e38bc	-1.1111064
249	0xbf888a4d	-1.0667206
250	0x3f91d5a4	1.1393323
251	0xbe923bc8	-0.28561234
252	0x3f758650	0.9590807
253	0xbea8d183	-0.32972345
254	0x3f807954	1.0037026
255	0x3f34a157	0.70558685

gc2.bias f4 [7]
0	0x3e84c84f	0.25934073
1	0xbf14ed62	-0.5817472
2	0x3e60f81d	0.21969648
3	0xbdd93122	-0.106050745
4	0x3d7d9b19	0.06191549
5	0x3dc24438	0.09485668
6	0xbe126d8c	-0.14299601
