save_model/baseline/st-GCN-ACom-20-0.650000.pth (torch, 200895 bytes, 4 tensors)

gc1.weight f4 [767, 64]
000000 f6 ef ef bd 8d 09 73 3d fe 0f 13 bd ca e9 a0 ba
       -0.11715691 0.05933528 -0.035903923 -0.0012276706
000010 a3 10 b6 3c e4 bc 8a 3d f2 63 aa 3d bb 7e 80 ba
       0.02222473 0.06774309 0.08319844 -0.0009803394
000020 b6 3c b5 bb 26 c4 18 3d cc bb 1a 3d 3e 5b 90 3d
       -0.005530919 0.037296437 0.037776753 0.07048653
000030 15 07 85 bd d8 06 0a bd d8 0d c7 bd d8 1c b3 bd
       -0.064954914 -0.033697933 -0.09719437 -0.08745736
000040 04 48 e4 3d c3 42 ac 3c 0d 64 dd bd 61 70 03 3d
       0.111465484 0.021027928 -0.10810099 0.032089595
000050 2c d9 05 be 90 df 45 bd 0f 81 81 3d eb 94 02 be
       -0.13071126 -0.04830891 0.06323444 -0.1275212
000060 d9 3f 2a bd 25 3d c8 3c a0 81 78 3d 64 16 1e bc
       -0.041564796 0.024443218 0.060670495 -0.009648893
000070 c9 fc db bc 78 65 0c be 97 12 21 3d 46 16 5b 3d
       -0.026853936 -0.13710582 0.03932437 0.05348804
000080 86 11 cc 3d a5 db 87 3c 8f d1 6c 3d 0c 85 0d be
       0.0996428 0.016584227 0.05781704 -0.13820285
000090 07 8e 02 be 95 d6 3e bc fb ab c4 bd a3 a6 63 3d
       -0.12749492 -0.01164784 -0.09603115 0.05557884
0000a0 c8 43 97 bd 8c 41 dd 3d 3f 64 57 bd df 18 96 bd
       -0.07385975 0.10803518 -0.052585836 -0.073289625
0000b0 f7 fd 14 bd 88 f3 e8 3c bd 7d 27 be 27 f2 3e bc
       -0.036375012 0.028436437 -0.16356559 -0.011654413
0000c0 8d 04 43 bd e4 38 a6 3c 11 e5 42 bd f2 7b 1d be
       -0.04761176 0.0202908 -0.047581736 -0.15379313
0000d0 fb 1c 10 be 7e a6 e6 bd bf 82 17 bd 1d e2 08 bc
       -0.14073555 -0.112622246 -0.036989924 -0.008354691
0000e0 9b b0 23 3d ba 35 45 3d 25 81 9f 3d ef 75 9e bd
       0.039963346 0.04814694 0.07788304 -0.07737338
0000f0 9e 44 89 3d f5 ae 1c be 0a 4e 33 3d 21 b4 7f 3c
       0.06702541 -0.15301116 0.043775596 0.015606911
000100 96 c5 00 be c8 43 4f bd e1 81 c5 bd 30 fb c7 3c
       -0.12575373 -0.05060175 -0.09643913 0.024411768
000110 08 c5 ae bd 30 fc c0 bc a3 74 4e bd 7f 22 35 bd
       -0.085336745 -0.023557752 -0.050404202 -0.04422235
000120 ec 4f bd 3b b4 d4 bb bc a9 83 4c bc 2f 73 d2 bc
       0.0057773497 -0.022928573 -0.012482562 -0.02568969
000130 88 f4 28 be 82 d2 d2 3b 36 2e 63 3a 4c 44 f1 3d
       -0.16499531 0.006433786 0.0008666249 0.11780605
000140 1f 01 01 be be 76 21 bc 86 50 1f be 88 70 ed 3c
       -0.12598084 -0.0098549705 -0.15558061 0.028984323
000150 35 66 a0 3d ac e0 f4 bc cd 08 b7 3d 77 63 de bd
       0.078319944 -0.029892288 0.089372255 -0.10858815
000160 3d c7 92 bd d6 61 a8 bd 12 e7 e6 ba 93 88 17 3c
       -0.07166908 -0.08221786 -0.0017616472 0.00924887
000170 bd 2f 0c 3d 47 9d 81 bd 0a 2d bc bd d3 58 2d 3d
       0.034225214 -0.063288264 -0.09188278 0.042321038
000180 db 2a 9d 3d e2 17 08 be 34 f0 7d bd c6 d0 87 3d
       0.0767419 -0.1329036 -0.061996654 0.06631617
000190 56 49 c1 3a 8d 42 8a bc 24 7b b3 3b f0 a1 e6 bd
       0.0014746587 -0.016877437 0.005477326 -0.11261356
0001a0 8f 08 c6 bd ef 4f 35 bd ae 97 1a 3d 98 83 50 bd
       -0.09669601 -0.044265684 0.03774231 -0.050906748
0001b0 40 80 cb bd ca aa 13 be 49 0d 88 bc d0 55 b8 ba
       -0.09936571 -0.1442062 -0.016607897 -0.001406366
0001c0 78 29 c8 3a 3e 61 b2 bd 3b 13 10 be 71 c0 06 3d
       0.0015271148 -0.08709954 -0.14069836 0.03289837
0001d0 b3 4f 7f 3d 37 04 d9 bd 9a 4d fa 3c 5e 06 6e bd
       0.062331866 -0.10596507 0.030554581 -0.05811154
0001e0 41 45 56 3c 16 77 00 3c 21 6a a5 bd 8b 6b a9 bc
       0.013078035 0.007840892 -0.08076883 -0.020681163
0001f0 20 49 c9 3d 43 b9 f4 3c 1c 9a ca bc 97 66 b4 3d
       0.098284006 0.029873496 -0.024731688 0.0880863
000200 46 0a 4b 3d fa 64 86 3d 51 cb 18 bc fe 27 cd ba
       0.049570344 0.065622285 -0.009325818 -0.0015652177
000210 a6 fb 3c bb b3 a6 90 bc a0 e1 72 3d 3f ba a6 bc
       -0.0028836518 -0.017657613 0.059297204 -0.020352481
000220 25 63 65 3d bc eb 32 3d 75 f2 6e 3c ae d2 e2 3d
       0.056002755 0.043681845 0.014584173 0.1107534
000230 b9 fe dd bd 37 2a 8b 3c 56 9f eb 3c 1a 96 2f bd
       -0.108396 0.016987903 0.0287625 -0.042867757
000240 48 2c b5 3d 7a 33 4f bd 9f f6 c2 3b 56 22 2d bd
       0.088463366 -0.0505862 0.0059498097 -0.042269073
000250 d4 21 79 bd 4a 71 9f bc 34 da 89 bd 86 78 3d bd
       -0.060823277 -0.0194632 -0.06731072 -0.04625752
000260 a8 d6 0c bd a5 1c 35 3d 06 86 04 be 7c ba a1 bc
       -0.0343844 0.04421677 -0.12941751 -0.019742243
000270 08 de 1b 3c 06 8e 4c 3d 0c 05 3c bd e8 3a ef 3b
       0.009513386 0.04994013 -0.04590325 0.0073007233
000280 24 90 8a bd 4b 01 24 be f8 2a 0f be 3d da dc bd
       -0.06765774 -0.16016118 -0.13981235 -0.10783813
000290 b3 f1 25 be 6d 47 6c 3c df 60 84 3d 20 58 d1 bc
       -0.16205482 0.014421326 0.06463789 -0.025554717
0002a0 00 26 ba bc d8 0e 63 3d db ae e0 bd 14 25 a4 bd
       -0.022723198 0.055434078 -0.10970851 -0.080148846
0002b0 a2 d9 74 bd 20 12 65 3d 17 2c ab bc 03 db 4c 3c
       -0.059777863 0.05592549 -0.020895047 0.012503388
0002c0 0c a3 41 bd 86 ee 74 3d 07 8f f8 bc b8 e1 d9 bd
       -0.047274634 0.059797786 -0.030341638 -0.106387556
0002d0 ee 23 7f bd 1b b8 2a be 38 3b 0d 3b 77 95 c7 3c
       -0.062290125 -0.16671793 0.002155019 0.024363263
0002e0 c3 49 8d 3d 92 aa 8a bb 33 4e 81 3c ed 28 25 be
       0.068988346 -0.0042317593 0.015784359 -0.16128893
0002f0 a3 a8 a1 3d be cb 67 bd 40 b8 21 be 11 ff 92 3d
       0.07893493 -0.056590788 -0.15792942 0.07177556
000300 b8 3b b4 bd 68 ce 2e 3b e6 ff 5d bc 85 42 37 bb
       -0.08800453 0.002667332 -0.0135497805 -0.0027963233
000310 73 3c b0 3d e9 c5 b7 bd 68 29 99 bc ff 70 05 bc
       0.0860528 -0.08973295 -0.018696502 -0.008144616
000320 e0 ff 0a 3d c1 b6 bb bd d5 54 ee bd cc e2 cd 3d
       0.033935428 -0.09165717 -0.11637274 0.10053024
000330 14 bb f5 bc dd 2f ad bd bb 45 ff bc 1c 03 d9 bc
       -0.029996432 -0.08456395 -0.03116118 -0.02649074
000340 93 6f 1c bd 1d 4d 8d 3d 8a 4f 2e be 52 8f 52 bd
       -0.038192343 0.06899474 -0.17022529 -0.051406212
000350 2f cd ca bd 99 9f b9 bd bc ef 6c bd 99 49 1f be
       -0.09902417 -0.09063644 -0.057845816 -0.15555419
000360 46 2b 88 bd fc 0f d5 3d 4b c3 0c 3d 55 42 ea bb
       -0.06648879 0.104034394 0.034365933 -0.0071490207
000370 a5 e6 c0 bd 42 99 c9 bc b4 0e 7a 3d 15 7b 7e bd
       -0.09418992 -0.024609212 0.06104918 -0.0621291
000380 26 65 f1 bc fe 16 db bd 9c 8a a4 bc d5 6e f0 bd
       -0.029467177 -0.10697745 -0.020085625 -0.117398895
000390 92 21 1b be ff 9f 59 3c 12 57 ad bd 00 6a c4 bd
       -0.15149525 0.013282775 -0.08463873 -0.095905304
0003a0 94 83 a8 3c 72 79 99 bc d8 10 c7 bd 0a 91 50 3c
       0.020570554 -0.018734667 -0.097200096 0.0127298925
0003b0 47 76 18 3d 0f 2a 2f be e6 ac b5 bd da c2 e6 3b
       0.037222173 -0.17105888 -0.088708684 0.007042271
0003c0 67 a1 e4 bb 17 8c 28 bd 96 4f e8 bd 81 ca 61 3d
       -0.0069772485 -0.041149225 -0.11343305 0.055124763
0003d0 0f d9 26 be e5 bf ba bc 81 1d 8b bc 90 87 bc 38
       -0.16293739 -0.02279658 -0.016981842 8.989789e-05
0003e0 74 05 61 bc ea 53 c0 bd cf ec 35 3d cf 31 d7 bd
       -0.01373421 -0.09391005 0.04441529 -0.10507547
0003f0 c8 b4 f9 bd e9 3e 32 be 6d 86 fa 3c f6 65 d8 3d
       -0.121926844 -0.17406811 0.030581677 0.105663225

gc1.bias f4 [64]
000000 59 7d ef 3b 58 ad e8 3d 82 94 d2 bd b8 cf f4 bd
       0.007308644 0.11361188 -0.10282232 -0.11953682
000010 c2 48 6e 3d e0 de 64 bd 2b 0e 53 3d eb e2 aa bc
       0.058174856 -0.055876613 0.051527184 -0.020860156
000020 45 1f 84 3c 1f 92 92 bd ad 6e 15 be a8 ff c1 3d
       0.016128192 -0.07156777 -0.14593 0.09472591
000030 4a fb fb 3c b5 df ef bd 75 15 f4 3d d5 0a ba bd
       0.030759472 -0.117125906 0.11918155 -0.09084097
000040 1c 70 90 bd 70 e4 89 bc a7 b9 7a 3d f6 2c 97 bc
       -0.07052633 -0.01683256 0.061212208 -0.018454056
000050 0c 06 97 3d 56 38 e0 bc e8 0e a8 3d d1 f4 16 bd
       0.073742 -0.027370613 0.08205968 -0.03685457
000060 8e 8a ec 3c 19 eb 06 3e b8 9a 92 bd ed 2c 88 bd
       0.028874662 0.1317562 -0.071584165 -0.06649194
000070 21 44 86 3d 26 9b 92 bc fe b4 19 3b 48 df 8c bd
       0.06555963 -0.017896246 0.0023453827 -0.06878525
000080 97 5d 90 3d 92 d6 78 3d 74 92 c6 3c de fb 9b bb
       0.07049101 0.060751505 0.024239756 -0.0047602495
000090 64 82 1a be 41 65 d5 bd a1 de 8c bd 47 76 18 be
       -0.15088803 -0.10419703 -0.068784006 -0.14888869
0000a0 7e d7 f5 bd c2 7a fe bb 80 3d ce 3d 20 65 fd 3c
       -0.120039925 -0.0077660987 0.10070324 0.03093201
0000b0 46 9a a4 3d 65 6d ee 3c a1 b3 e9 bd f4 c3 79 bd
       0.08037238 0.029104898 -0.114112146 -0.06097789
0000c0 a1 87 af bd 97 5b 18 bc 53 cd 57 3c d7 cb 6f 3d
       -0.08570791 -0.0092991805 0.013171512 0.058544006
0000d0 f0 b4 aa bc fe 19 6a bc 3f db d1 bd 01 2d 5b bd
       -0.02083823 -0.014288424 -0.10246896 -0.053509716
0000e0 ff fd 43 bd 5a b4 6d bc 54 49 29 3d a5 b1 d3 3c
       -0.04784965 -0.014508331 0.041329697 0.025841543
0000f0 61 26 b4 bd e5 f3 04 bc c8 ff a6 bd 46 6f 0a be
       -0.08796383 -0.00811479 -0.08154255 -0.1351901

gc2.weight f4 [64, 10]
000000 d1 a3 1d 3e 20 c3 d1 3d 3a 7e 5c 3d 24 bd 57 3e
       0.15394522 0.10242295 0.053831317 0.21068245
000010 30 44 58 3e 94 5f 3f bd 27 a4 5f be 42 84 4a 3e
       0.21119761 -0.04672201 -0.21839963 0.19777015
000020 32 aa a6 bd 2f 08 20 be 5f af b2 3d 2d 42 95 3e
       -0.08137931 -0.15628122 0.08724856 0.2915205
000030 16 43 4d 3e 1b 38 11 bc 81 50 94 3d 9b c6 f8 bd
       0.20045123 -0.008863474 0.072419174 -0.12147256
000040 8b 00 82 bd 19 64 6f 3e 82 4b 4b 3e 4a 60 db 3d
       -0.0634776 0.23378028 0.19853023 0.10711725
000050 ae fe 52 3e b2 97 16 3e e5 fb 82 bd 9c 61 40 3e
       0.20604965 0.14706305 -0.06395701 0.18787235
000060 7e c6 0c 3e f2 10 98 bd 68 c3 9d be 85 b1 2c be
       0.13747594 -0.07425107 -0.30813146 -0.16864593
000070 ba 44 0d be e6 91 d0 bc e4 ec a4 be ac 93 73 be
       -0.13795748 -0.025460195 -0.32211983 -0.23786801
000080 5b e6 a3 be c9 4f a0 be 8f 11 2c be fd e6 74 be
       -0.32011685 -0.3131087 -0.16803573 -0.2391624
000090 fd c6 b3 be ac a4 99 3d 01 dd 85 be 15 8a ef 3d
       -0.35112754 0.07502112 -0.26145175 0.11696259
0000a0 d0 37 43 bd 8f 02 90 3e d1 10 1c 3e 1e 13 2e 3e
       -0.04766065 0.28126952 0.1524079 0.1699948
0000b0 b9 1c 7a 3e 41 68 13 be 51 67 11 3e 80 1c 85 3e
       0.2442502 -0.14395238 0.14199568 0.25998306
0000c0 b2 77 36 be cb 08 8b 3d 1b 8b 99 be 55 67 55 3e
       -0.17819098 0.067887865 -0.29988942 0.208402
0000d0 22 57 00 3d 38 07 37 3e 65 5f 82 be 0e 8c 61 3e
       0.031333096 0.17873847 -0.25463405 0.22026083
0000e0 1c 90 10 be b0 10 b9 3d a7 6d 12 3e 85 7a b6 bd
       -0.14117473 0.09036386 0.14299642 -0.089100875
0000f0 f8 9a 41 3d c0 2f 5c be 7e 26 0d 3e 5a 45 05 bd
       0.04726693 -0.2150259 0.13784215 -0.032536842
000100 69 50 ea 3d 15 0d 1a be d9 d1 60 bd 12 77 40 be
       0.11441118 -0.15044053 -0.054887626 -0.18795422
000110 3d 58 28 3e a2 40 2e be 66 7f 62 3d 3d 8f cf bb
       0.1643991 -0.17016843 0.055297278 -0.006334214
000120 2d a6 e9 bd 3c 90 86 3d 6f 47 1e be fc 12 4a 3d
       -0.11408649 0.06570479 -0.15456937 0.04933451
000130 d6 c7 9c bc f2 f0 c3 bd fd c4 41 3d 79 0a 7c bd
       -0.019138258 -0.09567441 0.047307003 -0.061533425
000140 18 31 b0 bd f8 5d 56 bd ab 6b 3a 3e c0 56 57 bc
       -0.08603114 -0.05233571 0.18205135 -0.013143241
000150 4d 8e 43 3d e7 a3 8c 3d de a9 87 bd 32 80 c8 3d
       0.04774313 0.068671994 -0.066241965 0.09790076
000160 34 7c 83 bc ce 3c e3 bd c4 0c c4 3d fe ad 17 3c
       -0.016050436 -0.11095582 0.09572747 0.009257792
000170 2a c7 d4 bd ff 4c 9b 3d e9 f0 4f be 90 6c 45 3d
       -0.1038955 0.07583045 -0.20306744 0.048199236
000180 b6 91 0a bd 43 0d e1 3d c2 0c 24 be a5 0f 84 3d
       -0.033830367 0.109888576 -0.16020492 0.064482965
000190 38 30 e2 bb 9c 25 a6 3e 92 27 4f be b1 2d c2 bc
       -0.006902721 0.3245057 -0.20229939 -0.023703428
0001a0 2c 0b 1c be 07 57 82 be 2e 24 c8 3b b1 03 9e 3e
       -0.15238637 -0.25457022 0.0061078286 0.3086219
0001b0 01 7b 7b 3d c7 c6 8b 3e de db 0f be f0 31 93 be
       0.061396603 0.27300093 -0.14048716 -0.28749037
0001c0 fb 29 4b be 41 f1 11 3e 75 e4 d5 bd 04 fc ac bd
       -0.19840233 0.14252187 -0.10443965 -0.08446506
0001d0 ca e7 af be ac 31 17 3e c2 a0 3c 3e bf d3 af 3d
       -0.3435653 0.14765042 0.18420699 0.08585309
0001e0 ce 7e ee 3d 7c 7e 3a be 97 7f 1c be c8 06 36 3e
       0.1164528 -0.18212312 -0.15283047 0.17776024
0001f0 d0 2d 7c be 64 29 93 be d8 dc 71 bc be 2c 84 3e
       -0.24626851 -0.28742516 -0.014762126 0.25815386
000200 eb a3 1e 3e c8 4d 5f be 52 6e 71 3e bc 31 75 bc
       0.15492217 -0.21807015 0.2357724 -0.014965471
000210 cf 2b 40 be eb c7 3e be eb bc d0 bd 56 38 92 be
       -0.18766712 -0.1863095 -0.10192283 -0.28558606
000220 68 43 8c be ce 70 94 3b 95 bf e4 3c 80 25 e4 bd
       -0.27395177 0.004530049 0.027923385 -0.11139965
000230 58 86 b8 be 2e fc c8 bc 8c d4 48 bb 68 42 61 be
       -0.36039996 -0.024534311 -0.0030644266 -0.21997988
000240 72 de 93 3d 6a e9 82 be ee e6 1b be 4b 67 c3 3d
       0.072201625 -0.25568706 -0.15224811 0.09541186
000250 ef 50 ba bd 74 07 f5 bd ad a0 9b bd c6 63 43 be
       -0.09097468 -0.11964312 -0.07599006 -0.1908103
000260 c7 68 5e be a9 28 8b be 81 c5 92 3e 3d a8 49 be
       -0.21719657 -0.2717946 0.2866631 -0.19693084
000270 bd af e0 3c e7 27 a2 3c a9 37 83 3e ad 14 0a 3e
       0.027427549 0.019794418 0.25628403 0.1348445
000280 29 be 3b 3e 83 b2 83 bd 34 cd 4e 3e 02 28 12 be
       0.18334259 -0.06430533 0.20195466 -0.14273074
000290 d5 e5 63 3e 72 47 d3 3d 23 41 cf bc cc b9 36 3e
       0.22255643 0.103163615 -0.025299614 0.17844313
0002a0 fa 80 67 3e 0c d7 4a 3c d5 c1 20 3e 1d 69 19 be
       0.22607794 0.012380373 0.15698941 -0.14981504
0002b0 ac 33 a5 be ad 9c 49 3e e2 f7 3d be 8d dc 08 be
       -0.32265985 0.19688673 -0.18551591 -0.13365383
0002c0 99 8c ca 3c 97 6c 66 3d e0 1f ca bd ee 1b db 3d
       0.024725245 0.056255903 -0.09869361 0.106986865
0002d0 66 dd 67 be 70 bc 49 3e a2 8f 08 3e 0c 11 95 3c
       -0.2264305 0.1970079 0.13336042 0.018196605
0002e0 d4 96 5d bd 5c 15 2a be 2f 32 67 be db f3 1e 3e
       -0.05409892 -0.1660971 -0.22577737 0.15522711
0002f0 53 9d 20 3d a0 ba fa 3d 07 f3 70 be 92 34 6a be
       0.039212536 0.12242627 -0.23530208 -0.22871616
000300 d9 fd 0f bd 7b 18 d5 3d 58 68 6f be c4 98 e3 bd
       -0.035154197 0.1040506 -0.23379648 -0.11113122
000310 9c d2 82 be 7a 84 1e be 5d 2b cc bd cc 5e 1e 3e
       -0.25551307 -0.15480223 -0.099692084 0.1546585
000320 04 a3 8b bd 93 f4 a6 bc 6b cd 52 be ab d0 8d bd
       -0.06818202 -0.020380294 -0.20586173 -0.06924566
000330 b2 90 fe 3d a8 9f d6 bd 09 16 0d be 6d 24 1d 3d
       0.12429942 -0.10479671 -0.13777937 0.038364816
000340 70 0d fc 3c ef f1 f0 bc bb d6 47 3e 66 35 79 3d
       0.030768126 -0.029412238 0.19515507 0.06084194
000350 79 d9 aa 3d 81 4f 24 3d 39 f7 a3 3e ca 3b 40 bd
       0.08342261 0.040114883 0.32024553 -0.04693202
000360 23 66 07 3d 7a 78 09 3e 5a 84 0f bd 4d 8f b6 bd
       0.03305639 0.13424864 -0.03503833 -0.08914051
000370 a6 98 88 be 16 80 1c 3e 2f a0 09 3e e8 a3 a7 bd
       -0.26678962 0.15283236 0.13440011 -0.081855595
000380 e4 ee 91 3e 60 37 81 be be 31 93 bd 1e c3 4f 3e
       0.28502572 -0.2523756 -0.07187222 0.20289275
000390 ff 4d 83 3e a2 8f 3c 3e 4b 4e 85 be 75 a8 ac 3e
       0.25645444 0.18414167 -0.26036295 0.33722273
0003a0 70 c1 0b be c7 f0 5d 3e 94 25 38 be 44 b8 28 bd
       -0.1364801 0.2167388 -0.17983085 -0.041191354
0003b0 5e 61 94 3d 0d 6c e1 3d 89 f8 76 3e cb c9 1a bd
       0.07245134 0.11006937 0.24118246 -0.0377901
0003c0 2f f8 19 3e ef 06 46 bc b2 0c 43 3e 1b b4 40 be
       0.15036081 -0.012086614 0.19047812 -0.18818705
0003d0 1b 38 02 be 3f cc 71 3d 3d 4d 54 3e af 65 07 bd
       -0.12716715 0.059032675 0.20732589 -0.033055957
0003e0 c3 b6 d3 bd 8c 0f 90 3d b4 f6 0c be af 21 9e 3e
       -0.103375934 0.07034215 -0.13765985 0.30885074
0003f0 7b b2 9c 3e b9 c1 0e be 74 67 a4 3e 57 56 02 3e
       0.3060492 -0.13941087 0.32110178 0.12728249

gc2.bias f4 [10]
000000 4d c3 1f 3d ce cb 20 be 8f e1 87 3d ed 12 ab bd
       0.039004613 -0.15702745 0.06634819 -0.08353219
000010 18 e1 89 3e f2 72 d6 bb 30 ff 0a bd f6 3f 73 be
       0.26929545 -0.0065444643 -0.033934772 -0.23754868
000020 7d 49 79 bd ba 5a e4 bc
       -0.0608611 -0.027875293
