save_model/baseline/st-GCN-Pubmed-5-0.650000.pth (torch, 130751 bytes, 4 tensors)

gc1.weight f4 [500, 64]
00000000: 6011 d6bd c7bd 1bbd d6e9 c2bc ec3a 6b3d
00000010: 99e8 ccbd 2305 debd 3687 d1bd 168c 2d3d
00000020: d4f9 aebd c7da 2abd c6cf 8a3d 10f5 34bd
00000030: fae3 673c c82d fc3d 5629 b63d 19d3 863d
00000040: 99f3 a43d 169d 59bd fd4b babd 382a a7bd
00000050: c470 96bd fd65 0cbc dd2f 56bd 4cc1 3cbd
00000060: d9be 913d c57b 64bd 6432 8c3d 296e debd
00000070: 3a4c 4abd e806 9abc cd6a 493d 4c72 3b3d
00000080: 5457 d33d 487e 92bd a082 193d fab8 31bd
00000090: 367b 3d3d 9b13 68bd 6bfa c23d 6d24 693d
000000a0: 7e43 cf3c 260e 0d3d f888 b93d b0ee 893c
000000b0: 902a d13d 76fe aabb 5cfb ce3d 172d da3d
000000c0: 28bb e3bc 9010 e2bd 3492 4bbd 23e7 9c3d
000000d0: 2730 93bd e019 f8ba 5ff9 c3bc 28d4 ad3c
000000e0: 8a89 ec3c a60d c0bd 2be6 af3d 5802 1fbd
000000f0: ac97 fdbc 08fe 9bbd 6b72 5dbd be98 c0bd
00000100: 2577 02be 064e b43d eee0 b9bc 6aa2 12bd
00000110: 8f33 c2bd 3fea 37bd a3c7 98bd 7c7e 03bb
00000120: 96ed 86bd 00a7 3cbd 2c4d c2bd f0c3 7d3a
00000130: 322b ce3d 92d4 5dbd 323d 693d 3c5b 0a3d
00000140: 9a92 00be b8c1 da3d 15e3 61bc 9711 b13d
00000150: ec56 2cbd de80 f3bd c970 043e 9e1d b13c
00000160: b30e 83bc 8a45 a33d 1bb4 e33c dec3 f7bc
00000170: 9ddb cd3d 38eb 4a3d 10a3 b93d de7c 2ebd
00000180: 64d6 a2bd 4408 64bb 9b1e 823d be8c 3fbd
00000190: 8c62 86bd 60fe c03d e250 ddbc f381 d83d
000001a0: 5eae 81bd 2b2d 0c3d 6286 c2bd 58a9 133d
000001b0: ca63 b13d abe1 8dbd 3bb9 d5bd a117 74bd
000001c0: d024 bdbd 6e38 513d 3c91 d93c 49f5 a83d
000001d0: c064 b9ba e0f5 f23c 0bf9 dbbd 0131 b3bd
000001e0: 008f 033a 8c36 e2bd 91db 34bd d66c 683c
000001f0: ad0f 003d d915 333d 1ccd fcbb b47e a73b
00000200: 2e7b 45bd 0d1c 543d f0d8 a4bd 3603 973d
00000210: 608c e03c aa25 febd 5c19 b9bd 5f72 c4bd
00000220: 1130 5a3d 9efa 223d 1af9 833d e90b 913d
00000230: 6abf 8c3c 66fe d9bd 78ee 403d 59c6 2ebd
00000240: c225 33bd 4ae3 023e 1622 c83d 54b0 a03d
00000250: 5473 f6bc 31e7 313d 303d 3f3a 229b 343d
00000260: 1770 903d cf46 9d3d 142b 05bd 45b7 dabd
00000270: e05a 0dbd cec7 c6bd fcec f1bd 3603 dd3d
00000280: 5593 5b3d 88eb 293d 1b05 993d d7a7 d03d
00000290: 24a3 e03c bea1 6bbd f4a6 a0bd ae92 06be
000002a0: 8df9 a5bd 10a1 d1bd ecee a73b 78bc 7b3c
000002b0: 2c42 76bc e7be 7abd eec6 83bd ccdb e9bc
000002c0: b4e5 d6bd 5afc bcbd 5272 4f3d be35 a93d
000002d0: 3efc 8dbd b7c0 713d 5b12 da3d bb33 a0bd
000002e0: 1485 d3bc 3ea8 4e3d 68af da3c e71e 8dbd
000002f0: 834f 29bd 569e 953d e6e0 ae3d 2088 abbd
00000300: c537 78bd f904 acbd d85d c2bd 7e6f 69bd
00000310: 8aaa 4e3c a13b d7bd ef25 793d d102 0a3e
00000320: 20e1 e53d 5bbb bd3d 8eec b53d dd9e e0bd
00000330: 5a7b db3d 73ce 813d f547 c8bd f6d5 e63c
00000340: 527c ebbd a88b a43b d434 423d b496 d1bd
00000350: 8141 f63c ab0b 00be 1808 f23d 0962 e53d
00000360: b1aa d63c 2efe f9bc 8881 db3c 5da6 9dbd
00000370: 5769 9c3d 8ab9 01be b162 c43d 72b3 56bd
00000380: 432d 9d3d f590 e03c dee8 9f3d 148b a73d
00000390: 00e0 58b7 523f b63d e772 d93d b0a5 b33d
000003a0: 9ad8 163d 99ba ba3d 081e bfbc 975d a33d
000003b0: dceb 45bd 7f61 abbd a762 6a3d 487c d63b
000003c0: b44a 7fbd 08af 05bb fa71 813c 792b 3dbd
000003d0: 012a c7bd 4226 cfbd d255 4ebd bbb8 893d
000003e0: 8b1d 333c 38e2 b63d e042 be3d 6396 fb3d
000003f0: 4be2 dbbc 5594 9c3d 96bc 8d3d 9722 8a3d
-0.10452533 -0.038022783 -0.023793142 0.05742924 -0.10005302 -0.108408235 -0.102308676 0.042369924
-0.08543745 -0.04171255 0.06777911 -0.044179022 0.014153475 0.123134196 0.08894603 0.065832324
0.08054275 -0.053128324 -0.09096525 -0.081623495 -0.07345727 -0.008569238 -0.05229174 -0.04608278
0.071164794 -0.0557821 0.06845549 -0.10860855 -0.0493891 -0.018802121 0.04917412 0.0457633
0.10319391 -0.071529925 0.03747809 -0.043389298 0.04626008 -0.056659322 0.0952042 0.056919504
0.025300737 0.03443732 0.09059328 0.016837448 0.10213196 -0.0052183224 0.10106537 0.106531315
-0.027799204 -0.11038315 -0.049699977 0.07661273 -0.07186919 -0.001892861 -0.02392262 0.021219328
0.028874177 -0.09377603 0.08588823 -0.038820595 -0.030956112 -0.07616812 -0.054064196 -0.09404133
-0.12740763 0.08803944 -0.022690263 -0.03579942 -0.0948249 -0.04490113 -0.07459953 -0.0020064404
-0.06588285 -0.0460577 -0.094873756 0.0009680381 0.100668326 -0.0541578 0.056943126 0.033778414
-0.12555924 0.1068148 -0.013787051 0.08645933 -0.042075083 -0.11889814 0.12933649 0.021620568
-0.01599822 0.07972248 0.027795842 -0.030244764 0.100516535 0.04954073 0.09064305 -0.04259955
-0.07951048 -0.0034794966 0.06353494 -0.04676508 -0.06561765 0.09423518 -0.027016107 0.10571661
-0.06332086 0.034222763 -0.09498288 0.03605017 0.086616114 -0.069278084 -0.104357205 -0.059592847
-0.09235537 0.051079206 0.026558511 0.082499094 -0.0014144406 0.029658258 -0.107408606 -0.08749581
0.0005018562 -0.1104556 -0.044154707 0.014186105 0.03126495 0.043722007 -0.0077148806 0.0051115397
-0.048213176 0.051784564 -0.0804919 0.07373659 0.027410686 -0.124095276 -0.0903804 -0.09592127
0.053268496 0.03978979 0.06443997 0.0708235 0.017181117 -0.10644226 0.04710242 -0.042669628
-0.04373718 0.12782016 0.097721264 0.07846132 -0.03008429 0.043433372 0.00072951894 0.04409326
0.070526294 0.07679521 -0.032511786 -0.10679487 -0.034510493 -0.097060785 -0.11812779 0.10791628
0.053607304 0.041484386 0.07471677 0.10188263 0.027421542 -0.057527296 -0.07844344 -0.13141891
-0.08104239 -0.10235798 0.0051249173 0.015364759 -0.015030425 -0.061217215 -0.06434427 -0.02854719
-0.10493031 -0.0922782 0.050646134 0.08262204 -0.06932877 0.059021678 0.10648032 -0.07822367
-0.025820293 0.050453417 0.026694968 -0.0689066 -0.041335594 0.07305591 0.0853899 -0.08375573
-0.06060006 -0.08399386 -0.094905555 -0.056991093 0.012613902 -0.1050942 0.060827192 0.13477637
0.1122458 0.09264251 0.0888301 -0.10967801 0.10716887 0.06338205 -0.0977935 0.028178196
-0.114983216 0.005021531 0.047413662 -0.102338225 0.030060532 -0.12504451 0.1181795 0.11200339
0.026204439 -0.03051671 0.026795164 -0.07697747 0.076372795 -0.12668434 0.095891364 -0.052417226
0.076746486 0.02741287 0.07808088 0.08180824 -1.2926757e-05 0.08898796 0.10617619 0.08771837
0.03682766 0.09117622 -0.02332975 0.07976835 -0.048320636 -0.08368205 0.05722299 0.006545577
-0.0623271 -0.0020398516 0.015801419 -0.046184037 -0.097248085 -0.10114719 -0.050374813 0.06724688
0.010932337 0.089298666 0.09290099 0.12284543 -0.026841303 0.076454796 0.069207355 0.06744879

gc1.bias f4 [64]
00000000: 0d47 c33d 2654 4c3d 5756 36bc 8117 2e3d
00000010: d9e9 8fbd 0f3d c93d 4130 f5bc 3891 14bb
00000020: 7b9f aebc 8769 913d 4bcc 803d 4fcf 2bbd
00000030: b5fa f93d 55dc 9b3d ca9f 9a3d ae9c 22bd
00000040: 7e19 0c3d cdff b13d 15c7 b8bd 8209 dfbd
00000050: c425 bbbc a6d2 0d3d d70e 863d ea06 283d
00000060: d2d9 4ebd 7120 943d 5e9c 273d 6c53 a3bd
00000070: 82da 083e 72cd 023d f7b0 15bc fcf8 ddbd
00000080: 2357 cc3d 7b1b 833d cfe8 dd3d 6373 943d
00000090: e1d6 da3d e6a3 3a3d d54f 0cbc 0056 21b9
000000a0: 599a 00bc 500b 8fba 7766 d2bd a6b2 4e3d
000000b0: d017 c7ba 146b b3bd 6b7f c13d 4bd3 a8bd
000000c0: 8fbb ae3d 637a c0bc e7c3 19bd f44e b3bd
000000d0: 803d cdbc 11b6 053c 6cca e3bd a155 883d
000000e0: 64f3 8a3c 1af6 073e 442c 62bd 4d87 e43d
000000f0: d220 4f3d f412 a7bd 90d2 54bb 5114 bd3d
0.09535036 0.049884938 -0.011128983 0.042502884 -0.07027025 0.09826099 -0.029930236 -0.0022669565
-0.02131628 0.07100206 0.06288966 -0.04194575 0.12206022 0.076103844 0.075500086 -0.039700203
0.034204 0.08691368 -0.09022347 -0.10890485 -0.022845156 0.034624718 0.06545799 0.04102222
-0.0505007 0.0723275 0.040920608 -0.07974896 0.13364604 0.03193421 -0.00913643 -0.108385056
0.099775575 0.06401726 0.1083542 0.07248571 0.10685516 0.045566462 -0.008563955 -0.00015386194
-0.007849299 -0.0010913406 -0.1027345 0.05046334 -0.0015189592 -0.08760658 0.09448131 -0.08243426
0.08531868 -0.023495859 -0.037540343 -0.087552935 -0.02505374 0.008161084 -0.11122593 0.066569574
0.01696176 0.13277474 -0.055217996 0.11158619 0.05056841 -0.08157912 -0.0032474138 0.09232391

gc2.weight f4 [64, 3]
00000000: d9c6 803d 4a50 bbbe 2e6d 91be 9a25 a73e
00000010: 7ab9 3a3e 86ff 0bbf 21dc 6c3d de70 38be
00000020: ad87 af3d a640 e53e c124 60be 4d52 603e
00000030: 417b 0f3f dfa4 8ebe 1162 d83e f57e be3e
00000040: 8e27 b63c 8c8f 21be 0b14 f13e 1b27 56be
00000050: ecb8 fa3e c0ab f4bd 7a1e 0f3f a56c 09bf
00000060: a9c9 b7be 437f da3e b827 10bb c13f d3bb
00000070: 36c0 023f 542e 853e 2c70 303e 1876 d63e
00000080: 93f5 3c3e db43 01bf c9d9 fd3e a15f 703e
00000090: 6397 a43d ba33 003e 13da 893e 247f 96be
000000a0: ecb6 cc3e 3c1a dfbe 28b6 cd3e c9cc ba3e
000000b0: f5dc f33d a5ef 6dbe 11c3 d03e 8db3 213e
000000c0: 496c d5be ab52 07bf 2d67 e53e 03ef d6be
000000d0: c11b d63d a265 70be 4030 833e deaf b83d
000000e0: 013a 1dbe 40c9 8abc ea9b 96bd 8105 933e
000000f0: ba3b 6dbe 5fc9 80be 76af 87be 7e9c 403e
00000100: e7df 53bd e1cd fcbe 28f3 06be e6b2 0c3f
00000110: 71f8 783e 2a07 f93d bbd4 f1bd 2c8b 913e
00000120: f0e4 803a 0eaa 153d 4b7b 52be 5bcb e9be
00000130: 327e da3e cea8 083f 1ebe dd3e 6ccf 9a3e
00000140: 6d9d 0ebe 270c ccbe 1ce1 0fbf fa1e 20be
00000150: fcc7 20be dc02 b83c 0a6e e03e fd13 ba3e
00000160: 149e 05bf 3268 debe c819 bc3d 1ec6 41bc
00000170: 2076 b6bd 4f20 d3bd 1e82 153c d61f 54bd
00000180: d9f7 d2be 60f4 003f fc28 cebe dcf7 533d
00000190: 28c9 983c 458e 003f 73c2 d6be e609 d4bd
000001a0: 0646 f43d d0ec 7b3a 1136 70be dc14 b73e
000001b0: bc12 e2be f04a ce3e 124e 223e c304 513d
000001c0: cd4d 513e a176 063f be30 25be a516 babe
000001d0: 54b4 593e 2600 a03e dd9a 25bd 5305 8a3e
000001e0: 5ede 013f 697d 07bf 4f0a 513e 264e 103f
000001f0: bfd5 0f3f 8f64 8bbe f9bf 87be b374 f8bd
00000200: 477a 67bd d690 d33d c6f9 debe e0b9 10be
00000210: 73d0 66bd f086 383c baca 50be 1c2a 0ebf
00000220: 3385 04bf d2cb a9be 32a0 7fbe 2a74 ebbe
00000230: 47f7 91bd bbd0 fe3e d6b3 eb3e 71b5 26be
00000240: baf8 aebe 3988 ddbe 9942 96be bd89 0c3f
00000250: 65bd 3cbe 54d7 4fbd fb70 863e e822 963e
00000260: 0914 e13d 732c 243e 99e9 a9be e422 a13e
00000270: 45c3 933e 1a6a f43d 0479 31be 8be0 90be
00000280: d2ed 1bbe 4077 b9be 4c86 ecbe 3462 a43e
00000290: 4ab4 843c d981 7fbe 61e8 cfbe c982 16be
000002a0: 4ad1 bfbe 6d22 e2be 9501 9c3e d24a 773e
000002b0: c8ef d83e 6636 44be d461 28be 9aa0 72be
000002c0: 20cd e33a 1835 8d3e fb07 043f 1179 fcbe
000002d0: b0e4 07bf 8c1b 90bc d00a 91be 4a20 fcbd
000002e0: e77b da3e bee3 d4be 9c5b acbe f0fb 4a3d
000002f0: ba30 113f 6ced fd3e 28b6 09bf 6714 a63e
0.06287927 -0.36584693 -0.2840361 0.32645875 0.18234816 -0.5468677 0.05782712 -0.18011805
0.085708 0.44775885 -0.2188902 0.21906395 0.56047446 -0.27860162 0.4226232 0.37206236
0.022235658 -0.15777415 0.47085604 -0.20913355 0.4896921 -0.11946821 0.5590588 -0.53681403
-0.35896042 0.42675218 -0.002199633 -0.006446809 0.5107454 0.26011908 0.1723029 0.41886973
0.18453054 -0.50494164 0.4958022 0.2347398 0.08036687 0.12519732 0.2692419 -0.29393876
0.39983308 -0.43574703 0.40178037 0.36484364 0.119073786 -0.23235948 0.40773824 0.1579115
-0.41684178 -0.52860516 0.4480528 -0.41979226 0.104545124 -0.2347627 0.2562275 0.09017919
-0.15354158 -0.016941667 -0.07353957 0.28715137 -0.23167315 -0.25153634 -0.26501054 0.18809697
-0.0517272 -0.49375823 -0.13178694 0.5496048 0.24313523 0.121595696 -0.11808153 0.28426492
0.0009833854 0.03653913 -0.20554845 -0.4566296 0.42674404 0.53382576 0.4330911 0.30236375
-0.1392724 -0.39853022 -0.56202865 -0.15636817 -0.15701288 0.022462301 0.43833953 0.36343375
-0.52194333 -0.4343887 0.09184605 -0.01182702 -0.08909249 -0.10308897 0.009125261 -0.051788174
-0.41204718 0.50372887 -0.40265644 0.05175005 0.018650606 0.50217086 -0.41945228 -0.103534505
0.119274184 0.0009610178 -0.23458125 0.35758102 -0.44154918 0.40291548 0.15850094 0.05102993
0.20439835 0.52524763 -0.16131875 -0.363454 0.21260196 0.31250113 -0.040430892 0.26957187
0.5072993 -0.52925736 0.20414089 0.56369245 0.56185526 -0.27225158 -0.2651365 -0.121316336
-0.056513097 0.1033036 -0.43549937 -0.14133406 -0.056351136 0.01126264 -0.20389834 -0.55533004
-0.51765746 -0.33163315 -0.24963453 -0.45987064 -0.071272425 0.49768624 0.4603564 -0.16280152
-0.34174138 -0.43267992 -0.29347685 0.5489767 -0.18431623 -0.050742462 0.26258072 0.29323506
0.109901495 0.16032581 -0.33186033 0.31471932 0.28859916 0.119343 -0.1733132 -0.28296313
-0.1522744 -0.36223793 -0.4619621 0.32106173 0.01619925 -0.24951877 -0.4060698 -0.14698328
-0.37464362 -0.4416689 0.30469957 0.24149635 0.4237044 -0.19161376 -0.16443568 -0.23694077
0.0017379858 0.2757957 0.5157468 -0.49311116 -0.53083324 -0.01759126 -0.28328562 -0.12310846
0.42672655 -0.41580003 -0.33663642 0.049556673 0.56714976 0.495952 -0.53793573 0.3243744

gc2.bias f4 [3]
00000000: 030f 093f a5b3 063f c341 bfbe
0.5353853 0.52617866 -0.3735486
