save_model/baseline/st-GCN-Cora-5-0.650000.pth (torch, 370622 bytes, 4 tensors)

gc1.weight f4 [1433, 64]
00000000: e837 043d 54bc 3ebc c48b a834 4992 e5bc
00000010: c291 94bc 44f4 8aba 4e6a f0bb 638b 87bc
00000020: 77cb af3b 0708 103d 2ac2 d53b 1c9b 7f3b
00000030: a61b f739 0ad3 a2bc 94a2 97bb ded5 1abd
00000040: b640 d7bb f1ed 523c bf5a 38bc 7507 b43c
00000050: 6a0d 2b3d 5ecb 16bd cc77 97bc 3075 70bc
00000060: c110 e1bc 5410 d1bb 0248 783c d42e d5bc
00000070: b89c 9d3c e823 9abc 7ea8 9c3b be95 8abc
00000080: 74c9 e43c 4f4c 5b3c 23f3 b63b 3ad1 13b7
00000090: 295d bd3c 9694 2d3c dc34 a53c 3c74 9a3b
000000a0: d124 a63c f74e 7e3c 0c53 f13c b622 0dbd
000000b0: 4d14 f8bc 122c 8b3c e025 44b9 a9ad 6ebb
000000c0: 2219 e93c d4a0 9aba ba9f 8b3b d4c2 8c3c
000000d0: c64b 23bd 2a1c 713b 5c42 90bb 0613 73bc
000000e0: e6fa 57bc d5cd 1cbc 2426 323b 9ac3 c5b6
000000f0: f67e 683c 14ef 1b3d 10e2 b93c 3d1c 343d
00000100: d754 bfbd 0f07 c6bd 6bb1 cab5 660c 793d
00000110: 84b1 c13d b681 66bd 63b8 95bd 2143 fe3d
00000120: ccca be3d 0818 193e eb80 a73d 57c2 733d
00000130: 8df7 b7bc 3130 cc3c 8958 cb3d 695f 653d
00000140: ee25 2abd 3f8a f2bb fe77 413d ed8a 7bbd
00000150: c565 e6bc 7f95 a6bd 076d 2fbd 9c1c 87bd
00000160: 5ce4 7f3a 3a23 ee3d 0dc7 8abb 2cbe f3bb
00000170: f10a 81bd 2570 b0bd 58c2 1fb9 6574 d8bd
00000180: 34a0 61bd 9ff2 95bd 1645 09bd e7ec f136
00000190: 470e 19bd f55d 7ebd 35cf cebc 8185 123e
000001a0: 3fd4 113e 0291 d7bd 5f72 c43d e4c0 6abd
000001b0: 0466 3e3c e957 9d3d ca19 823d 5e7c b93a
000001c0: 79f1 2abc 23df cf3b c06e 9dbc 0420 bd3d
000001d0: 98da 1d3d 33d5 98bd 11de 773d 4a00 a73c
000001e0: 3d05 0b3d 1f1f 8d3d b0e5 b03c 0291 1637
000001f0: 5d47 e13c 1f25 3bbd 316f 153e 6049 f3bb
00000200: e581 14bd ce48 77bd b3bd 60b6 c00c 603d
00000210: e52a a33d 8b67 58bd a6ba c4bd 127a cf3b
00000220: 2458 263c d8e0 a83d e1ca a83d 75e2 0b3d
00000230: 2108 1b3c 06de 3a3d f828 be3d 169f 733c
00000240: 5d83 f83b b073 6cb9 bf91 313d db4e 65bd
00000250: 59f6 59bd 7bc8 a7bb b9c5 063d 2b78 8ebd
00000260: eb99 cc3b 8087 ad3d 7aa2 ffbc ed6e 813d
00000270: 5b36 59bd 8414 4239 fff8 ae3d d168 f7bc
00000280: 1580 99bd a6e0 cebd e729 26bd b62d 8d36
00000290: f50e 04be b97b a1bd e3c6 1bbe 433e ce3c
000002a0: 34b8 a23d 835b 7dbc 4b64 b83b f300 983d
000002b0: 84c7 4a3d 5979 0c3e b700 b83d 02a4 bd3c
000002c0: d0d7 a5bd 5737 923b 1501 efbb 5f57 ce3c
000002d0: de97 113d 3c98 9cbd 3374 9fbc 055f c13d
000002e0: 2dfc d93c 0ad4 a53d 757b 1bbd a89e 79b4
000002f0: 3568 a93c 7776 65bd 2c62 b33d 49cd 0abd
00000300: f3a8 d2bc 3508 6b3d a40e 1e37 31ec 9e3d
00000310: f2a4 b63c b363 283d c5c5 683d 2272 c93d
00000320: bf5e 173d 4798 10be 188a 183a cc38 993c
00000330: afb7 033d e34c 2d3d 5d93 41bd 791b 6e3c
00000340: aeaf 91bc 95b2 763c a747 083c 3449 cb3c
00000350: 7ecc 50bd 0f4d 943d 3ec0 7a3d 0e18 c83d
00000360: 85f0 2b3d 77aa 3abc c4d4 073d e8f1 483d
00000370: 9c49 56bd d51d a83c 979b 9cbd 50de ab3d
00000380: 4066 28bc 0806 cb3b d2e6 6c3c ba4d 17b5
00000390: 5e99 a93c e2a7 ac3c 75ec 763d 7f41 8dbd
000003a0: b1fb c0bd b09f fcbd 06e3 84bd 243e 8d3c
000003b0: e39a 8c3d 802f b8bd 0fbf 44bd 5e07 bcbc
000003c0: 6378 0f3c da40 7cbb 21be bbbb 0412 64bd
000003d0: 7de1 363d 689c aa3d f768 7b3d a6c0 d3bc
000003e0: eed3 be3c e4a0 e0bb 585b c13c 4fcc 0ab7
000003f0: ee00 77bc 0cf0 6ebd 621f b1bd d7e8 6bbd
0.03227988 -0.011641581 3.139413e-07 -0.028023856 -0.018135909 -0.0010601361 -0.0073368913 -0.016545957
0.005364831 0.035163905 0.0065233903 0.0039002365 0.0004713211 -0.019876022 -0.004627535 -0.037801616
-0.0065689934 0.012874112 -0.011252104 0.021976212 0.04176084 -0.03681504 -0.01848974 -0.014676377
-0.02747381 -0.0063801203 0.015153887 -0.026023306 0.019239768 -0.01881595 0.004780828 -0.016917106
0.027928092 0.013384893 0.0055831834 -8.810597e-06 0.023115711 0.010594508 0.020166807 0.0047135632
0.020281227 0.015521756 0.029458545 -0.03445693 -0.030283118 0.016988788 -0.00018706126 -0.0036419427
0.028454367 -0.0011797198 0.0042609842 0.017182745 -0.039867185 0.0036790469 -0.004402442 -0.0148360785
-0.013182377 -0.009570559 0.0027183378 -5.8938285e-06 0.014190426 0.0380698 0.022690803 0.043972243
-0.09342354 -0.09669315 -1.5101808e-06 0.06080284 0.094576865 -0.056276046 -0.073105596 0.124151476
0.09316024 0.14950573 0.08178886 0.05951151 -0.022456909 0.024925323 0.09928996 0.055999193
-0.04154008 -0.007401734 0.047233574 -0.061411787 -0.0281247 -0.08133983 -0.042828586 -0.06597254
0.0009761506 0.11627813 -0.0042351545 -0.0074384417 -0.06300915 -0.0861514 -0.0001523582 -0.105690755
-0.055084422 -0.07321667 -0.03351315 7.2099388e-06 -0.03736713 -0.062101323 -0.025245288 0.1430874
0.14241122 -0.10525705 0.09592127 -0.05731286 0.011621002 0.07682783 0.06352575 0.0014151444
-0.010433548 0.0063437386 -0.019217849 0.09234622 0.038538545 -0.074625395 0.060514513 0.02038588
0.033940542 0.068907015 0.021593899 8.974459e-06 0.027499849 -0.0456897 0.14593197 -0.0074245185
-0.03625669 -0.060372166 -3.348902e-06 0.05469966 0.07967166 -0.05283312 -0.09605913 0.0063316906
0.01015285 0.082460105 0.08241821 0.034151513 0.009462387 0.045621894 0.09285158 0.014869472
0.007584019 -0.00022549811 0.043351885 -0.055983406 -0.05321345 -0.0051203347 0.032903407 -0.06956514
0.0062439344 0.0847311 -0.031205405 0.063199855 -0.053030353 0.00018508924 0.08543586 -0.030201348
-0.07495133 -0.10101442 -0.040567305 4.207449e-06 -0.1289633 -0.07884926 -0.15212588 0.025176173
0.0794529 -0.015463713 0.00562719 0.07422056 0.04950668 0.13718165 0.08984511 0.023149494
-0.080978036 0.0044621634 -0.00729383 0.025188146 0.035545222 -0.07646224 -0.019464588 0.09441952
0.026609505 0.08097084 -0.037959535 -2.3247651e-07 0.020679573 -0.05602118 0.08758959 -0.03388718
-0.025715327 0.057380874 9.420943e-06 0.07759894 0.022295449 0.041110706 0.056829233 0.09836222
0.03695559 -0.14120589 0.00058189174 0.01870384 0.032157596 0.042309653 -0.047259677 0.014532917
-0.017783966 0.015057226 0.0083178645 0.02481518 -0.05097627 0.0724126 0.061218493 0.09770213
0.041977424 -0.011393181 0.033161893 0.049058825 -0.052316293 0.020522038 -0.07646864 0.08392012
-0.010278285 0.0061957873 0.014459329 -5.636499e-07 0.020703014 0.021076147 0.060284097 -0.06897258
-0.09423006 -0.123351455 -0.06488614 0.017241545 0.0686548 -0.08993435 -0.04803377 -0.022952732
0.00875673 -0.0038490803 -0.0057294522 -0.055681244 0.044648636 0.083306134 0.0613794 -0.025848698
0.023294415 -0.006855117 0.023603126 -8.27301e-06 -0.015075905 -0.058334395 -0.08648564 -0.0575951

gc1.bias f4 [64]
00000000: 0e77 ca3d a0e4 f73d b8ff a6bb 3274 183e
00000010: dcfa 983d 8529 a53d 20ea 4c3d 8c45 983d
00000020: f780 a63d eab4 893d fbbc 983d f626 d13d
00000030: d9a5 a93d a2f8 c13d f342 913d baaa f03d
00000040: 558c fe3d ac1c 173e 0804 bf3d 6ac3 f93d
00000050: f66a 8d3d 35f2 053e 77e2 a83d 7e00 e83d
00000060: 6abd 073e 993f 9b3d 00c7 753d b453 c13d
00000070: 1e60 943d f54c d03d 2b83 e73d f15e c23d
00000080: 0047 fc3d 5752 e13d 45fe ad3d be5b 90bb
00000090: be88 ad3d d224 dd3d 1006 a53d db12 b83d
000000a0: 2156 863d 02f9 f83d 5be3 c93d aa21 b33d
000000b0: 9f82 ca3d d802 c93d 6bc7 dc3d 59ab 283e
000000c0: 719e 8d3d 8dad 113d 48ab 723d cec7 913d
000000d0: 20bc da3d 6b73 b33d 15ad 543d c440 d13d
000000e0: dd28 e83d f0d4 df3d 99cd ab3d 41a9 f9bc
000000f0: 8602 d53d 312f ac3d a362 903d 3162 8c3d
0.09885989 0.12104154 -0.005096402 0.14888075 0.07469723 0.0806456 0.050027966 0.0743514
0.08130067 0.0672396 0.0745792 0.10212509 0.08283586 0.09471251 0.07092848 0.117513135
0.1242911 0.14757031 0.09326941 0.121954754 0.06905167 0.13080676 0.0824632 0.11328219
0.1325585 0.0758049 0.060004234 0.09439793 0.072448954 0.101709284 0.11304315 0.09490765
0.1231823 0.11002033 0.08495764 -0.004405468 0.08473347 0.107980385 0.08057797 0.089879714
0.065593965 0.121568695 0.09857818 0.08746655 0.09888195 0.098149955 0.107802235 0.16471614
0.06914986 0.0355659 0.059245378 0.07118188 0.10680413 0.087622486 0.051922876 0.10217431
0.11335919 0.109292865 0.08388824 -0.030476214 0.10400872 0.084074385 0.070500635 0.06854666

gc2.weight f4 [64, 7]
00000000: 70e4 893f d48e 813f f02d 6f3f eb28 9fbf
00000010: 0cc4 8abf 0979 1e3f f772 98bf 7e0c 663f
00000020: 3bbd 533f 5d6d 163f ef1a 7bbf c745 723f
00000030: b5ba 8bbf a4ba 2f3d 9be5 8b36 e496 f8b5
00000040: d799 1036 2427 55b6 8857 47b5 ab15 2c38
00000050: 9077 c6b6 35b5 2b3f 50d1 7a3f 0bb4 88bf
00000060: ee08 203f 9ec2 05bc a53a 96bf 5e9a 643f
00000070: e258 a9bf 5af6 9cbf 6506 a23f 57d0 8c3f
00000080: d1b8 a13f fd0d 7abf 945b 93bf cccd b53e
00000090: 8f9e 8d3f 5d04 783f 68de 1cbf a8b4 6ebf
000000a0: 8dd4 15bf faba df3d 967d 71bf 227f 88bf
000000b0: 2056 963f 912a 96bf 6c16 a13f 84e5 75bf
000000c0: 573e adbe 2471 93bf 75d8 90bf a1eb 943f
000000d0: a54a 883f 83e0 93bf 6d91 92bf 775a b03f
000000e0: cdda 8cbf 6b23 453f 4be6 8f3f 4851 273f
000000f0: f3e4 38bf fc48 e6be 27ef 303e 2621 47bf
00000100: 4890 a73f 2cdf 8ebf 991a 833f 1ed5 99bf
00000110: bff3 a23f a04e 86bf 1114 7c3e d78e 273f
00000120: 667e 07bf 88e1 063f 77fb 49bf 4f4d 4fbe
00000130: f705 70be 586a 7a3f f453 99bf 626c 6fbf
00000140: 6bd0 503f 221e 82bf 861b 723f a054 3a3f
00000150: 0be6 52bf d936 c63e 66b9 2d3f 3429 a0be
00000160: 9e63 983f b038 6ebf c664 0dbf 4bb8 cc3e
00000170: b136 963f 445c b7bf 2ac1 1d3e 160d 2a3e
00000180: bec3 85bf 54e0 2b3f bbc8 83bf 042f 783f
00000190: e70e 94bf f414 843f 0d28 853f 74fc 6abf
000001a0: e652 50bf 9a67 f7bd d978 333f 3144 aabf
000001b0: 21bc 823e 633e 163f a16f 57bf d30f 663f
000001c0: d725 4a3f 212b acbf 456e 8ebf 7f44 e4bc
000001d0: 81d4 883f bf56 7e3f 692e 203f 154d 87be
000001e0: 6ec3 0a3f f5d0 03bf e280 a5bd b80d 92bd
000001f0: 51e8 4fbc 6e0f e23e 2401 883f 701b 9bbf
00000200: 3439 72bf a352 7e3f 0055 86bf 7c4f 7f3f
00000210: baae 413f c15b 873f 8890 9d3f 428e 4cbf
00000220: 65cd b3bf 3a85 31bf f1a1 793f f4d1 643f
00000230: c76f 5bbf 05cd 233f b9d8 913f bcb6 57bf
00000240: a798 97be dab3 9e3f da7f 9bbf 8754 973f
00000250: ed98 3fbf 2408 6cbf d4a6 cbbe 0433 963f
00000260: b8d3 8abf 818d 8f3f f756 9d3f 4817 88bf
00000270: 796f 8e3f 68d0 cf3e 8962 7bbf 49ba 16bf
00000280: 93a2 2dbf 12f8 553f ef8b 7b3f 2a15 2c3f
00000290: 4fed 88bf 30cb 98bf 3c08 9bbf b110 703f
000002a0: 8e1b e93e 10ef 803f 4cf0 b7bf 38e9 cbbe
000002b0: 8b48 813f 6923 9abf fd19 4b3f 3787 9dbf
000002c0: 05b8 453f f773 753f 5b2c 893f 137b 593f
000002d0: d140 85bf ee7c 9abf 8795 f4be 23a1 543f
000002e0: 65cd 513f 1dca f5be 8ba1 65bf 5135 6cbf
000002f0: b116 bbbe 3745 833f aaf1 a5bf 5cc6 923f
00000300: 9d87 813f 385f 7d3f 8132 80bf 30c7 afbf
00000310: 113c 8fbf 7e50 8bbf 9430 753f 990a 46bf
00000320: 4a79 863f d7a4 943f 9f09 fdbe afef 763f
00000330: 2865 92bf da88 10bf 297b 2dbf 136b a13f
00000340: ad52 a4bd 09ce 0fbf f7a2 443f fc2e 8fbf
00000350: ee2c 5fbf 47db 313f f76c 993f 1598 953f
00000360: a39f 86bf 818d 913f 5b8c 9cbf 19bb 923f
00000370: 2ade 62bf e040 973f 0534 7abf 7c52 5bbf
00000380: c601 6a3f 519d 883f 06ea 83bf 87c3 9dbf
00000390: b820 92bf 82ba 7e3f b424 193f 651c 7c3f
000003a0: b3ed 853f f335 313f b7ff 8cbf 26fd 6dbf
000003b0: 8696 3e3f f079 cb3d 0b8f 95bf ef0e 713f
000003c0: 53b6 463f 44b0 4cbf 9150 503f 253d 8abe
000003d0: cbb5 0cbe 68ae 9c37 6ceb 4837 23a9 7136
000003e0: 9aec fd37 df01 bbb6 14b4 ac37 12e7 9035
000003f0: 164b 89bf b264 92bf 1982 9f3f 762a 95bf
1.0772839 1.0121713 0.9342947 -1.2434362 -1.0841079 0.61903435 -1.1910084 0.8986281
0.8271062 0.58760625 -0.9808797 0.9463772 -1.0916353 0.042902604 4.1692524e-06 -1.8521355e-06
2.1547219e-06 -3.1762256e-06 -7.426065e-07 4.1028175e-05 -5.9147787e-06 0.67073375 0.97975636 -1.0679945
0.62513626 -0.008164076 -1.1736647 0.89298046 -1.323025 -1.226268 1.2658201 1.100108
1.2634526 -0.97677594 -1.1512322 0.35508573 1.1064013 0.9688166 -0.61276865 -0.9324441
-0.5852745 0.10924335 -0.94332254 -1.0663798 1.1745033 -1.173174 1.2584968 -0.9605334
-0.33836624 -1.1518903 -1.1316057 1.1634408 1.064778 -1.155289 -1.145063 1.3777608
-1.1004273 0.7700717 1.1242155 0.653584 -0.7222435 -0.44977558 0.1727873 -0.77784956
1.3090906 -1.1161857 1.0242492 -1.2018163 1.2730635 -1.0492744 0.2461703 0.6545233
-0.52927244 0.52687883 -0.7889933 -0.20244335 -0.23439775 0.9781852 -1.1978745 -0.93524754
0.8156802 -1.0165446 0.9457325 0.7278538 -0.8238227 0.3871372 0.6786102 -0.31281435
1.1905401 -0.9305525 -0.55231893 0.39984354 1.173544 -1.4325032 0.15405717 0.16606554
-1.0450361 0.6713917 -1.0295633 0.9694674 -1.1567048 1.0318894 1.0402848 -0.9179146
-0.8137649 -0.12080307 0.70106274 -1.330206 0.25534156 0.58688945 -0.8415471 0.89867896
0.7896399 -1.3450662 -1.1127402 -0.027864693 1.0689851 0.99351114 0.62570816 -0.26425996
0.5420445 -0.5149072 -0.08081223 -0.07131523 -0.012689666 0.44152397 1.0625348 -1.2117748
-0.94618535 0.99344844 -1.049469 0.9973066 0.75657237 1.0574876 1.2309732 -0.7990457
-1.4047056 -0.6934391 0.9751273 0.89382863 -0.85717434 0.6398471 1.1394264 -0.84263206
-0.29608652 1.2398636 -1.2148392 1.1822671 -0.7484272 -0.9219992 -0.39775717 1.1734319
-1.0845861 1.1215059 1.2292165 -1.0632105 1.1127769 0.4058869 -0.9819723 -0.58878
-0.67826194 0.8358165 0.98260397 0.67219794 -1.0697421 -1.1937008 -1.2111888 0.9377547
0.45528835 1.0072956 -1.4370208 -0.3982637 1.0100263 -1.2042056 0.7933653 -1.2306889
0.77233917 0.95880073 1.0716661 0.8495342 -1.0410405 -1.2069376 -0.4777033 0.83058375
0.8195403 -0.48005763 -0.8969962 -0.92268854 -0.3654075 1.0255498 -1.2964375 1.1466784
1.0119511 0.9897342 -1.0015413 -1.3732662 -1.1190206 -1.0883939 0.9577725 -0.7735992
1.0505764 1.1612805 -0.49421403 0.9645948 -1.143712 -0.5645882 -0.6776605 1.2610801
-0.08023582 -0.5617376 0.76811165 -1.1186213 -0.8717793 0.69475216 1.1986378 1.1687037
-1.0517467 1.1371309 -1.2230333 1.1463348 -0.88620245 1.1816673 -0.97735626 -0.85672736
0.91408956 1.0673009 -1.0305793 -1.2325295 -1.1416235 0.9950334 0.5982163 0.98480827
1.0463165 0.69222945 -1.1015538 -0.929644 0.7444843 0.09935367 -1.1684278 0.9416341
0.77621955 -0.7995646 0.81372935 -0.26999775 -0.13741224 1.8677863e-05 1.1975742e-05 3.601025e-06
3.0270126e-05 -5.573252e-06 2.0587853e-05 1.0796086e-06 -1.072604 -1.143698 1.2461578 -1.1653583

gc2.bias f4 [7]
00000000: 2fce 2dbf f3fb 2bbf 181f 073f 7385 dabe
00000010: 3858 013f ff9d a0bd 8a35 e1be
-0.67892736 -0.6718132 0.5278182 -0.4267994 0.50525236 -0.07842635 -0.4398616
