save_model/baseline/st-GCN-ACom-10-0.650000.pth (torch, 200895 bytes, 4 tensors)

gc1.weight f4 [767, 64]
-0.050246287 -0.13133559 -0.11219322 0.03052456 -0.139499 -0.039058905 -0.07214024 -0.13823117
-0.09114307 -0.138499 0.104118 -0.17046127 -0.007104358 0.118918404 0.014546777 0.002314622
0.09072888 -0.0006997507 0.07335723 -0.14741878 -0.1645304 -0.10297644 -0.028052026 -0.033500865
-0.017795924 0.06468462 -0.023684878 -0.028914524 0.025256066 -0.06054198 -0.063308604 0.01583596
-0.11095144 -0.0491259 -0.085014105 -0.0886281 0.03981991 -0.07949868 -0.04919949 0.031031225
0.1280382 -0.06628939 -0.0884634 -0.04710767 -0.03123698 0.016228287 -0.07408346 -0.10202267
-0.0059734895 0.024092095 -0.04631038 0.03302921 -0.12887932 -0.004635187 0.00072924886 0.07596423
-0.09326314 -0.15064426 0.08954833 -0.14871225 -0.010003688 -0.13665904 0.0011242591 0.062819704
0.092038706 -0.102124326 -0.02381047 -0.03733432 0.055347424 -0.0023683854 -0.011777098 -0.09343162
-0.07394011 0.01597062 0.032095708 0.03545571 -0.028000815 0.11354894 -0.0053468025 -0.15422682
0.041540146 -0.040328696 -0.122349106 -0.14622535 -0.040077936 0.066734724 -0.047340743 0.08478263
-0.013689353 0.10941374 -0.097916685 0.006730947 -0.026934186 -0.09470831 0.044222586 0.029701374
0.05119887 -0.0071679656 -0.077342115 -0.116141476 -0.14029863 0.05995541 -0.089056 0.13066283
0.044623308 -0.11342053 -0.026711486 -0.04240314 -0.0389675 -0.12999512 -0.12654671 -0.10338877
-0.017342482 0.0013150546 -0.08968924 -0.02647227 0.05417271 -0.12991573 0.043125235 -0.15356444
-0.078326695 -0.11480422 -0.06455534 0.0054564583 -0.0023413242 -0.016276002 -0.10395151 -0.045076363
0.03351867 -0.014831149 0.025463676 -0.054596044 -0.061468247 0.017241582 -0.028825786 -0.17798612
-0.12747383 -0.08286798 -0.116085745 -0.06912022 0.006187736 -0.06552664 -0.02716534 -0.0017312899
-0.040620785 -0.15852302 -0.018296711 0.033762775 -0.0713138 -0.1308857 -0.10021848 -0.042497426
-0.004023373 0.04108254 0.026702914 -0.011810353 0.008584178 0.080898255 -0.13263048 0.0062111807
-0.15417998 0.07076679 -0.121755846 -0.07429242 -0.0788927 0.052220482 -0.06620912 -0.0038575912
-0.038130812 0.04635001 -0.018390602 -0.020504875 -0.0023094637 -0.09355277 -0.020094361 0.021274457
0.030679971 -0.044427857 -0.0043109516 0.010634569 -0.12310612 -0.14496341 -0.033167608 0.0077912402
0.11071498 -0.16415998 0.06825788 0.034136172 -0.013644302 0.0070884083 0.0365954 -0.1257315
0.021759212 -0.05378572 0.02962435 0.014621446 -0.06970846 -0.009072469 -0.08472687 0.003602485
-0.018986803 -0.06107607 0.08747219 -0.047453724 -0.010968731 -0.0614512 -0.1359463 -0.044037003
0.0133212665 -0.17917353 0.07028578 -0.09178962 -0.015837893 0.09595483 -0.08838853 -0.1051784
-0.052045576 -0.06211812 0.11696125 0.07456593 -0.03904528 -0.08255295 -0.04221351 -0.11917732
-0.019454068 0.05790043 -0.0041920734 -0.09290299 -0.15213297 -0.041456353 0.010017975 -0.0848495
0.10580908 -0.15878887 -0.03971298 -0.03269605 0.11769488 0.0018324235 -0.07629613 0.018564103
-0.001685313 -0.14770308 0.018264592 -0.058117107 -0.010881779 0.0035608213 0.04473218 -0.12744856
0.08985051 -0.070876405 0.055243105 -0.00954502 -0.010912608 -0.049847394 -0.014408622 0.02186571
00000000: 0dcf 4dbd d67c 06be 8fc5 e5bd a40e fa3c
00000010: d3d8 0ebe 3bfc 1fbd 43be 93bd 798c 0dbe
00000020: 38a9 babd afd2 0dbe d13b d53d 668d 2ebe
00000030: adcb e8bb 7e8b f33d 9b55 6e3c eab0 173b
00000040: 10d0 b93d 796f 37ba 513c 963d f3f4 16be
00000050: a87a 28be 50e5 d2bd 5dcd e5bc 3438 09bd
00000060: c2c8 91bc 5f79 843d ca06 c2bc 27de ecbc
00000070: cfe5 ce3c defa 77bd f1a7 81bd 6aba 813c
00000080: 823a e3bd 3d38 49bd e01b aebd a682 b5bd
00000090: 341a 233d 34d0 a2bd 6885 49bd 3235 fe3c
000000a0: 721c 033e bbc2 87bd 4d2c b5bd f9f3 40bd
000000b0: b2e4 ffbc 2ff1 843c 12b9 97bd 43f1 d0bd
000000c0: 43bd c3bb c95c c53c f4af 3dbd a349 073d
000000d0: f1f8 03be c4e2 97bb 102b 3f3a 2293 9b3d
000000e0: bf00 bfbd 7d42 1abe 1d65 b73d 0648 18be
000000f0: 82e6 23bc 59f0 0bbe e05b 933a 9ea7 803d
00000100: ca7e bc3d 8f26 d1bd 2d0e c3bc dfeb 18bd
00000110: fbb3 623d ea36 1bbb bbf4 40bc 1459 bfbd
00000120: ea6d 97bd d1d4 823c ca76 033d 023a 113d
00000130: f761 e5bc 598c e83d 3b34 afbb a3ed 1dbe
00000140: 0026 2a3d b42f 25bd 2b92 fabd 19bc 15be
00000150: c328 24bd 37ac 883d 5ee8 41bd 84a2 ad3d
00000160: 4f49 60bc 5014 e03d 8b88 c8bd 478f dc3b
00000170: 15a5 dcbc 6ef6 c1bd be22 353d 4c50 f33c
00000180: e8b5 513d 41e1 eabb 8b65 9ebd 95db edbd
00000190: 72aa 0fbe ce93 753d fe62 b6bd 7acc 053e
000001a0: eec6 363d 0649 e8bd 0cd2 dabc eaae 2dbd
000001b0: 639c 1fbd 711d 05be 7695 01be 7ebd d3bd
000001c0: d211 8ebc e95d ac3a feae b7bd 60dc d8bc
000001d0: 34e4 5d3d a108 05be 16a4 303d ff3f 1dbe
000001e0: bf69 a0bd 7a1e ebbd 9735 84bd 17cc b23b
000001f0: e770 19bb 4055 85bc 87e4 d4bd fea1 38bd
00000200: df4a 093d 59fe 72bc 3399 d03c 1aa0 5fbd
00000210: 21c6 7bbd 383e 8d3c 0e24 ecbc fe41 36be
00000220: 8088 02be b0b6 a9bd 5dbe edbd e78e 8dbd
00000230: 7ec2 ca3b d532 86bd d989 debc 73ec e2ba
00000240: fb61 26bd dc53 22be fce2 95bc d64a 0a3d
00000250: f80c 92bd e706 06be 593f cdbd c811 2ebd
00000260: 80d6 83bb 2a46 283d 12c0 da3c 3680 41bc
00000270: a7a4 0c3c fcad a53d 49d0 07be 2987 cb3b
00000280: 5be1 1dbe 2eee 903d 215b f9bd a026 98bd
00000290: 7f92 a1bd 25e5 553d a698 87bd a4cf 7cbb
000002a0: 0e2f 1cbd 82d9 3d3d e3a7 96bc d7f9 a7bc
000002b0: 5f5a 17bb 9898 bfbd ee9c a4bc c547 ae3c
000002c0: 9054 fb3c fcf9 35bd e242 8dbb 9e3c 2e3c
000002d0: 101f fcbd 4a71 14be c2da 07bd a94d ff3b
000002e0: 89be e23d 8e19 28be caca 8b3d 5fd2 0b3d
000002f0: 5a8c 5fbc e145 e83b 0fe5 153d c2bf 00be
00000300: 6040 b23c 6a4e 5cbd c4ae f23c ca8e 6f3c
00000310: 4fc3 8ebd b1a4 14bc 4885 adbd ab17 6c3b
00000320: 368a 9bbc e72a 7abd 9f24 b33d d65e 42bd
00000330: 31b6 33bc 41b4 7bbd 8235 0bbe 2560 34bd
00000340: 7141 5a3c 4479 37be fef1 8f3d 32fc bbbd
00000350: 78be 81bc f783 c43d 0c05 b5bd c667 d7bd
00000360: be2d 55bd 926f 7ebd 6189 ef3d 06b6 983d
00000370: f2ed 1fbd 8511 a9bd 13e8 2cbd 3d13 f4bd
00000380: 235e 9fbc 0029 6d3d a95d 89bb ec43 bebd
00000390: bfc8 1bbe 23ce 29bd 6f22 243c 93c5 adbd
000003a0: 6eb2 d83d 8d99 22be 14aa 22bd 4bec 05bd
000003b0: 030a f13d ee2d f03a 2541 9cbd bf13 983c
000003c0: b8e5 dcba 7a3f 17be a09f 953c 340c 6ebd
000003d0: 7d49 32bc ab5c 693b 1739 373d e081 02be
000003e0: 8b03 b83d a627 91bd 9846 623d b762 1cbc
000003f0: ccca 32bc c82c 4cbd 2412 6cbc b81f b33c

gc1.bias f4 [64]
0.053935546 -0.040011797 0.11115068 0.05913615 -0.06707899 0.05329404 -0.06556535 -0.06732631
-0.00794346 -0.10242084 0.078196175 -0.10028798 -0.016172709 0.019443594 -0.059685845 -0.052194357
-0.03719303 -0.07121243 0.12852852 -0.085390925 -0.1165883 0.04476721 -0.05130148 -0.021951536
-0.07360711 0.034572285 -0.05295486 0.0077311266 0.06927903 -0.041404117 -0.15622002 -0.15606016
-0.010656769 0.078469045 -0.08191356 -0.039986104 -0.09826056 0.03563996 0.017977417 -0.011766794
-0.06181708 -0.06028403 0.0033154218 -0.104954086 0.06078296 -0.09842124 0.042552326 0.011769715
0.03032138 0.03552655 -0.13713948 0.26236534 -0.11019696 -0.12351037 -0.12861745 -0.026316574
0.11053173 -0.021760605 -0.06908633 -0.014079302 -0.13118018 -0.120309025 -0.011210627 0.035177372
00000000: 85eb 5c3d 69e3 23bd f8a2 e33d bf38 723d
00000010: b660 89bd da4a 5a3d 2047 86bd 60e2 89bd
00000020: 4925 02bc 04c2 d1bd 5125 a03d c963 cdbd
00000030: a17c 84bc 2c48 9f3c 2579 74bd c0c9 55bd
00000040: b857 18bd d3d7 91bd fb9c 033e 70e1 aebd
00000050: d9c5 eebd d25d 373d 8021 52bd b5d3 b3bc
00000060: 53bf 96bd ab9b 0d3d 32e7 58bd 6455 fd3b
00000070: 2ae2 8d3d 5d97 29bd 24f8 1fbe 3cce 1fbe
00000080: bb99 2ebc 61b4 a03d 4cc2 a7bd 78c8 23bd
00000090: d53c c9bd 35fb 113d 6045 933c 83c9 40bc
000000a0: e833 7dbd 63ec 76bd 8c47 593b 2bf2 d6bd
000000b0: 8ef7 783d 1391 c9bd 594b 2e3d c3d5 403c
000000c0: 8b64 f83c 4a84 113d 4b6e 0cbe c054 863e
000000d0: f2ae e1bd 01f3 fcbd 4bb4 03be db95 d7bc
000000e0: 765e e23d 4c43 b2bc 227d 8dbd dfac 66bc
000000f0: 1954 06be 9464 f6bd c7ac 37bc 2616 103d

gc2.weight f4 [64, 10]
-0.13612159 -0.09299253 -0.021821804 -0.1530078 -0.2155959 0.21835734 0.30715367 -0.18140455
-0.18895279 -0.26400784 -0.17739873 -0.11589351 0.26188827 0.15331076 0.12307983 0.0063253934
-0.03167112 -0.012969768 0.0060384152 0.061007895 0.054416012 0.0022239678 0.10335712 -0.098286346
0.10930309 -0.24729417 -0.13495365 0.31579164 -0.26963112 -0.22106119 -0.15850031 0.24132365
0.1251481 -0.0030345614 0.25536537 0.23423143 0.20502175 -0.058866397 -0.34560135 -0.15148595
-0.05948965 0.33628583 0.008932584 0.19495116 -0.078515045 -0.2226657 0.04842745 -0.17510147
-0.32284778 0.040213026 0.07736788 -0.17296763 0.07669425 0.054362938 0.04388433 -0.17661425
-0.13873771 0.00044112664 -0.08111656 -0.04817887 -0.24899527 -0.19068399 -0.027625263 0.06222382
0.13199699 -0.24601443 0.27718234 -0.20795897 0.045937367 -0.13906664 0.11202149 0.0617601
-0.06146948 0.22418782 0.070576765 -0.3604773 -0.25489822 0.10787221 -0.12894213 0.15575176
-0.035493184 0.17015666 0.058905147 0.0863953 -0.012494325 -0.020749977 0.12093047 0.04857008
-0.35526985 0.2123407 0.112142794 0.18226057 -0.20047535 0.058732312 0.19394249 0.053500243
-0.14845102 -0.09141246 -0.104000986 -0.057517495 0.12240285 0.14320305 -0.21267352 -0.012320949
-0.04910506 -0.13145563 0.30054855 -0.043027297 -0.39370793 -0.2589929 -0.1585386 0.11800723
0.097823694 -0.13970053 0.1124961 0.025203703 -0.08062644 -0.34896976 0.10995733 0.17926624
-0.15973295 -0.055657342 0.108759314 0.12309951 -0.041158844 -0.107006416 0.16591133 0.07299693
-0.0034673044 0.18117644 -0.18782333 -0.2347558 -0.14072001 -0.30204532 0.15898912 0.22654772
-0.2532343 0.11501843 -0.23008968 -0.32940677 -0.2625304 -0.10753392 -0.12076317 -0.06993917
-0.18932828 -0.021252062 -0.044938434 0.30156696 0.049835313 0.097366005 -0.20828797 -0.0831561
0.08710867 -0.029023392 -0.03454553 -0.03626281 -0.0993875 -0.0841817 -0.027097957 -0.09437533
-0.40198708 0.022618454 -0.059042778 -0.24003601 0.13417967 -0.02703261 0.13044025 -0.33831018
-0.3555035 -0.2449687 -0.13223028 -0.10340087 0.050687615 -0.3619743 -0.11169718 0.22807823
-0.120999224 -0.28219935 -0.11646801 0.20714466 -0.24157697 -0.029428063 0.14608787 -0.15298913
0.22480965 -0.052015122 -0.042892996 -0.18211055 -0.10800408 0.21979259 0.11943292 0.09810278
-0.05725136 -0.11927296 -0.06984854 0.17056495 0.18238148 0.11436623 0.044785038 -0.24246226
0.09828763 -0.24487598 -0.15833832 -0.010368199 0.20355998 -0.17358324 0.05769931 0.12919451
-0.01519939 0.00341422 -0.19313464 0.18378295 0.0842196 -0.36656624 0.23956995 0.09711874
-0.14213504 0.25292838 0.17330329 -0.23180935 0.05836988 -0.09114641 0.27091643 -0.042034995
0.093069404 0.016399592 0.25111592 0.15382951 0.068252675 -0.05235506 0.21977857 -0.18041499
-0.09827864 -0.3632694 -0.020024389 -0.24212167 0.114450075 -0.28830248 -0.33564383 -0.22061865
0.1941767 -0.020824766 -0.038010117 -0.055601504 -0.055278383 0.09164782 0.2732535 0.19001754
-0.22477484 -0.17076074 -0.031556178 0.15295954 -0.11165198 0.14581221 0.2754232 0.26078287
00000000: 7563 0bbe de72 bebd a4c3 b2bc 14ae 1cbe
00000010: 2cc5 5cbe 1199 5f3e 3f43 9d3e 1dc2 39be
00000020: d77c 41be 092c 87be 03a8 35be 9459 edbd
00000030: 3816 863e 7ffd 1c3e 4711 fc3d 3f45 cf3b
00000040: 94b9 01bd 267f 54bc e6dd c53b 6ae3 793d
00000050: 53e3 5e3d fdbf 113b e6ac d33d 5a4a c9bd
00000060: 4cda df3d af3a 7dbe 4a31 0abe 71af a13e
00000070: 170d 8abe dd5d 62be e84d 22be 8c1d 773e
00000080: d326 003e 7edf 46bb 40bf 823e 5dda 6f3e
00000090: 39f1 513e e41d 71bd a9f2 b0be 221f 1bbe
000000a0: 6bab 73bd a82d ac3e f959 123c 47a1 473e
000000b0: 7fcc a0bd 7a02 64be dd5b 463d cd4d 33be
000000c0: 4e4c a5be 6ab6 243d 0d73 9e3d 6d1e 31be
000000d0: e011 9d3d acab 5e3d 0ec0 333d 5eda 34be
000000e0: 4211 0ebe 0447 e739 7020 a6bd 3557 45bd
000000f0: 9ef8 7ebe aa42 43be 604e e2bc 67de 7e3d
00000100: 382a 073e 35eb 7bbe d8ea 8d3e 32f3 54be
00000110: d228 3c3d 7c67 0ebe 866b e53d 29f8 7c3d
00000120: 6cc7 7bbd 7e91 653e 8d8a 903d 7b90 b8be
00000130: 0582 82be 1bec dc3d 6809 04be 647d 1f3e
00000140: 4d61 11bd 8c3d 2e3e 8646 713d 05f0 b03d
00000150: ffb4 4cbc dbfb a9bc 65aa f73d 6cf1 463d
00000160: eee5 b5be d76f 593e 1fab e53d 84a2 3a3e
00000170: 6949 4dbe 4b91 703d dc98 463e 1223 5b3d
00000180: 8b03 18be 7536 bbbd 78fe d4bd 7797 6bbd
00000190: 58ae fa3d d2a3 123e 16c7 59be cedd 49bc
000001a0: 6322 49bd 4e9c 06be 80e1 993e 643d 30bd
000001b0: 1694 c9be b89a 84be f157 22be c6ad f13d
000001c0: ca57 c83d a80d 0fbe 5b64 e63d ff77 ce3c
000001d0: 7a1f a5bd 2aac b2be 4f31 e13d 9291 373e
000001e0: 0991 23be f4f8 63bd 34bd de3d 991b fc3d
000001f0: 2d96 28bd 2e26 dbbd a9e4 293e 6a7f 953d
00000200: b73b 63bb 5186 393e c254 40be d363 70be
00000210: e818 10be afa5 9abe 0bce 223e 20fc 673e
00000220: eda7 81be c88e eb3d a19c 6bbe 01a8 a8be
00000230: 626a 86be be3a dcbd ae52 f7bd 443c 8fbd
00000240: 46df 41be ce18 aebc 5d11 38bd fc66 9a3e
00000250: 1d20 4c3d d467 c73d 7149 55be bf4d aabd
00000260: 0866 b23d 77c2 edbc 9d7f 0dbd 5088 14bd
00000270: ac8b cbbd 7567 acbd 89fc ddbc da47 c1bd
00000280: 40d1 cdbe 564a b93c d7d6 71bd 00cc 75be
00000290: 6566 093e 7e73 ddbc 2192 053e fe36 adbe
000002a0: 8e04 b6be 13d9 7abe 6067 07be d6c3 d3bd
000002b0: d19d 4f3d b254 b9be 7ec1 e4bd 578d 693e
000002c0: 71ce f7bd 6f7c 90be c886 eebd bb1d 543e
000002d0: f45f 77be 1f13 f1bc 0f98 153e 2fa9 1cbe
000002e0: 8034 663e cf0d 55bd 91b0 2fbd 307b 3abe
000002f0: 3e31 ddbd 4f11 613e 3f99 f43d 1cea c83d
00000300: 6780 6abd 6245 f4bd c00c 8fbd 94a8 2e3e
00000310: 36c2 3a3e d838 ea3d 8470 373d 0748 78be
00000320: 064b c93d c5c0 7abe 7123 22be 61df 29bc
00000330: 0772 503e cebf 31be 1d56 6c3d 914b 043e
00000340: dd06 79bc 1bc1 5f3b 16c5 45be 9931 3c3e
00000350: 537b ac3d 92ae bbbe d351 753e 31e6 c63d
00000360: d98b 11be d47f 813e 6b76 313e 6e5f 6dbe
00000370: 4115 6f3d f8aa babd 8fb5 8a3e e32c 2cbd
00000380: 2c9b be3d 7058 863c 4492 803e 7c85 1d3e
00000390: 0fc8 8b3d 4272 56bd a20d 613e b5be 38be
000003a0: 5046 c9bd 72fe b9be 300a a4bc beee 77be
000003b0: cd64 ea3d 629c 93be 82d9 abbe dbe9 61be
000003c0: 42d6 463e b398 aabc 7fb0 1bbd 67be 63bd
000003d0: 966b 62bd dab1 bb3d e2e7 8b3e f593 423e
000003e0: 602b 66be e7db 2ebe 0d41 01bd 6da1 1c3e
000003f0: cba9 e4bd cc4f 153e 4504 8d3e 5585 853e

gc2.bias f4 [10]
-0.33128238 0.015663594 0.11577788 -0.3803308 0.39063457 -0.13605623 -0.12396287 -0.093932755
-0.21602145 -0.35785574
00000000: d89d a9be f050 803c f41c ed3d b8ba c2be
00000010: 4101 c83e 5352 0bbe 3fe0 fdbd d15f c0bd
00000020: ba34 5dbe de38 b7be
