save_model/baseline/st-GCN-Pubmed-10-0.650000.pth (torch, 130751 bytes, 4 tensors)

gc1.weight f4 [500, 64]
000000 fa 73 91 bd 83 81 14 3d 5c ff e3 3d 82 63 be 3b
       -0.07102199 0.036256324 0.1113269 0.005810202
000010 60 11 ab ba 50 b7 16 bb 43 89 c5 3d 95 ef 30 bd
       -0.0013051443 -0.0022997446 0.09645321 -0.043197233
000020 a9 02 d2 3d a2 b5 bb bc f6 7f ae bd 01 23 49 3c
       0.10254414 -0.022913758 -0.085205 0.012276412
000030 e3 0b 7a 3c 24 5f 97 3c 21 87 11 bd b6 59 9b bd
       0.015261623 0.018477984 -0.03552926 -0.075854704
000040 c7 2f 90 bc 75 45 49 bd b6 b7 a4 bd d0 ef fe ba
       -0.017600907 -0.049138505 -0.080428526 -0.0019450132
000050 89 ea ee bc de 44 5d 3d b5 d3 77 3d 00 6c ae 3d
       -0.02916457 0.054020755 0.060504634 0.08516693
000060 04 bc 2b 3d 9d 55 1f 3c 03 a3 f0 3d 32 58 8d bd
       0.041927353 0.009725002 0.11749842 -0.069015875
000070 e2 9d 9a 3d 3a 2d ba bd bc f0 47 3d 5d 6c 7f 3d
       0.07549645 -0.090906575 0.048813567 0.062359203
000080 a9 20 d5 bd da 3e d8 3b f6 0f 97 3c 6f 72 12 3e
       -0.1040662 0.0065992894 0.018440228 0.14301465
000090 a1 1d c5 3d 3b 2f 7e 3d 90 be e4 bb 14 7e 16 3d
       0.09624792 0.06205676 -0.0069807246 0.03674133
0000a0 36 8e 1b bd fc 7c 0c be c0 76 aa bd e6 d7 9b 3d
       -0.03797742 -0.13719553 -0.08323431 0.07609539
0000b0 28 70 c5 3c 2c 6b 8a bd 00 2a 47 bc 1f 4e ef bd
       0.024101332 -0.06758723 -0.01215601 -0.11684822
0000c0 11 3c 1e bc 76 34 09 3e 5b 5c a4 bd 13 2e dc bd
       -0.009657876 0.13398919 -0.08025428 -0.107509755
0000d0 71 5d 36 3d 80 63 0c b8 f0 66 03 3c f7 92 db bb
       0.044522706 -3.3471268e-05 0.008020148 -0.006700869
0000e0 c0 d3 ab 39 3f 79 99 bd f9 0e 0c be f2 32 16 bd
       0.00032773428 -0.07493829 -0.13677587 -0.03666968
0000f0 14 48 60 3d 73 33 6a bc b4 98 a6 3d b0 26 03 ba
       0.05475624 -0.014294493 0.081345946 -0.00050030183
000100 1b be ca 3d e9 67 10 3e b3 3d 32 3d d0 9b 84 3c
       0.09899541 0.14102139 0.043515872 0.016187578
000110 fb 62 36 3d c9 0e a5 bd 8c 87 bf 3b c5 f6 fc 3d
       0.04452799 -0.08059461 0.005845016 0.12351755
000120 70 3d 03 be fe cb 7e bd 7a 47 f0 3b 8a 55 44 3c
       -0.12816405 -0.06220626 0.0073327394 0.011983285
000130 fa 0b d2 3d 60 05 aa bd da a7 3a bd 3e 94 b8 bc
       0.102561906 -0.083018064 -0.045570232 -0.022531625
000140 68 07 a0 3d f1 4e cf 3d 22 e7 4f bd ed 66 07 3d
       0.07813913 0.10122479 -0.050757535 0.033057142
000150 92 28 a1 3d 8a 52 9b 3d be 7e 7b 3d 2b 8c b9 bc
       0.07869066 0.075841025 0.061400168 -0.022649845
000160 6a 8f d2 bd e2 31 e2 bc d5 ce df 3d 27 79 30 3d
       -0.1028126 -0.027611677 0.10928122 0.04308429
000170 02 c8 8e bc 65 79 d1 bd 54 ab 03 bd 51 3c c1 bd
       -0.017429356 -0.10228232 -0.032145813 -0.094353326
000180 40 29 2d 3c 0f ab 7e bb 60 fc 87 3d 78 d5 48 3d
       0.010568917 -0.0038859283 0.066399336 0.049031705
000190 ce 18 cf 3d 64 19 a4 3d ca c2 a2 3d 32 ae e9 bb
       0.10112153 0.080126554 0.07947309 -0.0071313614
0001a0 3a 07 10 bd 2a cc a3 3c 10 de e7 3c 88 f5 30 3b
       -0.03516314 0.019994814 0.02830413 0.0027001817
0001b0 98 ee 9a bc 67 ee 95 3d b7 de b7 bd 31 e3 b5 bd
       -0.018912598 0.07320862 -0.08978026 -0.08881224
0001c0 9c c3 5f 3b eb bf d5 3d 6f 1e c9 3d 28 85 85 bd
       0.0034143692 0.10436996 0.09820258 -0.06519538
0001d0 30 34 10 3d f3 c8 05 bd 27 eb 34 3c 19 1d ab bd
       0.03520602 -0.032662343 0.011042393 -0.08355159
0001e0 23 07 b4 3d 39 f2 a6 3d 2d 34 88 bd 94 8c 64 bb
       0.08790424 0.08151669 -0.06650577 -0.003487383
0001f0 17 d4 58 3d b4 ef a6 3d 46 a6 9a bd a6 a1 9e bb
       0.05293664 0.081511885 -0.075512454 -0.0048410473
000200 a9 93 56 3d ef e5 02 3e a4 31 68 bc e5 9a 65 3b
       0.052386913 0.12783025 -0.0141719915 0.0035034951
000210 14 df cc bc b7 1f 86 3d be 4a 45 3d 5e 0b c6 3d
       -0.025008716 0.06549018 0.048166983 0.09670137
000220 7b e7 b5 3d 8b b4 d2 bc 1b df cc 3d 5a 2d f5 3b
       0.08882042 -0.025720855 0.100034915 0.007482213
000230 48 c1 56 bd ab f9 4a bc 82 d6 fa 3c b8 a6 91 bd
       -0.05243042 -0.012388627 0.030619863 -0.07111877
000240 45 6b d5 3c 8e 7a a3 bd ec 52 cb bb c0 b0 81 bc
       0.026052127 -0.0798236 -0.0062049534 -0.015831351
000250 0b 3c 05 3e 6c 81 bb bb 77 45 bd 3d 70 f0 91 3d
       0.13011186 -0.0057222154 0.09241765 0.07125938
000260 b4 0c c9 bd 59 a7 c4 bd a6 33 07 3e a6 f8 9c bd
       -0.09816876 -0.096022315 0.13203296 -0.076646134
000270 a0 b3 27 3d 82 5e 83 3c 93 28 0e 3e 98 a3 75 bc
       0.040942788 0.016036276 0.13882665 -0.014992617
000280 2c 33 b9 3d 4f bc 29 3d 8b be e1 3c 3a 60 bb bd
       0.090429634 0.04143935 0.027556678 -0.09149213
000290 16 8b d5 3c 3a 6a cc bd a7 0c 82 3d fa 3b c3 3c
       0.026067298 -0.099811986 0.063500695 0.02383231
0002a0 51 94 a9 bd d1 27 eb bd b4 f5 d3 bd 14 d1 1d 3d
       -0.08280242 -0.11482204 -0.103495985 0.03852947
0002b0 a8 52 d2 3d 6c ba a0 3c dc 07 68 bc b5 be be 3d
       0.10269672 0.019620143 -0.01416203 0.09313718
0002c0 2c 63 a9 bd 5b b8 83 3d 50 a6 76 3d 6b e5 a5 3d
       -0.08270869 0.064316474 0.0602172 0.08100399
0002d0 ea 09 b1 3c 9d dc 48 3d e9 ab b3 bd 0e 78 c8 bd
       0.021611173 0.04903852 -0.08773024 -0.097885236
0002e0 42 35 84 3d 70 ea 80 bd 14 96 2f bd 58 30 6e 3b
       0.064554706 -0.062947154 -0.042867735 0.0036344733
0002f0 4c f5 cf bd 9e fe b5 bd 89 20 e6 3d 1f 67 c0 3b
       -0.101542085 -0.08886455 0.11236674 0.005871668
000300 24 e8 d9 3c e1 ae 8d 3d d8 d3 63 3d 70 0e 7d bb
       0.026599951 0.06918121 0.05562195 -0.0038613342
000310 d8 5f 56 3d 40 e4 7b bb ba 38 97 3d 61 f2 87 3d
       0.052337497 -0.0038435608 0.073838666 0.06638027
000320 5f 7a d2 bd 6a 26 dc bc f8 d3 bd 3d 20 ac 12 be
       -0.10277247 -0.026873786 0.092689455 -0.14323473
000330 8a d8 65 3c 96 fa b5 3d aa 58 df bc 8a a2 8e 3d
       0.014028678 0.08885686 -0.027263958 0.069645956
000340 d3 50 53 bd 1e 3f 41 bd e2 68 85 bc 8c 15 b9 3c
       -0.05159075 -0.047179334 -0.016285364 0.022593282
000350 53 19 c8 3d 88 93 be ba 74 44 20 3d 33 b6 6c bd
       0.09770455 -0.0014539817 0.039127782 -0.057790946
000360 8f 13 53 3d 10 21 d4 3d d8 55 cb ba 3e 18 4d bc
       0.051532324 0.10357869 -0.0015513254 -0.012517987
000370 38 81 d3 bd c3 88 18 3d 66 ba 8a bd d9 cc 03 3e
       -0.10327381 0.0372398 -0.06773834 0.12871112
000380 96 e6 2c 3c b5 64 60 3c 44 2a 4c bd 08 4d ab bc
       0.010553023 0.013695885 -0.049844995 -0.020910755
000390 12 08 bd 3d d7 42 0c be a6 e6 ff bc c8 ec 90 bc
       0.09230055 -0.13697372 -0.031237911 -0.017691031
0003a0 b8 b7 ab bd e8 45 29 3d 6f 5d 0f bd bf 51 d6 bd
       -0.08384651 0.041326433 -0.035001215 -0.104648106
0003b0 5d fb 78 3c 62 4d 37 3d 8d 98 7c bd fe 85 f5 bc
       0.015196648 0.044751532 -0.06166892 -0.029971119
0003c0 81 c8 fa bd 7c 2e b7 bc 6c bb cf bc e0 3f 4c 3d
       -0.12245274 -0.022361033 -0.025357924 0.049865603
0003d0 a8 f5 e4 3a e0 7b 84 3c a3 e2 39 3d ea 1a 2e bd
       0.0017468231 0.01617235 0.045382153 -0.042506136
0003e0 92 67 fc bb 00 af 22 3d 70 6a f7 3a 30 e8 58 bd
       -0.007702776 0.039717674 0.0018876325 -0.052955806
0003f0 17 d5 52 3c 78 31 4b 3d 9c be c5 bd dd b2 7f 3d
       0.012868187 0.049607724 -0.096554965 0.062426437

gc1.bias f4 [64]
000000 b5 cf d9 bc 4b 59 00 3d c0 7a 49 bb 17 05 a3 bd
       -0.0265883 0.031335156 -0.003074333 -0.07959955
000010 08 5b ca bd 05 56 d3 3d 6d a8 7a bd 23 6b 93 3d
       -0.09880644 0.10319141 -0.06119578 0.07198169
000020 a1 ac 7d 3d 6a 52 fd 3c e5 d2 8b 3d c2 f9 2b 3c
       0.06193221 0.030923087 0.06827334 0.010496559
000030 68 11 a6 bd b3 f5 94 3d 28 20 61 bc a7 4b 9c 3d
       -0.08108789 0.07273426 -0.013740577 0.07631617
000040 36 ad 76 bd 2e 21 b6 3d 7c ad b0 bd 24 51 18 bd
       -0.06022378 0.08893047 -0.086268395 -0.037186757
000050 44 79 96 3d 13 48 59 bd 76 5c cd 3d 9f cf 06 3e
       0.07347348 -0.05304725 0.10027401 0.13165139
000060 0e ca 93 bd 17 40 0c bd 3e 91 fb 3d 70 78 38 ba
       -0.07216273 -0.03424081 0.12283562 -0.00070369896
000070 f0 14 b7 bc af 1e 88 bc 82 d8 02 3e 2a 24 89 3d
       -0.022348851 -0.016616194 0.12777904 0.06696351
000080 a9 eb 20 bd 7b f3 5e bd 29 c0 7d 3d c2 6e 10 3d
       -0.039287243 -0.05443142 0.061950836 0.035261877
000090 e8 4c ee bb a6 a7 2c 3d cb 99 cf 3d ba de b5 3d
       -0.0072723515 0.04215207 0.101367556 0.08880372
0000a0 0c 70 00 bd 42 a1 86 3d 1d 01 0f 3e b0 e6 76 bd
       -0.031356856 0.06573726 0.13965268 -0.060278594
0000b0 76 0f bc 3b 06 d0 b3 3d 79 72 1b bd f8 06 9f 3d
       0.005739148 0.08779912 -0.037950967 0.07765001
0000c0 94 f9 7b bb 82 1f 0c 3e fb 8a 9d bd 14 43 18 3c
       -0.003844832 0.13683894 -0.07692524 0.009293336
0000d0 80 28 1d bd 9e 0f e8 bc c4 d0 e4 bc 7b 3d 8a bd
       -0.038368702 -0.02832776 -0.027931578 -0.06750008
0000e0 49 67 53 3d a0 f9 da bc 21 df b2 3c 08 52 45 3b
       0.051612172 -0.026730359 0.021834912 0.003010871
0000f0 ff e5 0d bd 5b 98 a0 bd 04 a9 ec bb 14 4f a8 bd
       -0.03464317 -0.078415595 -0.0072222967 -0.08218208

gc2.weight f4 [64, 3]
000000 d4 f1 59 bd ea 1d 91 be e1 7b 31 3e 1a ce fb 3d
       -0.05320914 -0.28343135 0.17332412 0.1229517
000010 f7 a1 a4 3e cc 18 5e 3e a7 ed 04 3f 0b 1d 61 3d
       0.3215482 0.21689147 0.5192513 0.05495934
000020 49 5b 0a bf 19 2a d1 bd 81 da eb 3e 8f 5e ff 3e
       -0.5404554 -0.102131076 0.46065143 0.4987683
000030 6c 34 93 be 76 54 03 bf a1 27 01 3f f9 38 aa be
       -0.28750932 -0.5130075 0.50451094 -0.33246592
000040 24 30 dd be 0a 92 91 3d 45 60 a5 be 8a 36 a8 bd
       -0.4320079 0.07107933 -0.3230001 -0.082135275
000050 4f 85 e2 3e dd 9a 7b 3e 58 86 96 3e b0 85 14 bf
       0.4424233 0.24570794 0.2939937 -0.5801649
000060 9e ca 93 bc f4 9b 49 be 56 7c e6 bd a9 b0 d9 be
       -0.018040951 -0.19688398 -0.11254184 -0.42517594
000070 54 47 6f be aa 59 e9 be db f5 56 be de 6f c5 bd
       -0.23367053 -0.4557622 -0.20992224 -0.096404776
000080 57 3e e3 3e da d6 83 3e c8 26 65 be ca a2 b1 3e
       0.443835 0.25749856 -0.22378075 0.3469451
000090 22 c9 08 3f db 30 cb be e4 a5 a8 be cd 97 9c be
       0.53431904 -0.3968571 -0.32939065 -0.30584565
0000a0 3e e9 b3 3d 57 b5 46 3e bc 34 13 bf d1 dd ed be
       0.08784722 0.19405113 -0.5750234 -0.46458295
0000b0 ca aa 91 3e c9 4d 04 bf 68 34 f5 bc cd 44 c4 be
       0.28450614 -0.5168119 -0.029932216 -0.3833374
0000c0 fd 04 54 be 21 e0 97 3e ab e3 85 3e 7b 5c 16 bf
       -0.20705028 0.29663184 0.2615026 -0.58734864
0000d0 7e 4d f1 3d 73 0b 0b 3e 87 5c 4e 3e 62 53 ac bd
       0.117823586 0.13578586 0.20152484 -0.084143415
0000e0 a5 a1 bf 3e 6e a3 50 3e 14 79 26 be 9f f3 cc be
       0.37428012 0.20374843 -0.16257125 -0.40029618
0000f0 65 85 83 3e a1 bd b7 3e a0 ca 5e 3b 7d 02 73 3e
       0.2568771 0.35886863 0.0033995286 0.23731418
000100 d7 bc 76 3d d4 2c f7 3d f4 0a 21 3e 40 de e3 be
       0.060238685 0.12069097 0.15726835 -0.445055
000110 88 74 14 bf 29 b0 b6 bd 75 88 e9 3e 7f a7 8c bd
       -0.5799031 -0.08920319 0.4561192 -0.06867885
000120 9d 2b f1 3e cb 1b 15 be ba 95 df be 98 72 5f be
       0.47103587 -0.14561383 -0.4366892 -0.21821058
000130 93 f3 e8 be 24 8d fe be 24 65 ad 3d 55 0c 98 3d
       -0.45498332 -0.49717057 0.08466557 0.07424227
000140 8e b0 9b be 98 9f b1 be d3 af df 3e 88 cb db be
       -0.30408138 -0.34692073 0.4368883 -0.4292872
000150 d8 17 0a bf 6b c6 ce be ed 01 a1 be af cc 00 bf
       -0.5394263 -0.40385756 -0.31446782 -0.5031232
000160 21 b2 0e 3f 54 53 fb 3e 23 93 9a be 97 08 06 3f
       0.55740553 0.49087012 -0.3019038 0.5235686
000170 eb 6d 0d 3f 24 a6 ce 3e 49 b1 eb 3e 59 fe a5 be
       0.55245847 0.4036113 0.46033695 -0.32420614
000180 db 06 d0 be 63 2c cb be 44 78 96 be d3 88 b7 bd
       -0.4063023 -0.39682302 -0.2938863 -0.08961644
000190 8a 69 df be 0f 0c e4 3e 7b 83 0f bd 88 86 84 bd
       -0.43635207 0.4454045 -0.0350375 -0.06470972
0001a0 4a a7 f2 be 86 58 6d 3e 6e eb c1 3e f9 eb 0d bf
       -0.47393256 0.231783 0.3787493 -0.5543819
0001b0 b8 4e c5 3e 3f 4e 31 be a4 b1 94 be 27 33 39 3e
       0.3853662 -0.17315005 -0.2904178 0.1808592
0001c0 88 be 02 bf b4 be de bd ac 93 01 3f 6d 46 cf 3e
       -0.5107198 -0.108762175 0.50615954 0.40483418
0001d0 67 a9 76 3e aa 55 b9 bd c6 8e d2 be a4 ab dc 3e
       0.2408806 -0.09049542 -0.41124552 0.430997
0001e0 b5 b3 8e 3e 8d c9 ff 3e 51 54 29 be ff 1a d3 3d
       0.2787148 0.4995846 -0.1653607 0.103078835
0001f0 91 65 88 be de c2 61 be c0 c0 a7 be a5 34 14 3d
       -0.2663999 -0.22046992 -0.32764244 0.03618302
000200 f8 52 9a bd 11 b1 bf 3b 17 17 5f be 26 d3 80 3e
       -0.07535356 0.0058499654 -0.21786152 0.25161093
000210 0f 7e 02 bf 19 39 99 bd f6 6a d0 be 37 da c9 3e
       -0.509736 -0.07481594 -0.40706605 0.39424297
000220 2b 3e 8c 3e 5c 18 a9 be cc 86 70 3d fc 65 70 be
       0.2739118 -0.33026397 0.058722302 -0.23476404
000230 c3 b1 fc 3e 8b 98 61 3e 72 6a 1f be 0f 27 a1 3e
       0.4935437 0.22030847 -0.1556795 0.31475112
000240 3a 75 3a 3e 66 75 58 bd c7 88 83 3e 8e 80 06 bf
       0.18208781 -0.052846335 0.2569029 -0.5253991
000250 d0 3b f9 3d 52 36 c2 3e e1 d5 0d 3e bf 28 fd be
       0.121696115 0.37932068 0.1385112 -0.4944515
000260 08 98 36 be cd 04 81 3e a0 72 4e be 97 19 e9 be
       -0.17831433 0.25198975 -0.20160913 -0.45527336
000270 bb 2a 54 3e fa 14 63 be e3 de f5 be fd d0 cf bd
       0.20719425 -0.2217597 -0.48021612 -0.10147283
000280 e2 95 10 be c9 b2 85 3e 3c 98 04 bf ca c3 b5 be
       -0.14119676 0.26112965 -0.5179479 -0.35500938
000290 47 bc 62 3e 8a 78 8b be e3 a4 e0 3d e6 ee fb be
       0.22142135 -0.27240402 0.1096895 -0.49205703
0002a0 c2 6a f1 3e 25 73 0e be 94 42 92 3e 8d f2 90 be
       0.47151762 -0.13911112 0.2856642 -0.28310052
0002b0 60 6b f7 3e 34 c5 01 3d 9e 8b ba bb b4 c6 8a be
       0.48324108 0.03168221 -0.005692913 -0.27104723
0002c0 90 61 e9 ba 3a 0d 74 be 8d f1 aa be d1 5d 4a be
       -0.0017805565 -0.2383317 -0.33387414 -0.1976235
0002d0 87 b5 8f bd d4 83 fe bd 46 ac 6a 3d 92 2f d9 be
       -0.070170455 -0.12427488 0.0572932 -0.42419106
0002e0 e6 d8 02 bf c7 69 b0 be 20 df 42 be ce 53 83 3e
       -0.5111221 -0.34455702 -0.19030428 0.25649875
0002f0 a8 73 0a bf ec 13 0c bf 63 40 f9 be 26 d8 8a 3d
       -0.5408273 -0.547179 -0.48681936 0.06779508

gc2.bias f4 [3]
000000 a7 8f dc 3e c2 fe 43 3e 74 d9 fe 3e
       0.43078348 0.19140151 0.4977528
