save_model/baseline/st-GCN-Pubmed-3-0.650000.pth (torch, 130751 bytes, 4 tensors)

gc1.weight f4 [500, 64]
00000000: 6611 0b3c d156 023e 7a02 783e 15f4 53be
00000010: c8df a73e 5e60 74be f7c2 a4be 6b2e d4be
00000020: cea3 00be 03a8 d53e 2db9 3bbe c3f2 203c
00000030: 7268 393e 904f 543b c3b8 963b eea1 80be
00000040: cf6a 5e3e 3d46 73be fd9d 94be 048d a73e
00000050: 0ba4 e0bb 5835 6ebe 6ab5 bdbe 8b9e aabe
00000060: 1c2a 073e 59a2 823e 3c4d fd3c b482 90be
00000070: 1216 9b3e d684 cfbb c74a 35be 019b 413e
00000080: 14f7 1f3e 552e a83e 4412 06bc 3d45 b2bd
00000090: 07af 5b3e b5a8 a4be c7cb 023e d986 393e
000000a0: 4bd4 803d ec6d cf3e fee8 97be 614a c13e
000000b0: 929a 55be b479 30be 952c 85be b2fd aa3e
000000c0: 1abf babb f9ca 10be 6562 95be cac2 cfbe
000000d0: a429 64be 4f1f 293e aabd 233b ff09 03be
000000e0: d033 373e 21b2 443e 89be 42be 6365 5c3e
000000f0: be41 e93d 2a05 0d3c 5e62 913e 2b57 263e
00000100: e053 adbb 55b7 73bd 21e2 03be 5c5b ac3d
00000110: a0e0 e1bd e28d 213e 52a9 afbc b241 b13d
00000120: bebc 1dbb 53da d1bd 154d 033e fcfe 47bb
00000130: d399 d9bb f01b 3039 f686 1c3c cfa1 a43d
00000140: a2e2 043e e011 8e3c 78e6 08b9 d7e4 81bc
00000150: e2a2 993b ce09 cb3d bc0e 9b3d a334 433e
00000160: d922 f7bd cac8 cbbd 0631 32bc 47db b03d
00000170: c231 e2bd a049 4939 a577 f7bc 6ada 863c
00000180: f10a f73d 5865 f4bc 0a48 b63b ad91 debc
00000190: 3682 d4ba 5719 2c3e f539 85bd c04d 6fbd
000001a0: 4aa6 27bd cbd4 54bd f746 8f3d d13e 92bc
000001b0: 1e85 053e 0caf 83bd 9b98 6a3c 78ac b33d
000001c0: 686a 52bb a8dc bc3a 6068 e83d 80ee de3d
000001d0: 1681 fb3d 9c2c 3cbd 0ea4 383b 06b3 da3d
000001e0: 4695 99bd d0ce c13d 63d9 e33d 56d8 c7bd
000001f0: 059b 01bd 6300 5fbd be43 b7bd 50df 613d
00000200: 6306 dabb 2ee4 20bd 0979 acbd 489b ea3d
00000210: 5fe4 2ebd 90f6 d83d d474 74bd af8e 363e
00000220: 0c8c a03b 3bf2 51bd 6117 473e fa1e 533b
00000230: e47b bc3b 5a1a 423b 4b2e 0fbc 7bcc 1c3e
00000240: 37f1 153e c35f 90bc 2cc9 dcbc 7dd4 48bd
00000250: f2a7 b23b ebcc 833d 6b78 c03d e364 403d
00000260: f6f2 58bd 664b aa3c bfb9 abbb 624e 393d
00000270: 8bef 88bd 9c2c 693b b235 43bb 2b97 cf3c
00000280: 190d 1e3e 1668 cdbc 43bf c6bb de06 a23c
00000290: 716d 53bb 7f83 323e 9853 0cbd 8e93 e1bc
000002a0: c4d2 84bb ea73 87bc ba22 fd3c 6b55 33bc
000002b0: 6c64 433e 3ad3 10bc 2caa 913c 31b3 143e
000002c0: bb78 973b 5bd4 45bc 522e 153e f47f 393e
000002d0: c83d 343e 09d9 11bd 5aa3 763b fa79 223e
000002e0: 064e 80bd ac5e 013e 6f15 173e 6e63 8ebd
000002f0: ee80 84bc a5e6 97bc 9c1a 2bbd 59cf e43d
00000300: 4578 0a3c 98dd 19bd 01eb 5ebd f513 e93c
00000310: 5336 d1bd 97b1 a53d 18b4 0dbe 3e9c bfbc
00000320: b1be 17bd 5bfb 063d 8602 d43d a9b3 d13a
00000330: 8c2d bc3d 8533 10ba 7ec2 453b 06af 4e3c
00000340: f325 0f3e 3ab5 e7bd 85c1 02be 15b6 043d
00000350: b886 2f3c f893 83bd 8dbd 0fbe ca01 173d
00000360: cf44 20be e0fa 10bb d836 803a 1fbe 87bd
00000370: 9da7 f6bd 39d6 a43b 7bcb bcbd e895 ab3d
00000380: 2818 293e 8a4a a83d 15dc 09bc a9df 55bd
00000390: 7807 0d3d 68c4 cb3d 24da e0bd c28c 8a3c
000003a0: c228 89bb 3ad5 9e3d 8606 c9bd b853 803d
000003b0: 91c6 7fbd f33f 0bbe 6a97 16bd 532a 4a3e
000003c0: 8ad9 203c 418d 29bd fd7d f3bc dd0f 813d
000003d0: d8b8 e03d 82c3 cabc 2491 5a3a 8d32 1b3e
000003e0: 5b93 9c3d d44c d73d e552 8e3d 63a8 b4bd
000003f0: 53af 09bc 8a66 f6bd 5e60 c2bd 60df 273e
0.008488035 0.1272843 0.24219695 -0.20698579 0.3278792 -0.23864886 -0.32179996 -0.41441664
-0.12562487 0.41729745 -0.18332358 0.009823504 0.18106249 0.0032396056 0.004599662 -0.25123543
0.21720432 -0.23757263 -0.29026785 0.32724774 -0.006855493 -0.23262537 -0.3705247 -0.33324084
0.13199657 0.25514486 0.030920617 -0.2822472 0.30290276 -0.006332974 -0.17704307 0.18906786
0.15621597 0.3284785 -0.008183066 -0.087046124 0.21453486 -0.32159963 0.12773047 0.18117847
0.06290492 0.4051355 -0.29669946 0.3775206 -0.20859745 -0.17233926 -0.26010576 0.3339668
-0.0056990506 -0.14139928 -0.29176632 -0.405783 -0.2228151 0.1651585 0.0024984875 -0.12796782
0.17890859 0.19208576 -0.19017996 0.21523051 0.113894925 0.008607188 0.2839536 0.1624419
-0.0052895397 -0.05950101 -0.1287923 0.08415863 -0.11029172 0.1577678 -0.021443043 0.086551085
-0.0024068798 -0.1024672 0.12822373 -0.0030516973 -0.0066406517 0.00016795075 0.009553662 0.08038675
0.12977079 0.017342508 -0.00013055827 -0.01585619 0.0046886066 0.099139795 0.0757117 0.19063048
-0.120671935 -0.09950407 -0.010875946 0.08635574 -0.11044647 0.00019196281 -0.030208418 0.01646157
0.12062634 -0.02983348 0.005562787 -0.027169073 -0.0016213122 0.16806541 -0.06505195 -0.058423758
-0.04093007 -0.051960748 0.06995957 -0.017852219 0.13039061 -0.06429872 0.014318611 0.0877313
-0.003210688 0.0014409022 0.11348033 0.10885334 0.122804806 -0.04594098 0.0028173956 0.10678677
-0.07499175 0.094632745 0.111254476 -0.0975806 -0.03164198 -0.05444373 -0.08948468 0.055144608
-0.0066535934 -0.03928011 -0.08421523 0.11455399 -0.04269826 0.10593903 -0.05968173 0.17827867
0.0048995074 -0.0512564 0.19442512 0.0032214508 0.0057520736 0.0029617758 -0.008739064 0.15312378
0.14642797 -0.017623788 -0.026951395 -0.04903077 0.0054521495 0.064355694 0.09397968 0.046971213
-0.05296608 0.020787906 -0.0052406485 0.045240767 -0.06686314 0.0035579568 -0.0029786644 0.025340637
0.15434684 -0.025074046 -0.0060652806 0.019778665 -0.0032261277 0.17432974 -0.03425941 -0.02753618
-0.0040534455 -0.016534764 0.030900348 -0.010945658 0.19081277 -0.008839423 0.01778134 0.14521481
0.0046225465 -0.012074555 0.14568451 0.18115216 0.17601693 -0.03560737 0.0037633986 0.15866843
-0.06264882 0.1263377 0.1475427 -0.069525585 -0.01617476 -0.018542597 -0.041773424 0.11172361
0.008451526 -0.037564844 -0.054423336 0.028451899 -0.1021544 0.08090513 -0.13838232 -0.023389932
-0.037047092 0.032954555 0.10352044 0.0015998977 0.09188375 -0.0005500841 0.003017574 0.012614971
0.1397932 -0.11313863 -0.12769134 0.03240021 0.010713272 -0.06424707 -0.14037152 0.03686694
-0.15651248 -0.002212219 0.000978197 -0.066280596 -0.120436884 0.00503042 -0.09218498 0.08378202
0.16513121 0.08217342 -0.008414288 -0.052215252 0.03443095 0.09949571 -0.10979107 0.016912822
-0.004185767 0.077555135 -0.09815697 0.06265968 -0.062445227 -0.13598613 -0.036765493 0.19742708
0.00981749 -0.041394476 -0.029723162 0.06301854 0.10972756 -0.024751429 0.00083376677 0.15156002
0.07645293 0.10512701 0.069494046 -0.0882118 -0.008403617 -0.120312765 -0.09491037 0.16393805

gc1.bias f4 [64]
00000000: 123b 1bbc 472e 973d f1d7 fb3d a8dd 0c3e
00000010: 4179 073e 562a d13d a358 0c3e 47c1 153e
00000020: bd5f 4d3d 9a9b ce3d f2fe 453e fbfd e2bc
00000030: a92c 083e f4ab dbbc a0ce 03bd c8b1 3c3e
00000040: a0e2 0c3e 4d6d ed3d f9c7 173e 4506 493c
00000050: 8868 cabc effa 073e 48e7 0a3e c3e0 413e
00000060: 9a81 173e ac4f e63d 027c d83b 1947 4d3e
00000070: fc9a 2f3e 87a9 ffbc 0ef0 b23d 940e 283e
00000080: c25f 193e 69c8 6b3d be4b 82bd 176a 753d
00000090: 2049 243d 39df 223e 206c e63d 03e9 5a3d
000000a0: f83d 22bd 3f72 9f3d 3302 323e 3708 b63c
000000b0: 0010 393e 3aaa fe3d 5881 be3d 938e 0b3e
000000c0: a19b 28bd 2857 8a3d 1a1a 453e 435a 393e
000000d0: 0937 533e c81c 9d3d b469 88bd ca68 3a3e
000000e0: 1b4c f53d 0331 013e af0c 043e 1b62 f73d
000000f0: 202b d13c 8a31 f93d b1c3 003e 0fcb 1d3e
-0.009474533 0.073818736 0.12297047 0.1375643 0.13229848 0.10213153 0.13705687 0.1462451
0.05014013 0.100882724 0.19335535 -0.027708998 0.13298286 -0.026815392 -0.032179475 0.18427193
0.13758326 0.11593113 0.14822377 0.012269561 -0.024708048 0.13279317 0.1356479 0.18933396
0.14795533 0.11245665 0.0066065798 0.20046653 0.17148966 -0.031208767 0.08737193 0.16411811
0.14977935 0.057564173 -0.06362103 0.05991563 0.0401088 0.15905465 0.11251092 0.053444874
-0.03960988 0.077854626 0.17383651 0.022220714 0.1807251 0.12434812 0.09302014 0.13628606
-0.041164044 0.06754905 0.19248238 0.18100838 0.20626463 0.07671505 -0.06660786 0.18204036
0.119774066 0.12616353 0.12895463 0.12079259 0.025533259 0.12167652 0.1257465 0.15409492

gc2.weight f4 [64, 3]
00000000: 96de 3fbc a642 393d 4be4 f33b 980e e63d
00000010: 7017 89be 5e38 143e bcaa 3b3e 9d89 27bf
00000020: 3f72 713e 08c4 09bf dad4 6ebd b63d 0bbf
00000030: 28ba fd3d cf37 05bf ffff fa3e 6db5 36bf
00000040: 051d a53e d0a2 05bf 2371 afbe 847b bebe
00000050: 70df 0b3f d9f9 1fbf 3451 ee3e baf5 303e
00000060: d90a 7bbe e44f 65be 9ff6 d93d ee84 f63e
00000070: cd6b 1fbf 72c6 0a3e 9171 12bf ffb1 9d3e
00000080: 4b9c 19bf 9d33 013e d950 6a3d 35b7 7e3d
00000090: 95cb 053e 4c2b 89bc b29d c6be 994b 0ebe
000000a0: 642f f23b 5b62 93bd fac1 0ebe c4f7 8abb
000000b0: 03d8 7bbd 9e16 96be 2b55 1f3f d0a7 493e
000000c0: 6832 003f 397f 373f b6a8 ccbe 11bb 32bf
000000d0: e69a 12bf db46 fe3d ded3 36bf 9fca 15bf
000000e0: b825 953d 0d1f 993e 3e27 8fbe f266 bbbe
000000f0: e558 00be 83b7 8cbe eb16 fdbc b320 0dbf
00000100: 6423 af3e b47e 013f b5b6 24bf 6340 783e
00000110: ca45 4d3f 4d39 18bf 6f86 233f 5cd5 873e
00000120: ce85 53be 3669 3fbf f925 213f 9a03 4c3e
00000130: 5085 26bf 2f7c 463f fad0 873e e090 0cbe
00000140: 4f92 403b 5553 d0be 26a8 9d3e d81a d03e
00000150: 1e16 b9bc 759e 26bf 8f6e bf3e 30a9 483e
00000160: 943b ad3b 79f1 273c b8c0 c9be 3efa e4be
00000170: 6f2c 743e 387e 8c3c ec41 d5bd ffc5 02bf
00000180: 1559 a23e 3396 fe3e 9da8 08bf 323d 963e
00000190: ddcb d8be e69b b3be 7eaa f73b 4112 1dbe
000001a0: ddcf 99bd 276a 153d d268 17bd a011 ec3e
000001b0: 4200 55be c544 07bf 986f b8be 2274 13bf
000001c0: be53 6f3e 394c 3abf fa4e a73c ac7e e1be
000001d0: b201 3a3f e3a2 e73e a508 23be 44e9 b43e
000001e0: 7efd ee3e 596a f4ba 18b5 c5be df2f e83e
000001f0: 29c1 04bf b400 d0be 149b 97be d109 ac3e
00000200: feff 213f c094 ca3e 70da 4cbe 3bef 14be
00000210: 4adb 23bf 2fd5 fb3e a6e7 f13e 761f a4be
00000220: 42ea f9be b736 ee3e 1521 cc3d 0159 b13e
00000230: c83c 1e3f 8b76 823c b9d3 203e b768 2cbf
00000240: 3805 c73c 1ed8 34be e0b7 1bbe 7eeb 2abe
00000250: 1588 21be ef2c 3a3e 5e87 f7be 9fa5 153f
00000260: 3c01 9d3e d01b 1bbf 1f36 fe3e 2515 92be
00000270: 5ba5 11be 6f6b b93e 2b98 0fbf 3809 333e
00000280: db17 23be 334d 573e af30 193e 8d4b e23c
00000290: fda2 83be 253c 93be 6e25 a03b 4e21 46bf
000002a0: 44b6 fc3e d30d 76bd 7802 9dbd 3bc7 8a3e
000002b0: 9cda c63e 4eab f7be eb52 21be 4fa5 e53e
000002c0: 2498 53be 58eb 843e 1b9c a0be 6a5d 043f
000002d0: e59a 983d 85a9 13be 1c55 1e3d e313 63be
000002e0: 0d2f 02bf dc65 eb3e d2f4 c73b e5c6 1fbf
000002f0: 804b d63e 88df 0a3f d102 eb3e 1ea6 bfbe
-0.0117107835 0.045229577 0.007442986 0.11233252 -0.26775694 0.14474627 0.18326849 -0.65444356
0.23578738 -0.53814745 -0.05830846 -0.5439104 0.12389022 -0.5203828 0.49023435 -0.71370584
0.32248703 -0.5220156 -0.34266004 -0.3720361 0.54637814 -0.6249061 0.46546328 0.17281237
-0.24515857 -0.22393757 0.10642742 0.48148292 -0.62273866 0.13552263 -0.5720454 0.30799863
-0.6000411 0.12617345 0.05720601 0.06218644 0.13065942 -0.016744278 -0.38792187 -0.13896026
0.0073909033 -0.07196494 -0.13941184 -0.0042409617 -0.0614853 -0.2931413 0.6223933 0.19692922
0.50076914 0.716785 -0.39972466 -0.6981669 -0.57267606 0.12415858 -0.71417034 -0.585123
0.07282585 0.29906502 -0.27959627 -0.3660198 -0.1253391 -0.27483758 -0.030894717 -0.5512802
0.34206688 0.5058396 -0.6434129 0.24243312 0.80184615 -0.59462434 0.63877004 0.26529968
-0.20656511 -0.74769914 0.62948567 0.19923249 -0.6504717 0.7753324 0.26526624 -0.1372714
0.0029384082 -0.40688577 0.3079235 0.4064548 -0.022593554 -0.65085536 0.37389037 0.1959579
0.0052866433 0.010250443 -0.39404845 -0.4472217 0.23845075 0.01715003 -0.10412964 -0.5108337
0.3170859 0.49723968 -0.53382283 0.29343563 -0.42343035 -0.3507988 0.007558166 -0.15338995
-0.0751035 0.036478188 -0.0369652 0.46107197 -0.2080088 -0.5283931 -0.3602264 -0.5759908
0.23371789 -0.72772557 0.020423401 -0.44041955 0.72658837 0.4524146 -0.15921266 0.35334218
0.46677774 -0.0018647417 -0.38614726 0.45349023 -0.5185724 -0.40625536 -0.29610503 0.3360124
0.6328124 0.39566612 -0.20005202 -0.14544384 -0.64006484 0.49186084 0.47247046 -0.32055253
-0.48811537 0.4652612 0.099672474 0.34638217 0.61811495 0.015925666 0.15705766 -0.6734728
0.02429448 -0.17660567 -0.15206861 -0.16691396 -0.15774567 0.18181203 -0.48345464 0.5845584
0.30665004 -0.60589314 0.49650666 -0.28531757 -0.14223234 0.36214778 -0.56091565 0.17483985
-0.15927069 0.21025543 0.14959978 0.027623916 -0.25710288 -0.28756824 0.0048872745 -0.7739457
0.49357808 -0.060071778 -0.076664865 0.27105126 0.3883866 -0.48372883 -0.15754287 0.44852683
-0.20663506 0.25960803 -0.313691 0.5170504 0.07451419 -0.14420135 0.038655385 -0.22175555
-0.50853044 0.4597615 0.006102183 -0.62412864 0.41854477 0.5424733 0.45900586 -0.37431425

gc2.bias f4 [3]
00000000: aa9d e53d 6ffa b33e af78 56be
0.11211713 0.35152003 -0.20944475
