save_model/baseline/st-GCN-Cora-10-0.650000.pth (torch, 370623 bytes, 4 tensors)

gc1.weight f4 [1433, 64]
0.00055802753 0.02910671 0.004701771 -0.005901106 0.006600588 -0.014977188 -0.012782259 -0.00015478255
-0.02055215 0.04888157 -0.0054647624 0.0123646455 0.03520402 0.0074739126 0.0070139505 -0.012159553
0.01111061 -0.006430925 -0.022420922 0.026150718 -0.008286572 0.008066593 -7.885409e-11 0.02533426
-0.035244934 0.002326975 -0.016396035 -0.0016680151 0.0065191975 0.031068042 -0.00037208572 -0.020704513
0.005363493 -0.0009044573 -0.010362697 -0.017814199 0.012425928 0.008174574 -0.0018219377 -0.004871459
0.0046868892 0.005703251 -0.0078368215 0.011375288 0.009708546 -0.0008470698 -0.022334274 -0.021330282
0.009343085 0.01611959 0.040394317 0.022033375 0.016698003 0.013122657 -0.030665185 0.020106565
0.00077023567 0.008800272 -0.0039022004 0.008146765 0.015394577 0.03051762 -0.040611655 0.0017270362
-0.056212675 0.0680432 -0.035351686 0.022084704 0.024962625 -0.07049204 -0.03466913 -0.036085457
-0.046138056 0.092209615 -0.01689647 0.10700361 0.02604337 -0.03916858 0.04418542 -0.07245733
0.066742904 0.026269985 -0.0026874554 0.010653399 -4.5275083e-06 -0.015140033 -4.9642717e-09 0.115155764
-0.07548229 -0.07526977 -0.044407103 -0.022209382 0.019033646 -0.0050694314 0.018304711 -0.05031679
-0.010761195 -0.009480076 -0.057219848 -0.07011896 0.00473021 0.030515315 0.080483176 -0.040476684
0.07345283 -0.010707108 0.015292178 -0.020044645 -0.03375829 0.050392162 -0.045316786 -0.075852044
0.04522957 0.03183555 0.08475964 -0.0010268395 -0.058217335 0.011733327 -0.0022346182 0.009798154
-0.045796007 0.05949421 -0.041297134 0.043682996 -0.008238312 0.0859744 0.022316305 -0.00023403653
-0.03489929 -0.03920868 -0.057146113 0.063129075 -0.07019942 0.010477262 0.021013852 0.049276937
-0.007299278 0.018471304 0.0994829 0.013985137 -0.010629456 -0.0206371 0.0065102438 -0.019760314
-0.027657315 0.07287811 0.005521681 0.00053455494 -0.026983099 0.08246633 -3.881493e-09 0.059884943
-0.054188818 0.00016135036 -0.003526855 0.002521768 -0.014610398 -0.0136778075 -0.010026643 -0.015597779
0.044829316 -0.07078155 -0.012374274 -0.047707774 0.09847825 -0.020949373 0.01832183 -0.006913579
0.0070863506 -0.06493941 -0.020923696 0.027635306 -0.034056835 -0.015919454 0.002961147 -0.0053296746
0.07158365 -0.018394757 0.07144533 0.03998591 0.016534505 -0.006025165 0.0046417736 -0.023897802
0.07291293 -0.028904883 -0.030910002 -0.016996028 0.054223914 0.058695223 -0.015516559 0.0041202824
0.17238796 -0.04103487 0.14656056 0.16972485 0.0028946714 0.15336417 0.13782719 0.08686562
0.15043451 -0.13376133 0.018231403 -0.10951969 -0.15339948 -0.087134145 -0.10274978 0.037535034
-0.14749324 0.056837395 0.19844101 -0.109236084 -0.040137753 0.054997858 -1.4584258e-08 -0.11436895
0.2126239 0.056962002 0.058983985 0.034833107 -0.050211128 -0.15641558 0.01550349 0.21500428
0.14962606 -0.051798336 0.18469712 0.24578556 0.019946037 -0.06014082 -0.07818617 0.15612745
-0.04057824 -0.13377379 -0.06805413 0.081201926 -0.041778497 -0.07279215 0.25625756 0.1699133
-0.052820157 -0.0559089 -0.22212015 -0.06306624 -0.01889551 -0.07218821 0.24554606 -0.14256604
0.058114637 -0.05107674 0.037203033 -0.06839371 -0.032167558 -0.21935515 0.13947476 -0.090757094
00000000: 9848 123a 3271 ee3c 5011 9a3b 115e c1bb
00000010: bf49 d83b e162 75bc ae6c 51bc 204d 22b9
00000020: fc5c a8bc 0b38 483d c011 b3bb 1595 4a3c
00000030: 1732 103d b9e7 f43b 48d5 e53b dd38 47bc
00000040: 4709 363c 82ba d2bb 15ac b7bc 083a d63c
00000050: 67c4 07bc be29 043c e866 adae cb89 cf3c
00000060: fe5c 10bd 2a80 183b fa50 86bc 4da1 daba
00000070: fe9e d53b 6882 fe3c 8014 c3b9 839c a9bc
00000080: 3ec0 af3b 1a19 6dba 4dc8 29bc 15ef 91bc
00000090: 1f96 4b3c a6ee 053c 16ce eeba c3a0 9fbb
000000a0: 7a94 993b 56e2 ba3b 0366 00bc 6a5f 3a3c
000000b0: 9810 1f3c e40d 5eba 5ef6 b6bc d8bc aebc
000000c0: bd13 193c 3b0d 843c 8374 253d 567f b43c
000000d0: 40ca 883c 6a00 573c 8e35 fbbc 86b6 a43c
000000e0: a4e9 493a 042f 103c 0fbc 7fbb 027a 053c
000000f0: 8939 7c3c 1600 fa3c 6858 26bd b85d e23a
00000100: 433f 66bd 3c5a 8b3d eecc 10bd fbea b43c
00000110: 6b7e cc3c 215e 90bd 3801 0ebd 58ce 13bd
00000120: 42fb 3cbd 65d8 bc3d 776a 8abc b524 db3d
00000130: e858 d53c 3c6f 20bd c5fb 343d 8264 94bd
00000140: 81b0 883d 2734 d73c 0520 30bb 988b 2e3c
00000150: 00eb 97b6 e70d 78bc 3292 aab1 c9d6 eb3d
00000160: 7596 9abd 0a27 9abd 39e4 35bd 73f0 b5bc
00000170: 73ec 9b3c 791d a6bb c3f3 953c fa18 4ebd
00000180: b94f 30bc 5252 1bbc 5c5f 6abd 889a 8fbd
00000190: e1ff 9a3b 41fb f93c 5dd4 a43d e1ca 25bd
000001a0: 706e 963d de6c 2fbc 0b8c 7a3c ab34 a4bc
000001b0: 2246 0abd 0368 4e3d 189e 39bd 5158 9bbd
000001c0: a442 393d fe65 023d 7696 ad3d 0497 86ba
000001d0: 4d75 6ebd 243d 403c ac72 12bb 7088 203c
000001e0: 9894 3bbd 33b0 733d 2f27 29bd f1ec 323d
000001f0: fcf9 06bc 5913 b03d afd0 b63c b467 75b9
00000200: 8ff2 0ebd 4899 20bd 0b12 6abd d149 813d
00000210: b7c4 8fbd d2a8 2b3c 3e25 ac3c 9dd6 493d
00000220: c82e efbb 2251 973c b1bd cb3d eb21 653c
00000230: 2b27 2ebc 230f a9bc e253 d53b 62e0 a1bc
00000240: 9891 e2bc 1e41 953d 38ef b43b 6021 0c3a
00000250: a90b ddbc 1be4 a83d f95d 85b1 ea49 753d
00000260: 18f5 5dbd 2830 2939 cf22 67bb 3f44 253b
00000270: 7360 6fbc e218 60bc ca46 24bc d48d 7fbc
00000280: f29e 373d ebf5 90bd 78bd 4abc 3a69 43bd
00000290: f7ae c93d 059e abbc aa17 963c 4e8b e2bb
000002a0: 9e34 e83b f4fe 84bd 2c68 abbc 7063 e23c
000002b0: 2e7f 0bbd 8469 82bc ce0f 423b 8da4 aebb
000002c0: 739a 923d 9ab0 96bc ee51 923d 44c8 233d
000002d0: 5f73 873c bf6e c5bb 051a 983b 53c5 c3bc
000002e0: 6053 953d efc9 ecbc f936 fdbc 413b 8bbc
000002f0: e519 5e3d 676a 703d 2a39 7ebc 6f03 873b
00000300: 7886 303e 2e14 28bd f913 163e 5acc 2d3e
00000310: 87b4 3d3b 7f0b 1d3e 9222 0d3e 9ae6 b13d
00000320: 810b 1a3e bbf8 08be 065a 953c dc4b e0bd
00000330: c114 1dbe 6373 b2bd 7a6e d2bd 56be 193d
00000340: 7808 17be 54ce 683d 1f34 4b3e 2bb7 dfbd
00000350: 7c67 24bd 6f45 613d 3f8e 7ab2 453a eabd
00000360: 14ba 593e fd50 693d 3199 713d 29ad 0e3d
00000370: 2faa 4dbd 682b 20be 5a02 7e3c 152a 5c3e
00000380: 9337 193e 7e2a 54bd 3e21 3d3e 36af 7b3e
00000390: df65 a33c 3856 76bd 1220 a0bd e0df 1f3e
000003a0: 5e35 26bd fffb 08be f75f 8bbd 324d a63d
000003b0: ee1f 2bbd 0d14 95bd 3134 833e c1fd 2d3e
000003c0: f359 58bd bb00 65bd 7773 63be df28 81bd
000003d0: c2ca 9abc 6ad7 93bd 6d70 7b3e d5fc 11be
000003e0: 9d09 6e3d d835 51bd 3562 183d 0012 8cbd
000003f0: 21c2 03bd a39e 60be 79d2 0e3e dbde b9bd

gc1.bias f4 [64]
0.05158853 0.08868738 0.084737316 0.06174989 0.08824586 0.063323155 0.048237 0.05445317
0.0471636 0.097732514 0.044202827 0.07151878 0.07311833 0.058822263 0.070335686 0.064328134
0.06978689 0.045567557 0.06415434 0.07573782 0.058449656 0.05192602 7.2194553e-09 0.07310468
0.084127575 0.06276698 0.045560706 0.051242135 0.06244185 0.06753101 0.10952978 0.03867859
0.07355314 0.11877787 0.06109569 0.081283234 0.059801884 0.08850211 0.060899764 0.083784014
0.06949398 0.063056186 0.06109299 0.054870337 0.0699058 0.09405626 0.04550412 0.06641041
0.047454856 0.08894383 0.062440515 0.06252527 0.06286943 0.059310734 0.06452134 0.075144
0.03217978 0.09253602 0.06939245 0.09655719 0.07623356 0.058615685 0.0666114 0.054999433
00000000: 7f4e 533d bba1 b53d c28a ad3d 74ed 7c3d
00000010: 3fba b43d 92af 813d 2994 453d 4a0a 5f3d
00000020: 9e2e 413d fc27 c83d 060e 353d 7078 923d
00000030: 10bf 953d 9def 703d 280c 903d 78be 833d
00000040: 6eec 8e3d 0ca5 3a3d 5a63 833d 6e1c 9b3d
00000050: e868 6f3d 61b0 543d 000f f831 e8b7 953d
00000060: 144b ac3d f98b 803d dd9d 3a3d 46e3 513d
00000070: 06c3 7f3d b34d 8a3d 2651 e03d 716d 1e3d
00000080: 07a3 963d d041 f33d 793f 7a3d d377 a63d
00000090: d2f2 743d 9840 b53d 0872 793d f496 ab3d
000000a0: dc52 8e3d 9a23 813d a53c 7a3d b8bf 603d
000000b0: c62a 8f3d 92a0 c03d 8762 3a3d 2e02 883d
000000c0: 0660 423d 2f28 b63d a0c1 7f3d 400d 803d
000000d0: b0c1 803d d0ef 723d c423 843d 19e5 993d
000000e0: f2ce 033d 8683 bd3d a11d 8e3d c7bf c53d
000000f0: 5720 9c3d 0017 703d 8f6b 883d 1647 613d

gc2.weight f4 [64, 7]
1.644649 0.41583273 -1.3451754 -1.6651317 1.7268178 -1.0930253 0.33397448 -1.4803952
1.8035337 -1.4756701 1.7413324 1.7768794 -1.3232459 -1.0694441 0.5392065 0.1199363
-1.2996283 1.0907072 1.2489302 -1.4755017 -0.293136 1.2231873 0.28358006 -1.4741153
1.3485438 -1.5110956 1.034818 -0.5678018 -0.98222625 -0.16730703 -1.1672798 1.4538304
1.501738 -1.1332058 -0.02498037 1.0324544 -0.05294914 1.3007021 1.2339939 -1.2437235
-1.1825597 -0.7648697 0.95636183 -0.38727278 -1.1788137 0.3689517 -0.04065984 0.51232433
-0.48129112 1.2375286 -0.19360864 -1.3393484 -1.5878648 1.5145304 1.0331532 -0.5410248
0.9627269 -0.5573739 1.0268523 1.1223489 -0.88695455 -1.0608866 -0.5590411 -1.7330154
1.1425368 -1.512282 1.1520981 1.2383076 1.1873226 -1.1288304 1.100678 0.85058916
0.6813866 -1.5856692 -1.4660395 1.0089102 -0.33639148 -1.3930712 0.06902265 -1.0690354
1.4684701 -1.2942786 1.4251254 0.50759465 -1.1639106 -0.13236615 1.3419929 -1.2496419
1.1963017 0.93888825 -0.704967 -0.43925074 -0.6108487 1.5973392 -1.41282 1.5074141
-1.07391 0.39720497 -1.2642283 0.58152246 1.517075 1.2828779 -1.2183689 -1.1790732
-0.060734898 0.7649311 -0.5816856 1.3339982 -1.4383588 1.2937813 -1.300263 0.106647454
-1.0577955 -0.7751787 -1.0726582 -1.4119523 1.4973761 1.4935654 1.2695081 1.2428946
1.1919473 -1.5557169 -1.4556202 -1.5379351 1.190144 1.0545288 1.4712815 0.69689834
-1.2412062 1.0705845 -1.9821897 -1.068761 0.948842 -1.1765522 -0.060956027 1.156122
-0.7133358 0.849431 0.50290823 -0.6640483 -0.9436644 -0.550235 1.7137703 1.547682
-1.1780816 -1.1208593 0.4244218 1.1614285 0.7438398 1.2494893 -1.4997362 -1.5897988
0.5981707 -0.3648749 -5.1423747e-08 3.72997e-08 -6.305008e-08 3.6129293e-08 7.0252213e-09 -7.430649e-08
2.053466e-07 -1.4196126 0.69096327 -1.0754204 1.2308415 -1.3039335 1.2475811 -0.03232458
1.2046767 -0.77673876 -1.4227337 1.2437613 0.98158276 -1.4254888 0.16247801 0.6508042
-0.1377231 1.2234772 -1.08589 1.0436715 -1.1712558 -0.41202903 1.4410144 -0.7126002
-1.4425259 -1.614458 1.2701318 1.0509398 0.24814402 0.8694083 -0.7431132 -1.1336771
-1.324187 1.4429305 1.0102955 0.06891301 -1.15119 -0.08285417 1.4792793 1.3740306
-0.8914148 -0.5070278 -0.47615367 -1.1335747 0.3985192 1.4213924 -1.6442891 1.7312232
-1.0643828 -0.098761134 0.036961112 -0.044629633 -0.3508667 -0.17672989 0.011115226 -0.081176296
0.6244863 1.2413248 -0.20503582 -0.9271061 0.92402834 -0.3764433 -0.7552391 -0.34638894
0.90776914 1.3485894 1.2408577 1.1903328 -2.1058183 -1.4715244 -1.0047827 -1.3610302
-0.6388942 1.1595854 1.0262506 1.1726732 -1.3600787 0.027352406 1.476401 0.22103326
-1.1105801 -0.9682744 1.3150394 -1.197925 0.0441171 1.0921904 -0.43513116 -1.3308532
1.3844371 1.2336485 -1.3162366 -0.52002436 1.1031351 0.6603402 1.0191753 -1.4967626
00000000: dc83 d23f 07e8 d43e b52e acbf 0923 d5bf
00000010: 5e08 dd3f 41e8 8bbf b4fe aa3e 977d bdbf
00000020: 31da e63f c2e2 bcbf fbe3 de3f c970 e33f
00000030: 1f60 a9bf 8be3 88bf 7009 0a3f 2aa1 f53d
00000040: 385a a6bf 4b9c 8b3f f2dc 9f3f 3ddd bcbf
00000050: ec15 96be 6791 9c3f 6831 913e cfaf bcbf
00000060: 159d ac3f 956b c1bf eb74 843f 755b 11bf
00000070: 2e73 7bbf 8952 2bbe 6d69 95bf 1d17 ba3f
00000080: f338 c03f e30c 91bf a2a3 ccbc 7727 843f
00000090: 33e1 58bd 687d a63f 83f3 9d3f 5532 9fbf
000000a0: 1e5e 97bf 80ce 43bf 21d4 743f 9e48 c6be
000000b0: 5ee3 96bf 3de7 bc3e ef8a 26bd b027 033f
000000c0: ca6b f6be 5667 9e3f 5841 46be c56f abbf
000000d0: 273f cbbf 22dc c13f 5d3e 843f 9a80 0abf
000000e0: 4575 763f 0eb0 0ebf e56f 833f 21a9 8f3f
000000f0: 740f 63bf 22cb 87bf 511d 0fbf 73d3 ddbf
00000100: a53e 923f 7592 c1bf f377 933f dd80 9e3f
00000110: 30fa 973f 847d 90bf 04e3 8c3f 36c0 593f
00000120: 5a6f 2e3f 35f7 cabf 2fa7 bbbf f823 813f
00000130: 813b acbe 2850 b2bf bf5b 8d3d 27d6 88bf
00000140: d4f6 bb3f ecaa a5bf 826a b63f b9f1 013f
00000150: 06fb 94bf fe8a 07be 6cc6 ab3f 44f4 9fbf
00000160: 6a20 993f fb5a 703f b878 34bf 79e5 e0be
00000170: 9560 1cbf 9c75 cc3f 49d7 b4bf f2f2 c03f
00000180: e275 89bf 735e cb3e 3cd2 a1bf a8de 143f
00000190: 832f c23f 5835 a43f 83f3 9bbf dfeb 96bf
000001a0: 28c5 78bd 86d2 433f 59e9 14bf 74c0 aa3f
000001b0: 241c b8bf a09a a53f 056f a6bf fb69 da3d
000001c0: d865 87bf 1c72 46bf dd4c 89bf daba b4bf
000001d0: 05aa bf3f 272d bf3f 3e7f a23f 2c17 9f3f
000001e0: bb91 983f bb21 c7bf c351 babf 0fdb c4bf
000001f0: a356 983f cdfa 863f f452 bc3f ee67 323f
00000200: d8df 9ebf ea08 893f 64b8 fdbf 29cd 88bf
00000210: 4fe7 723f 4399 96bf 07ad 79bd cefb 933f
00000220: 2d9d 36bf 4f74 593f 98be 003f 12ff 29bf
00000230: fd93 71bf 33dc 0cbf d35c db3f 721a c63f
00000240: 61cb 96bf 5178 8fbf d04d d93e b0a9 943f
00000250: 496c 3e3f 44ef 9f3f 5bf7 bfbf 877e cbbf
00000260: b721 193f e2d0 babe 02dd 5cb3 7433 2033
00000270: 2666 87b3 942c 1b33 8062 f131 6d92 9fb3
00000280: 3e7d 5c34 deb5 b5bf f8e2 303f 60a7 89bf
00000290: 378c 9d3f 4be7 a6bf bdb0 9f3f c766 04bd
000002a0: d932 9a3f 5ad8 46bf 231c b6bf 9233 9f3f
000002b0: 0249 7b3f 6b76 b6bf a360 263e 1b9b 263f
000002c0: 4907 0dbe e79a 9c3f 72fe 8abf 0797 853f
000002d0: b6eb 95bf 78f5 d2be 2973 b83f f76c 36bf
000002e0: b0a4 b8bf 8fa6 cebf ae93 a23f 3285 863f
000002f0: 7719 7e3e 8b91 5e3f ab3c 3ebf 551c 91bf
00000300: f67e a9bf f2b1 b83f 5d51 813f 4422 8d3d
00000310: 325a 93bf 72af a9bd 0659 bd3f 3ce0 af3f
00000320: c333 64bf 93cc 01bf 6aca f3be fa18 91bf
00000330: b50a cc3e 30f0 b53f 1178 d2bf b998 dd3f
00000340: b23d 88bf 4743 cabd 8964 173d 90cd 36bd
00000350: cda4 b3be aef8 34be a31c 363c c23f a6bd
00000360: 56de 1f3f bbe3 9e3f e9f4 51be d356 6dbf
00000370: 1f8d 6c3f 2dbd c0be 5a57 41bf e459 b1be
00000380: 8f63 683f 949e ac3f 6dd4 9e3f d35c 983f
00000390: bac5 06c0 e95a bcbf b89c 80bf 3d36 aebf
000003a0: 928e 23bf 4b6d 943f 2e5c 833f 281a 963f
000003b0: 0f17 aebf 2712 e03c b5fa bc3f 8b56 623e
000003c0: 7d27 8ebf d5e0 77bf 3653 a83f 9b55 99bf
000003d0: 22b4 343d e5cc 8b3f 83c9 debe 6659 aabf
000003e0: 3c35 b13f 32e8 9d3f 717a a8bf 5120 05bf
000003f0: 8833 8d3f 0e0c 293f 5674 823f eb95 bfbf

gc2.bias f4 [7]
-0.33397338 -0.99739057 0.57252795 0.50758326 -0.07759576 0.41884443 -0.36305436
00000000: 8ffe aabe fd54 7fbf 3191 123f faf0 013f
00000010: 87ea 9ebd c772 d63e 43e2 b9be
