save_model/baseline/st-GCN-ACom-3-0.650000.pth (torch, 200895 bytes, 4 tensors)

gc1.weight f4 [767, 64]
0	0xbb1f6550	-0.0024321862
1	0xbcd59511	-0.026072057
2	0xbbbcc8f8	-0.005761262
3	0x3c723305	0.014782672
4	0xbd8aabfa	-0.06771083
5	0xbd85fae7	-0.065419964
6	0x3d898c10	0.06716168
7	0xbdcc013f	-0.09961175
8	0xbd4939b3	-0.049127292
9	0xbdc5c340	-0.096563816
10	0xbdb8a75c	-0.09016296
11	0xbd907be7	-0.070548825
12	0xbc83cc71	-0.016088696
13	0x3cb11701	0.021617414
14	0xbda61e0a	-0.08111198
15	0xbbbe477b	-0.005806861
16	0x3d81dfb9	0.063415
17	0xbd8ceb00	-0.0688076
18	0x3d86b6fc	0.0657787
19	0x3d0b333b	0.033984404
20	0x3db54438	0.08850902
21	0xbc3ba2c4	-0.011452381
22	0xbe1924fe	-0.14955518
23	0xbd8934bd	-0.06699512
24	0xbcf1f524	-0.029535837
25	0x3cebb2c7	0.028771771
26	0x3c411f31	0.011787222
27	0xbd07f134	-0.033189014
28	0xbcb72e9d	-0.022361094
29	0x3d0c8e9c	0.03431569
30	0xbda4732a	-0.08029778
31	0xbd52ac39	-0.051433776
32	0xbe1a3662	-0.15059808
33	0x3dbc5988	0.09196764
34	0xbd1802a6	-0.0371119
35	0x3c89b625	0.016810486
36	0x3c4c7358	0.012478672
37	0x3bc6f7ad	0.0060720057
38	0x3c4e23c9	0.012581774
39	0xbb2e0d86	-0.0026558354
40	0x3d70ea70	0.058817327
41	0xbcb92356	-0.022599857
42	0xbcf58745	-0.029971728
43	0xbe12c786	-0.14333925
44	0x3de27dd3	0.11059155
45	0x3ce9924c	0.028512143
46	0xbac7fcfb	-0.0015257889
47	0x3dca3392	0.098731175
48	0x3dc6deaa	0.097104385
49	0xbddc9b29	-0.10771782
50	0xbe0d4615	-0.13796265
51	0xbdd82e44	-0.105556995
52	0xbd9eb2f3	-0.077489756
53	0x3d139843	0.03603388
54	0xbd91f7fe	-0.07127379
55	0x3e00b1d4	0.12567836
56	0xbd15eada	-0.036600925
57	0xbd8c0591	-0.06836999
58	0xbb0e766d	-0.0021738068
59	0x3d5dbd06	0.054135345
60	0xbdbd0a57	-0.09230488
61	0x3c055c5c	0.008139696
62	0x3ca1b942	0.019741658
63	0xbd482833	-0.048866462
64	0xbd10274a	-0.03519372
65	0xbe09ea09	-0.13468184
66	0xbe2268f3	-0.15860347
67	0xbc5cd724	-0.013479028
68	0x3dd7232a	0.10504754
69	0xbdd2a99a	-0.10286255
70	0xbda2ff1d	-0.07958815
71	0xbdb645a5	-0.089000024
72	0x3d20f189	0.039292846
73	0xbc0afd17	-0.008483193
74	0xbc48ab8f	-0.012247934
75	0xbd52d44d	-0.051471997
76	0xbd08f61b	-0.03343783
77	0x3d74ede0	0.059797168
78	0x3d9bdcf2	0.07610501
79	0xbd48589b	-0.048912626
80	0xbd6b45d6	-0.057439648
81	0xbcceba74	-0.025235392
82	0xbc97f236	-0.018548112
83	0xbd80b196	-0.06283872
84	0x3d7fe764	0.06247653
85	0x3d77f595	0.06053694
86	0xbcef1798	-0.029186055
87	0x3e001084	0.125063
88	0x3d22f1e6	0.039781474
89	0x3dc82601	0.09772874
90	0x3c0a38cf	0.008436396
91	0x3ccb7618	0.024836585
92	0x39ef694c	0.00045664085
93	0xbca85e5c	-0.020552807
94	0xbe0db03c	-0.1383676
95	0xbdba0386	-0.09082703
96	0xbd98d541	-0.0746255
97	0xbca2361e	-0.019801196
98	0x3d7be3ef	0.06149667
99	0x3daf60c6	0.0856338
100	0xbcbde8cc	-0.023182295
101	0xbe06ba33	-0.13156967
102	0x3bcc5b6f	0.0062364857
103	0x3de9ec33	0.114220046
104	0x3df21b01	0.11821557
105	0x3d5bcf0f	0.053664263
106	0xbde6e96d	-0.11274991
107	0xbdb09e01	-0.08623887
108	0x3d47114a	0.048600473
109	0x3d561ab7	0.05227157
110	0xbd839141	-0.06424189
111	0xbdbe8f5d	-0.09304688
112	0x3c245fbe	0.010032592
113	0x3c64d769	0.013967373
114	0x3dc57064	0.096405774
115	0xbcbcdcba	-0.02305447
116	0xbe0e91af	-0.13922761
117	0x3d284fc0	0.04109168
118	0xbe100a1c	-0.14066356
119	0x3d9cd779	0.07658286
120	0x3dedc469	0.11609728
121	0xbd0cd558	-0.034383148
122	0xbbb53ba9	-0.0055307937
123	0xbbafa156	-0.005359809
124	0x3cd94ad3	0.026524937
125	0xbc49cb97	-0.012316606
126	0x3dfdc5fb	0.123912774
127	0x3d246124	0.040131703
128	0xbd58d3a6	-0.05293622
129	0xbdf0d228	-0.11758834
130	0xbc73d01e	-0.014881162
131	0x3c35355d	0.011060086
132	0xbe057b83	-0.13035397
133	0x3cfb80b4	0.030701019
134	0x39181767	0.00014504568
135	0xbdcd6dee	-0.10030733
136	0xbd49facb	-0.04931144
137	0xbdab1153	-0.08352914
138	0xbe0f6b09	-0.14005674
139	0x3c3c529c	0.011494305
140	0x3dc2246c	0.09479603
141	0xbe247854	-0.16061527
142	0x3d9dba02	0.07701494
143	0xbd231642	-0.03981615
144	0xbd701823	-0.05861677
145	0xbdc8f3c6	-0.09812121
146	0xbdc468a9	-0.09590275
147	0x3c8f654d	0.017504359
148	0x3cdee7e2	0.02721018
149	0xbda101d3	-0.07861676
150	0xbd4e9902	-0.05043889
151	0xbd9c5a47	-0.076344065
152	0x3c81ab85	0.015828857
153	0xbd00b2db	-0.03142057
154	0xbd841562	-0.06449391
155	0xbc2fb8f8	-0.010725252
156	0x3ba830c6	0.0051327674
157	0xbe202539	-0.156392
158	0xbb7c3b1b	-0.0038487378
159	0xbb37c644	-0.002804176
160	0xbe1ead34	-0.15495759
161	0x3e1adcce	0.15123293
162	0xbcccb64a	-0.024989266
163	0xbe141ab8	-0.14463317
164	0x3d581c59	0.05276141
165	0xbdf7d316	-0.12100808
166	0xbc83f9c6	-0.016110312
167	0x3d09e041	0.03366113
168	0x3d47984e	0.048729233
169	0x3b999ca2	0.0046878615
170	0xbe1512c7	-0.14557944
171	0x3ca20097	0.019775672
172	0xbdf0e182	-0.11761762
173	0xbdcf26d3	-0.10114827
174	0xbe0c027e	-0.13672826
175	0xbdc25b11	-0.09490026
176	0xbd02d635	-0.031942565
177	0xbd4bbb05	-0.049738903
178	0xbdeda2bc	-0.11603305
179	0x3dc6bd56	0.09704082
180	0x3c9fcbf7	0.019506438
181	0xbca8f5c8	-0.02062501
182	0x3d41ed9f	0.047345754
183	0x3dc37937	0.09544604
184	0x3deea743	0.116529964
185	0x3d49465e	0.049139373
186	0xbd3bbf6d	-0.045836855
187	0x3c8e26c7	0.017352475
188	0x3caa744c	0.020807408
189	0xbcf9e1a7	-0.030503107
190	0xbcfb7c7b	-0.030699005
191	0xbd27a05d	-0.04092442
192	0xbd0e31e2	-0.03471554
193	0xbda43cc8	-0.080194056
194	0xbe1e324e	-0.15448877
195	0x3c29feec	0.0103757195
196	0x3d1b7fea	0.037963785
197	0xbdb0cd90	-0.08632958
198	0x3d3d6347	0.046237256
199	0xbbd6d9ec	-0.00655674
200	0xbd5dfec3	-0.054198038
201	0x3d2c3aa6	0.04204812
202	0xbc30ff3f	-0.010803043
203	0x3c1b5b57	0.009482226
204	0x3da314e7	0.07962971
205	0xbdfb7f7f	-0.12280177
206	0x3da11f6f	0.078673236
207	0xbd9ca934	-0.076494604
208	0x3d329d67	0.04360714
209	0x3b8e76b2	0.0043476457
210	0x3dd396ac	0.10331473
211	0x3cab3f30	0.020904154
212	0xbe022c08	-0.12712109
213	0xbc1aef10	-0.009456411
214	0xbde85801	-0.113449104
215	0x396a380d	0.0002233686
216	0x3d5f9c16	0.054592215
217	0xbca06a04	-0.019581802
218	0xbe1124e0	-0.14174223
219	0x3df80cbc	0.12111804
220	0xbd1f701e	-0.038925283
221	0xbe0a357b	-0.13496964
222	0xbbf32ec7	-0.007421348
223	0xbd242226	-0.04007163
224	0xbdec8cac	-0.115502685
225	0xbd0e5210	-0.03474623
226	0x3b753103	0.0037413246
227	0xbc161c67	-0.009162045
228	0xbc022ce6	-0.007945275
229	0xbded59fc	-0.11589429
230	0xbbda87de	-0.0066690287
231	0x3ce47ee4	0.027892537
232	0x3ca09f4c	0.019607209
233	0xbd67ffba	-0.056640364
234	0x3d9313ca	0.07181509
235	0x3c55a021	0.013038666
236	0x3d27679c	0.040870294
237	0xbdf57c20	-0.119865656
238	0xbd337698	-0.04381427
239	0x3d88aa6c	0.066731304
240	0x3dd55ab4	0.10417691
241	0xbd313a73	-0.043268632
242	0x3c0284d1	0.007966236
243	0xbb5be9a4	-0.0033556009
244	0xbdf5d93c	-0.12004325
245	0xbdaa882b	-0.08326753
246	0xbe0af923	-0.135716
247	0xbd3e4804	-0.0464554
248	0xbc80a685	-0.015704403
249	0xbd198fc0	-0.037490606
250	0xbc0f8995	-0.008760829
251	0x3b5de586	0.003385873
252	0xbdea709b	-0.11447259
253	0xbd0b8cad	-0.034069706
254	0xbd974463	-0.073860906
255	0x3b517837	0.0031962523

gc1.bias f4 [64]
0	0xbdc35bb8	-0.09538978
1	0x3d90b4ea	0.070657566
2	0xbe1fe378	-0.15614116
3	0xbd8a010a	-0.067384794
4	0xbd1dc2e5	-0.038515944
5	0xbe053b74	-0.13010961
6	0x3d7cfa68	0.061762244
7	0x3d8016cb	0.062543474
8	0x3d90315e	0.07040666
9	0x3d88667e	0.06660174
10	0xbdc20a66	-0.094746396
11	0xbe10d53b	-0.14143841
12	0x3dcd0d15	0.10012261
13	0x3d3eb128	0.046555668
14	0xbb3755b1	-0.002797466
15	0x3d0beb9b	0.034160238
16	0xbcde7a67	-0.027157975
17	0xbd27e7fd	-0.040992726
18	0x3d06ed5e	0.032941215
19	0xbcba8966	-0.022770595
20	0x3e2eb005	0.17059334
21	0xbb153da1	-0.002277233
22	0xbdf18ed3	-0.1179482
23	0xbc29c508	-0.010361917
24	0x3e1685cb	0.14699475
25	0xbd728591	-0.05920941
26	0x3d8afe21	0.067867525
27	0x3968807d	0.0002217311
28	0x3dbdf19d	0.092746
29	0x3d58caf1	0.052927915
30	0xbc24d043	-0.010059419
31	0xbd8120c2	-0.06305076
32	0x3d76ba03	0.06023599
33	0xbc9a34b4	-0.018823959
34	0xbe329eda	-0.1744341
35	0xbe0e0ebb	-0.13872807
36	0xbd19640b	-0.037448924
37	0xbd838f88	-0.06423861
38	0xbdd454be	-0.10367726
39	0x3d95317e	0.072848305
40	0xbcb79deb	-0.022414168
41	0xbdd5acad	-0.10433326
42	0xbc9c622f	-0.019089786
43	0x3d585e0e	0.052824073
44	0x3cf11bf4	0.029432274
45	0xbe109955	-0.14120992
46	0xbd5d62a9	-0.054049168
47	0xbd9d44c8	-0.076791346
48	0x3d7a64b2	0.061131187
49	0x3d1591fc	0.036516175
50	0xbd3f02e4	-0.046633616
51	0xbd9308f7	-0.07179444
52	0xbe20834b	-0.15675084
53	0xbdbc0d16	-0.091821834
54	0xbdf0bc0a	-0.117546156
55	0xbd009e32	-0.031400867
56	0x3d7b2e73	0.061323594
57	0xbd6cbcd6	-0.057797275
58	0xbd052770	-0.032508314
59	0xbcfb1230	-0.03064832
60	0x3c8d4d8c	0.017248891
61	0xbd5645a6	-0.052312516
62	0xbd63e59c	-0.055638894
63	0x3ad8dce0	0.0016545318

gc2.weight f4 [64, 10]
0	0xbd37a436	-0.044834338
1	0x3da5a30e	0.08087741
2	0xbd3ec754	-0.046576813
3	0xbcd35814	-0.025798835
4	0x3d559572	0.052144475
5	0xbd172b60	-0.0369066
6	0xbc8c19b2	-0.017102096
7	0xbca5f609	-0.02025892
8	0x3e074ea2	0.1321359
9	0x3cf20a41	0.029545905
10	0x3d4034bf	0.046925303
11	0x3e189720	0.149014
12	0x3e243f9d	0.16039892
13	0x3d8f016a	0.069826916
14	0x3e9d4eb0	0.30724096
15	0x3da5d27c	0.08096787
16	0x3e03c8f2	0.12869623
17	0xbe8709df	-0.2637472
18	0xbdc0a3f0	-0.094062686
19	0x3e047df3	0.12938671
20	0xbb2611b6	-0.0025340146
21	0x3e2af711	0.16695811
22	0xbde16d03	-0.110071205
23	0x3e574958	0.21024072
24	0x3e84b278	0.2591741
25	0x3e0bbd31	0.1364639
26	0x3d1cf4eb	0.03831951
27	0xbbc967e2	-0.006146417
28	0xbe3b474a	-0.18288913
29	0xbe9d81ea	-0.3076318
30	0x3bca4e5a	0.006173891
31	0x3d83a1c1	0.064273365
32	0x3c6883f7	0.014191619
33	0x3c85a98f	0.016316203
34	0x3d7ed8eb	0.062218588
35	0x3d140473	0.036137056
36	0x3d96ddf9	0.07366557
37	0xba3e1778	-0.0007251422
38	0xbc0505f6	-0.008119097
39	0x3a5f854a	0.00085266365
40	0x3c6d9ff2	0.014503466
41	0x3e7ee5e0	0.24892378
42	0xbdd843b1	-0.10559786
43	0xbeb17a50	-0.3466363
44	0xbd9eca9a	-0.07753487
45	0x3db80ce6	0.08986835
46	0xbe0d6bd7	-0.13810669
47	0x3e71ca3a	0.236123
48	0x3e3f427d	0.18677707
49	0x3d1d2e65	0.038374323
50	0x3c56237d	0.0130699845
51	0x3e850a50	0.2598443
52	0xbd8b16fe	-0.06791495
53	0x3d1bd762	0.038047202
54	0xbe4b9d69	-0.19884266
55	0x3ca24467	0.019808007
56	0xbc0f94a5	-0.008763467
57	0xbe572c49	-0.21012987
58	0xbe87963d	-0.2648181
59	0xbceb3045	-0.02870954
60	0x3e79fdb8	0.24413192
61	0xbe8b34fe	-0.27188867
62	0xbd152b53	-0.03641827
63	0xbd8c7e24	-0.06859997
64	0x3e525426	0.20539913
65	0xbea21582	-0.31657034
66	0x3e7f1fa1	0.24914409
67	0xbe9ccbd3	-0.30624256
68	0xba9076fb	-0.0011021787
69	0xbe026d49	-0.12737001
70	0x3d182595	0.037145216
71	0x3e267b75	0.16258033
72	0xbe90fcc6	-0.2831785
73	0xbce8997a	-0.028393496
74	0x3dea8be3	0.114524625
75	0xbc939c1a	-0.018018771
76	0x3dbcf295	0.09225956
77	0x3d82f0f1	0.06393612
78	0x3df07e30	0.11742818
79	0x3c4bbbce	0.012434913
80	0x3cbf6987	0.023365749
81	0xbd4102ab	-0.047121685
82	0xbe5dd730	-0.21664119
83	0x3d6babc5	0.05753686
84	0x3ea02f0b	0.3128589
85	0xbc75ca05	-0.0150017785
86	0x3e7f379d	0.24923559
87	0x3d5ed13c	0.05439876
88	0x3e8d8c50	0.27646112
89	0xbd39e79f	-0.045386907
90	0xbd7e9552	-0.06215412
91	0x3e2a5455	0.16633733
92	0xbe3df5bd	-0.18550773
93	0xbda0e0e7	-0.07855397
94	0xbdff2c57	-0.12459629
95	0xbd5dd251	-0.05415565
96	0xbc1f7332	-0.009732055
97	0x3bbb290d	0.0057116807
98	0xbe1a04cb	-0.15040891
99	0xbc101b98	-0.008795641
100	0xbd3fffbd	-0.04687475
101	0x3db6bbec	0.08922562
102	0x3de92655	0.113842644
103	0xbc922333	-0.01783905
104	0x3e877db9	0.26463106
105	0xbd026000	-0.031829834
106	0xbde55410	-0.11197674
107	0x3e797703	0.24361806
108	0x3e8d8673	0.2764164
109	0xbe1cf140	-0.15326405
110	0xbe836b71	-0.2566791
111	0xbde94d69	-0.11391718
112	0xbdb5d363	-0.088782094
113	0xbe65f00a	-0.22454849
114	0xbdc53f82	-0.09631254
115	0xbe78f207	-0.24311076
116	0xbd80b677	-0.062848024
117	0x3d207d98	0.039182276
118	0x3e149837	0.1451119
119	0xbe7e3057	-0.24823128
120	0xbde4931f	-0.111608736
121	0xbe933698	-0.2875259
122	0xbe870b38	-0.26375747
123	0xbd85b8e8	-0.06529409
124	0x3e8032df	0.25038812
125	0x3d1d216a	0.038361944
126	0x3e12ab57	0.14323173
127	0xbd113890	-0.035454333
128	0x3d0f4841	0.034981016
129	0xbe8c5e9c	-0.2741593
130	0xbeaa2b7d	-0.33236304
131	0x3e001df6	0.12511429
132	0x3e856ba4	0.26058686
133	0xbeb3f11c	-0.3514489
134	0xbdd92d3e	-0.106043324
135	0xbe3cacfb	-0.18425362
136	0xbd596efb	-0.053084355
137	0x3dc5d973	0.09660616
138	0x3d9d82e9	0.07690985
139	0x3dfecada	0.124410346
140	0xbe8c9390	-0.2745633
141	0xbd576cc2	-0.052593954
142	0x3e00d2e6	0.12580451
143	0x3d83b290	0.064305425
144	0x3dc44677	0.095837526
145	0xbeac6a31	-0.33674768
146	0x3e618dd5	0.22026761
147	0xbe16250c	-0.1466257
148	0x3e7afdda	0.24510899
149	0xbe4b7a90	-0.19870973
150	0xbe2b7850	-0.16745114
151	0x3ca0e68d	0.019641185
152	0x3e81595f	0.25263497
153	0xbe5c588a	-0.2151815
154	0x3e6d32ab	0.2316386
155	0xbe7ce77a	-0.24697676
156	0x3e2fda50	0.17173123
157	0xbe4434c0	-0.19160748
158	0x3e8d00cc	0.2753967
159	0x3d9a4caf	0.075341575
160	0xbe322ae6	-0.17399177
161	0xbb46e783	-0.0030350394
162	0xbe54b163	-0.20770793
163	0xbd536574	-0.051610425
164	0xbe6c4dca	-0.23076549
165	0xbe8ff851	-0.28119138
166	0xbdd2a4e7	-0.10285359
167	0xbe1db1b6	-0.15399823
168	0xbe6d24e0	-0.23158598
169	0xbe9869f7	-0.29768345
170	0xbdde0d06	-0.10842328
171	0xbc6b4e46	-0.014361924
172	0x3dd14ddd	0.10219929
173	0x3e0bb54f	0.13643382
174	0xbdf07864	-0.11741713
175	0xbd7f94f9	-0.06239793
176	0xbe58501f	-0.21124314
177	0x3e34ce44	0.17656809
178	0x3e01297f	0.12613486
179	0xbdbfdb81	-0.09368039
180	0xbe35039b	-0.17677157
181	0x3e64569f	0.22298668
182	0xbcc21f57	-0.023696585
183	0xbe1886dc	-0.14895195
184	0x3df109f4	0.117694765
185	0xbe374359	-0.17896785
186	0x3d99f5fa	0.075176194
187	0xbd1a1622	-0.037618764
188	0xbc8dec13	-0.017324483
189	0xbea49238	-0.32142806
190	0xbddd8717	-0.10816782
191	0x3dd48cd4	0.10378423
192	0xbe81d61a	-0.2535866
193	0xbe62cbb0	-0.22148013
194	0x3e83ba7a	0.25728208
195	0xbdea2c57	-0.114342384
196	0xbe479253	-0.19489412
197	0xbeafc68a	-0.3433116
198	0xbe39908a	-0.18121544
199	0xbd9074ed	-0.07053552
200	0xbe9a87ef	-0.30181834
201	0x3e3ff7b7	0.1874684
202	0xbd1dc261	-0.038515452
203	0xbc01ea55	-0.007929404
204	0x3d8f1194	0.06985775
205	0x3e1398b2	0.14413717
206	0xbb900514	-0.0043951366
207	0xbcf7745d	-0.030206854
208	0xbdcbb21e	-0.099460825
209	0xbe8166ac	-0.25273645
210	0x3da44b47	0.080221705
211	0x3e77cc8b	0.2419912
212	0x3e363eda	0.17797413
213	0xbe048484	-0.12941176
214	0x3de6bced	0.112665035
215	0x3d81cf5d	0.063383795
216	0xbe831975	-0.2560536
217	0x3e58b9f0	0.2116468
218	0xbc5800e2	-0.013183804
219	0xbde74289	-0.112919874
220	0xbe432878	-0.19058406
221	0x3df8acd2	0.12142338
222	0x3e63746b	0.22212379
223	0x3c0b8682	0.008515956
224	0xbe7ce358	-0.246961
225	0xbeae71b5	-0.34071127
226	0xbe7e3ee8	-0.24828684
227	0xbe1fcb40	-0.15604877
228	0xbe31656e	-0.17323849
229	0xbe1a7bda	-0.15086308
230	0xbe91f709	-0.28508785
231	0x3e7dfb74	0.24802953
232	0xbd40f49c	-0.047108278
233	0xbca4bbd3	-0.020109093
234	0x3e2ffd35	0.17186435
235	0xbd04f4ee	-0.032460146
236	0xbe295301	-0.1653557
237	0x3df07419	0.11740894
238	0x3c2b3129	0.010448732
239	0xbe626d77	-0.2211207
240	0x3bea34a2	0.0071473876
241	0x3d88ef49	0.06686265
242	0x3d636330	0.055514514
243	0xbe1e3853	-0.15451173
244	0xbe0179c7	-0.1264411
245	0x3d216388	0.03940156
246	0xbdf4b237	-0.11948054
247	0x3ebab9b2	0.364698
248	0xbe5ab434	-0.21357805
249	0x3d828869	0.063736744
250	0x3c912b61	0.01772088
251	0x3e2befbe	0.16790673
252	0xbdf8336a	-0.121191815
253	0xbe029ba4	-0.12754685
254	0x3e131392	0.14362934
255	0xbe42ed70	-0.19035888

gc2.bias f4 [10]
0	0xbebc07ba	-0.36724645
1	0xbe21d22b	-0.15802829
2	0x3d55873c	0.052130923
3	0xbeb91e86	-0.361561
4	0x3e599210	0.21247125
5	0xbcabf09d	-0.020988757
6	0xbe61d1f9	-0.22052754
7	0x3de25ac4	0.110524684
8	0x3dae6ba0	0.085166216
9	0xbea53c45	-0.32272545
