save_model/baseline/st-GCN-ACom-5-0.650000.pth (torch, 200895 bytes, 4 tensors)

gc1.weight f4 [767, 64]
0	0x3d723ed4	0.05914195
1	0xbd774004	-0.060363784
2	0xbd2f1073	-0.042740297
3	0x3c85dc41	0.016340377
4	0xbdf93e13	-0.12170043
5	0x3db20ff8	0.08694452
6	0x3d441be5	0.047878165
7	0x3d4e93de	0.050433986
8	0xbc95e6f8	-0.018298611
9	0xbd8f9d77	-0.07012456
10	0xbcd61a6f	-0.026135651
11	0x3d63e294	0.055636004
12	0xbdab2d7b	-0.08358284
13	0xbdd84fd2	-0.105620995
14	0x3d265e3a	0.040617205
15	0xbdf4d0de	-0.11953901
16	0xbd8411a6	-0.06448679
17	0xbdc62b34	-0.09676209
18	0x3d7db547	0.061940458
19	0xbd01d663	-0.031698596
20	0x3d1c881b	0.038215738
21	0xbc1f11a0	-0.009708792
22	0x3b8debf6	0.0043311073
23	0x3c450e20	0.012027293
24	0xbe0887dd	-0.13333078
25	0xbe2ba0b7	-0.16760527
26	0x3cc8f0b4	0.024528839
27	0xbd6238c3	-0.055229913
28	0x3bc0f667	0.0058887484
29	0xbe0c410e	-0.13696691
30	0xbb620388	-0.0034486968
31	0x3c2733ea	0.010205248
32	0xbde6e4c1	-0.112741
33	0xbc1a911a	-0.009434009
34	0xbdc51fc8	-0.096252024
35	0xbd9f816b	-0.077883564
36	0x3c1e0336	0.00964432
37	0xbda8a138	-0.08233875
38	0xbcba4fec	-0.022743188
39	0xbd829328	-0.06375724
40	0x3d24fad8	0.040278286
41	0xbd60e398	-0.05490455
42	0xbb5385e0	-0.003227584
43	0xbe0df383	-0.13862424
44	0x3d1271a6	0.035752915
45	0xba9c163a	-0.001190848
46	0xbcdd6c90	-0.027029306
47	0xbd2e4f50	-0.042556107
48	0x3b5a730a	0.0033332729
49	0x3b9aaf11	0.0047205766
50	0xbc9ea2a1	-0.019364657
51	0xbe2781d3	-0.16358118
52	0x3e069b28	0.13145125
53	0x3e0d5525	0.13802011
54	0x3c7aad25	0.01530007
55	0xbc876b48	-0.016530648
56	0xbd3f06ea	-0.046637453
57	0xba8e3c99	-0.00108518
58	0xbe22c72f	-0.15896295
59	0xbd8a82aa	-0.067632034
60	0x3dd824cb	0.10553893
61	0xbc870104	-0.016479976
62	0xbcd5d0d0	-0.026100546
63	0x3d511064	0.051041022
64	0xbd29cc04	-0.04145433
65	0x3d753a27	0.05986991
66	0xbd5a2996	-0.053262316
67	0xbe254bbb	-0.1614217
68	0xbe284df1	-0.16435982
69	0x3e028ea9	0.12749733
70	0xbc0ba5b6	-0.008523395
71	0xbd80a2bb	-0.062810384
72	0x3c1c6cf5	0.009547462
73	0xbd3e369a	-0.04643879
74	0xbc77f452	-0.015133934
75	0x3d4eba41	0.050470594
76	0x3c802e90	0.015647203
77	0x3d2eca7e	0.04267358
78	0xbd7f395f	-0.062310573
79	0xbe247bf3	-0.16062908
80	0x3c6cacc5	0.014445488
81	0xbd826c90	-0.06368363
82	0x3b84e62b	0.0040557585
83	0xbd488376	-0.048953496
84	0xbe0eb0d5	-0.13934644
85	0x3b389c72	0.002816942
86	0x3be150ea	0.006876101
87	0xbcd5909e	-0.026069935
88	0xbd1e2de3	-0.03861798
89	0xbe130e9f	-0.14361046
90	0xbd56e13f	-0.052460905
91	0xbc46a64f	-0.012124612
92	0xbbe80824	-0.0070810486
93	0xba4968a2	-0.0007683133
94	0xbe1d1f60	-0.15344
95	0xbc2e070e	-0.010621799
96	0xbe09fb9b	-0.13474886
97	0x3df38c90	0.118920445
98	0x3df8783a	0.121323064
99	0xbdbf72a8	-0.09348041
100	0xbe08548c	-0.13313502
101	0xbdbb215b	-0.091372214
102	0xbd148202	-0.036256798
103	0x3deb8f16	0.11501901
104	0xbc34cd0f	-0.011035218
105	0x3cd5e9ec	0.02611252
106	0xbd91399b	-0.070910655
107	0x3c8044c1	0.015657784
108	0xbd8416f2	-0.06449689
109	0xbd4af8f4	-0.049553826
110	0xbd0cedc5	-0.034406442
111	0xbce4e1fc	-0.027939789
112	0xbda581c2	-0.0808139
113	0xbc0d070f	-0.00860764
114	0xbe112cdd	-0.1417727
115	0xbe31677c	-0.17324632
116	0x3da7517f	0.08169841
117	0x3d32e0df	0.043671485
118	0x3ca64ce3	0.020300334
119	0xbc5040d9	-0.012710773
120	0xbd2254f2	-0.03963179
121	0xbe1ae1f5	-0.15125258
122	0x3d1f9208	0.038957626
123	0x3cde7847	0.027156962
124	0x3dbfd683	0.09367087
125	0xbca08ae4	-0.019597478
126	0x3c92ec43	0.017934924
127	0xbcafd6cc	-0.021464728
128	0xbd162a91	-0.03666169
129	0xbda9b9e3	-0.08287408
130	0x3d5df950	0.05419284
131	0xbd7224b2	-0.059117027
132	0xbc15e20d	-0.009148133
133	0x3d37f92a	0.044915356
134	0x3e2c5d55	0.16832478
135	0x3d098653	0.033575367
136	0x3e127521	0.14302494
137	0xbe08a6b7	-0.13344847
138	0xbc7f7ab1	-0.015593217
139	0x3cd22895	0.025654117
140	0xbde96e71	-0.11398018
141	0x3cd93b06	0.026517402
142	0xbd46bdca	-0.04852084
143	0xbd29e84a	-0.041481294
144	0xbcc24c27	-0.023717953
145	0xbb99e98c	-0.0046970304
146	0xbbfe8cd0	-0.007768251
147	0xbd82e88a	-0.063920096
148	0xbda354b4	-0.0797514
149	0xbbd15648	-0.0063884594
150	0x3bcce03b	0.0062523163
151	0x3d06a616	0.032873236
152	0x3dc50461	0.09619976
153	0x3d7441fe	0.059633248
154	0xbc9f86ec	-0.019473515
155	0xbd44fc19	-0.04809198
156	0x3c4d88c2	0.012544813
157	0xbd6c383a	-0.05767081
158	0xbce18a0e	-0.02753165
159	0xbdfc2bd7	-0.12313049
160	0x3c922b64	0.017842956
161	0xbdbe3e91	-0.09289277
162	0x3de4d8e3	0.1117418
163	0xbd05ee23	-0.032697808
164	0x3c366cb6	0.011134317
165	0xbe1a56c0	-0.15072155
166	0x3d39aeaa	0.04533259
167	0x3d3bfe6f	0.045896944
168	0xbe1d4f65	-0.15362318
169	0x3cfae5b6	0.030627113
170	0x3bf792c8	0.0075553395
171	0xbd539c77	-0.05166289
172	0xbd589591	-0.052877013
173	0xbd967bad	-0.07347808
174	0xbe00a353	-0.12562303
175	0xbd1400d3	-0.0361336
176	0xbdad5f35	-0.08465425
177	0x3a926ae6	0.0011170774
178	0xbd758721	-0.059943322
179	0xbd4d67be	-0.050147764
180	0x3d8b0ed9	0.06789941
181	0xbd72197a	-0.059106328
182	0xbe32a8c7	-0.17447196
183	0xbc26a157	-0.010170302
184	0xbc30563f	-0.01076275
185	0xbe0d6e73	-0.13811664
186	0x3c713495	0.014722009
187	0xbd8de71c	-0.06928846
188	0x3e1d733c	0.1537599
189	0x3caa8944	0.020817406
190	0xbc92d40d	-0.01792338
191	0xbc4681c3	-0.012115899
192	0xbdb3ca9c	-0.08778879
193	0xbd9e0f6c	-0.07717785
194	0x3baa76a6	0.0052021323
195	0xbdcefa1f	-0.101063006
196	0xbe0b1276	-0.13581261
197	0x3df86daf	0.121302955
198	0x3b951806	0.004549983
199	0xbe174951	-0.14774062
200	0xbda9f226	-0.08298139
201	0xbe15f097	-0.14642559
202	0xbc692ea8	-0.014232315
203	0xbe207d21	-0.15672733
204	0xbd77e5f9	-0.060522053
205	0xbd88ed2b	-0.06685861
206	0xbda10238	-0.07861751
207	0xbdd0d3f1	-0.101966746
208	0xbcaca282	-0.021073584
209	0xbe177e5d	-0.14794298
210	0xba8a7fc1	-0.0010566638
211	0xbd8e77ae	-0.06956421
212	0xbe0afb25	-0.13572367
213	0xbc25a55d	-0.010110226
214	0xbc861265	-0.016366193
215	0xbdad182b	-0.08451875
216	0x3c55bbac	0.013045233
217	0x3c6b24fb	0.014352079
218	0x3da960c8	0.08270413
219	0x3bb6c0ad	0.005577168
220	0xbbcc3d77	-0.006232913
221	0xbe032e14	-0.12810546
222	0xbdb54c74	-0.08852473
223	0xbd76bfe2	-0.060241587
224	0xbc56e4a2	-0.013116034
225	0xbcb84e1f	-0.022498189
226	0x3d5bda05	0.053674717
227	0x3ddcdb94	0.10784069
228	0x3de2eac8	0.11079937
229	0xbd54010f	-0.051758822
230	0x3de303b4	0.11084691
231	0x3d6448a1	0.055733327
232	0x3c211e32	0.009833859
233	0xbe391efc	-0.18078226
234	0xbc1ebd67	-0.009688712
235	0xbe251a80	-0.1612339
236	0x3dd516c4	0.10404733
237	0xbda03eb8	-0.07824463
238	0x3ca0b77f	0.019618748
239	0x3d3bfcba	0.045895316
240	0xbdc6ed6d	-0.09713254
241	0x3c182f9c	0.009288695
242	0xbd81b4b1	-0.06333292
243	0x3d81df53	0.06341424
244	0xbb370add	-0.002793006
245	0xbd7de507	-0.061985996
246	0xbe0a774e	-0.13522074
247	0xbdbd9d3c	-0.09258506
248	0xbce64e20	-0.028113425
249	0xbe084925	-0.13309152
250	0xbd82bacf	-0.06383287
251	0xbe174e63	-0.14775996
252	0xbd4ef152	-0.05052311
253	0xbdffaa2e	-0.12483631
254	0x3d687cdd	0.056759704
255	0xbd50c2c0	-0.050966978

gc1.bias f4 [64]
0	0x3dfff718	0.12498301
1	0x3e04eb42	0.12980369
2	0x3c992b21	0.018697323
3	0x3c770bd8	0.015078507
4	0xbdb051d3	-0.08609357
5	0x3d140936	0.036141597
6	0x3e24f1ee	0.16107914
7	0xbe0969ad	-0.13419218
8	0xbd30f127	-0.04319873
9	0xbe1fc08f	-0.15600799
10	0xbddda194	-0.10821834
11	0x3ca89083	0.020576721
12	0x3acbb32e	0.0015541071
13	0xbd24a218	-0.040193647
14	0x3c8b985b	0.017040422
15	0xbe2a5c19	-0.16636695
16	0xbbabafa8	-0.0052394457
17	0xbbd9ae03	-0.0066430583
18	0xbc0d0134	-0.008606244
19	0xbd47a838	-0.04874441
20	0xbccc8616	-0.02496628
21	0xbe18d94f	-0.14926647
22	0xbdd513e6	-0.10404186
23	0x3de1cf62	0.11025883
24	0xbe295643	-0.16536812
25	0xbe19f360	-0.15034246
26	0xbd9ba6a6	-0.07600145
27	0xbe067edd	-0.13134332
28	0x3d27b614	0.040945128
29	0x3ca036d8	0.019557402
30	0xbd88889d	-0.06666682
31	0x3bdd2266	0.0067484854
32	0xbd7ffe1e	-0.062498204
33	0xbd8deb41	-0.06929637
34	0xbdbf4d8f	-0.09340965
35	0x3c2b4b4e	0.010454966
36	0xbd8607e7	-0.06544476
37	0xbd891e68	-0.06695253
38	0x3db0f329	0.08640129
39	0x3d5176c1	0.051138643
40	0xbe159e27	-0.14611112
41	0xbdc93438	-0.09824413
42	0x3ca960b5	0.020675996
43	0xbc183d7c	-0.009292003
44	0x3da51cf7	0.08062165
45	0x3ceac028	0.02865608
46	0x3e0bb843	0.13644509
47	0xbd43a78b	-0.047767203
48	0x3de8f4f9	0.1137485
49	0xbcf9b076	-0.030479651
50	0xbdc8d6f2	-0.098066226
51	0xbd338d6d	-0.043836046
52	0xb993dfa6	-0.00028204656
53	0x3c19ef34	0.009395409
54	0x3cca889a	0.02472334
55	0xbe0eef1d	-0.13958402
56	0xbd3e755c	-0.04649864
57	0x3cc57a0f	0.024106054
58	0xbc748a87	-0.014925606
59	0xbe1f9e11	-0.15587641
60	0xbc5545bc	-0.013017114
61	0xbd75c081	-0.05999804
62	0xbd0fce46	-0.035108827
63	0xbdb0c99c	-0.08632204

gc2.weight f4 [64, 10]
0	0xbeb5ac54	-0.35483038
1	0x3d783085	0.060593147
2	0x38f390a8	0.00011614087
3	0xbee9d998	-0.45673823
4	0x3e96eae0	0.2947607
5	0x3cc07962	0.02349538
6	0xbe8f3aad	-0.27974454
7	0xbe9177e1	-0.28411773
8	0x3d0b98ff	0.034081455
9	0xbdf470ee	-0.11935602
10	0xbe87517a	-0.2642935
11	0x3e88257b	0.26591095
12	0x3e30ceaa	0.17266336
13	0xbe05db84	-0.1307202
14	0xbdeb3bdf	-0.11486029
15	0xbd2b41fa	-0.041810967
16	0xbe62d519	-0.22151603
17	0xbdc95060	-0.098297834
18	0xbc12db38	-0.008963399
19	0xbe3302b6	-0.17481503
20	0x3e64840a	0.22315994
21	0xbda2ff5b	-0.079588614
22	0xbe03b86a	-0.12863317
23	0x3d746f42	0.059676416
24	0xbd531d21	-0.05154145
25	0xbd02f5ff	-0.03197288
26	0xbe8dc988	-0.2769282
27	0x3d91df7f	0.071227066
28	0x3e609a78	0.21933925
29	0xbe849699	-0.25896147
30	0x3e4fea7e	0.20304295
31	0x3df004af	0.11719643
32	0xbe35645b	-0.17714064
33	0x3c3454d7	0.0110065555
34	0xbe07f669	-0.13277592
35	0x3dcbd26f	0.099522464
36	0x3e0239b9	0.12717332
37	0x3e534717	0.20632587
38	0x3dbb9bb0	0.091605544
39	0xbe4667fe	-0.19375607
40	0xbd140149	-0.036134038
41	0x3e669471	0.22517563
42	0xbe6a0344	-0.22852808
43	0xbd339700	-0.043845177
44	0xbc8d696a	-0.01726218
45	0xbdad69e6	-0.08467464
46	0x3e95f60c	0.2928928
47	0x3e3a7125	0.18207224
48	0xbd1a7823	-0.037712228
49	0x3e3e57e4	0.18588215
50	0xbe70c1c6	-0.23511419
51	0x3e0be653	0.1366208
52	0xbe84c021	-0.25927833
53	0xbebf2362	-0.37331682
54	0xbe0409f8	-0.12894428
55	0x3e7d30bc	0.24725622
56	0x3e7db9e6	0.24777946
57	0x3e9a59f4	0.30146754
58	0x3e52b470	0.20576644
59	0x3da7f669	0.08201296
60	0xbe825e1a	-0.2546242
61	0x3c03b01d	0.008037594
62	0x3da1edd5	0.07906691
63	0xbe9fecc7	-0.31235334
64	0xbddbbcd5	-0.10729376
65	0xbdfcfe9a	-0.12353249
66	0xbe63654b	-0.22206609
67	0x3de71932	0.112841025
68	0x3e64ab79	0.22331037
69	0xbdcf0a8a	-0.10109432
70	0xbaa52014	-0.0012598061
71	0x3e75f2f6	0.24018463
72	0x3e1ddcc7	0.15416251
73	0x3d107051	0.035263363
74	0x3e02f078	0.12787044
75	0x3ea15681	0.3151131
76	0xbe56311a	-0.20917168
77	0x3de5637d	0.112006165
78	0xbe2df872	-0.16989306
79	0xbc65277a	-0.013986463
80	0x3d9d1b3c	0.0767121
81	0x3e2172f8	0.15766513
82	0x3e9f6a82	0.31135947
83	0xbdce770f	-0.100813024
84	0xbdd1f6b3	-0.10252132
85	0x3e96b764	0.2943679
86	0xbdf47b01	-0.11937524
87	0x3eaa909b	0.3331345
88	0xbe0f66ff	-0.14004134
89	0xbb82ffb4	-0.0039977673
90	0xbce769bd	-0.028248662
91	0x3e41b8ae	0.18918106
92	0xbd32cbaa	-0.04365126
93	0xbda6f2f3	-0.08151808
94	0x3e32b75b	0.17452757
95	0xbe5ae9f9	-0.21378316
96	0x3d1f9125	0.03895678
97	0x3d89b4dd	0.0672395
98	0xbd60fde7	-0.05492964
99	0xbd9edff5	-0.0775756
100	0x3c899635	0.016795257
101	0xbba8a55e	-0.0051466664
102	0x3d523042	0.051315553
103	0xbc101324	-0.008793626
104	0xbd223649	-0.03960255
105	0x3d313209	0.043260608
106	0x3da5df56	0.080992386
107	0x3d052531	0.03250617
108	0xbc8fe1fd	-0.017563814
109	0xbc3ea4c9	-0.0116359675
110	0xbde91f4a	-0.11382921
111	0x3e354491	0.17701937
112	0xbd70c44c	-0.058780953
113	0x3cc1bf95	0.023650924
114	0xbe585c7d	-0.21129031
115	0xbea7cb70	-0.32772398
116	0x3d8f2b9a	0.06990738
117	0xbe8428ac	-0.2581228
118	0x3cc18b52	0.023626003
119	0xbeab3668	-0.33439946
120	0xbe357273	-0.1771944
121	0x3e27adcb	0.1637489
122	0x3dab9736	0.083784506
123	0xbe6e8c1f	-0.2329564
124	0x3d6fc1b1	0.058534328
125	0xbd994ea2	-0.07485701
126	0xbe5cf055	-0.21576054
127	0xbdef35ec	-0.11680207
128	0x3ce349ed	0.027745211
129	0xbea588b4	-0.3233086
130	0x3b902068	0.0043983944
131	0x3e9cfc7d	0.30661383
132	0xbe453d19	-0.19261588
133	0x3c39633c	0.011315163
134	0x3e5f9d22	0.21837285
135	0xbe2f74d1	-0.17134406
136	0xbdbbb76a	-0.09165843
137	0x3cfed88a	0.031109113
138	0x3ac6bd72	0.001516266
139	0x3c8a26fc	0.016864292
140	0x3b7c51b6	0.0038500852
141	0xbdee7190	-0.11642754
142	0xbe7e34e6	-0.24824867
143	0xbdea48e7	-0.11439686
144	0x3cc8e58e	0.024523523
145	0xbe0a79eb	-0.1352307
146	0xbda638c9	-0.081163
147	0xbe29d5c1	-0.16585447
148	0xbd4f7605	-0.05064966
149	0x3e1d93e6	0.1538845
150	0xbcf347d1	-0.02969733
151	0x3e8bd835	0.2731339
152	0x3e0a4137	0.1350144
153	0xbd1e703f	-0.038681265
154	0xbe175e93	-0.14782171
155	0xbe10e899	-0.14151229
156	0x3dbde8e4	0.09272936
157	0xbe904a06	-0.28181475
158	0x3e65a00f	0.22424339
159	0x3ce5c08f	0.02804592
160	0xbd90a410	-0.070625424
161	0x3e4266b8	0.18984497
162	0x3d97a9db	0.07405444
163	0xbd800df7	-0.062526636
164	0xbe819327	-0.2530758
165	0xbd8a8b7f	-0.06764888
166	0xbe3c5adf	-0.1839404
167	0x3d3184af	0.043339428
168	0x3e8b6e94	0.27232802
169	0x3bc6845f	0.0060582603
170	0xbe1a6eef	-0.1508138
171	0x3cd73060	0.026268184
172	0x3de77cee	0.11303125
173	0xbe579e1b	-0.21056406
174	0xbe7fcda1	-0.24980785
175	0xbdd18f99	-0.10232467
176	0xbb7bde2e	-0.003843199
177	0xbe5a6eb4	-0.21331292
178	0x3e008676	0.12551293
179	0x3dcb8e35	0.09939233
180	0x3d16f139	0.03685114
181	0xbca2a547	-0.019854201
182	0x3d14cced	0.036328245
183	0xbe0544a7	-0.1301447
184	0xbdb88f60	-0.090117216
185	0xbe56ea2e	-0.2098777
186	0xbcd1ff10	-0.025634319
187	0x3db48862	0.088150755
188	0x3db7c767	0.0897358
189	0x3e1f921f	0.15583085
190	0x3e0d2c55	0.13786443
191	0x3d28319f	0.041062947
192	0x3cf0b69f	0.029383956
193	0x3d2bc336	0.041934215
194	0xbe4a67ef	-0.1976621
195	0xbd023c95	-0.031796057
196	0x3d5adc14	0.05343254
197	0x3e1ecc1f	0.15507554
198	0x3dbb4829	0.09144623
199	0xbd6d3e93	-0.057921004
200	0xbe605d20	-0.21910524
201	0x3e3d7c7e	0.18504521
202	0xbb2ab48a	-0.002604755
203	0x3d6d1b3b	0.057887297
204	0x3e071f2b	0.13195483
205	0x3e349ab6	0.17637143
206	0x3e7d9c50	0.2476666
207	0xbdcad7c0	-0.09904432
208	0x3e048f03	0.1294518
209	0x3db94093	0.0904552
210	0xbd02762e	-0.031850986
211	0x3d8b4859	0.068009086
212	0x3c0d22a1	0.008614213
213	0x3b5cb34c	0.0033676205
214	0xbe1a55f2	-0.15071848
215	0xbc541204	-0.012943748
216	0x3ba91984	0.0051605124
217	0x3cd9563b	0.026530376
218	0x3a25bbcd	0.0006322235
219	0x3c2cb398	0.010540865
220	0x3d7cba9f	0.061701413
221	0x3c153e17	0.009109042
222	0xbbc39948	-0.0059692003
223	0x3cc48e97	0.023993773
224	0xbdefb063	-0.11703565
225	0xbca3cc65	-0.019994924
226	0x3b946696	0.0045288308
227	0xbcb86e82	-0.022513632
228	0x3a87d2b1	0.0010362474
229	0xbc96f7c2	-0.018428687
230	0x3de3be10	0.11120236
231	0x3e0ff95a	0.14059964
232	0xbc20d5b6	-0.009816578
233	0xbcaac5b2	-0.020846222
234	0x3e50a126	0.20373973
235	0xbe95278a	-0.29131728
236	0xbdd03794	-0.10166851
237	0xbe8adcf2	-0.27121693
238	0xbdd2d96d	-0.10295377
239	0xbe9a9d82	-0.30198294
240	0xbea78f47	-0.327265
241	0x3d099360	0.033587813
242	0x3e72e516	0.23720202
243	0xbe81abde	-0.25326437
244	0x3b966ec7	0.0045908424
245	0x3df7f6b5	0.121076025
246	0x3c927a82	0.017880682
247	0x3e0abc0b	0.13548295
248	0xbba7b844	-0.0051184017
249	0x3a92fab0	0.0011213627
250	0x3d48dd2a	0.049039043
251	0xbd291992	-0.04128415
252	0x3dc490be	0.0959792
253	0x3dd5072d	0.10401759
254	0xbe5450e2	-0.2073398
255	0x3e12c782	0.14333919

gc2.bias f4 [10]
0	0xbe8ad2bd	-0.27113906
1	0xbe2cb34b	-0.1686527
2	0xbca1a47b	-0.01973175
3	0xbec06079	-0.37573603
4	0x3e8db4b3	0.27676925
5	0x3e470d05	0.1943856
6	0xbee5a867	-0.44855043
7	0xbd7848c6	-0.060616277
8	0x3dad261f	0.08454537
9	0xbe7ebef1	-0.24877526
