save_model/baseline/st-GCN-Pubmed-20-0.650000.pth (torch, 130750 bytes, 4 tensors)

gc1.weight f4 [500, 64]
0	0xbefdc516	-0.49564427
1	0xbea1ed29	-0.3162625
2	0xac96b4da	-4.283335e-12
3	0x3f828ab5	1.019858
4	0xb3ed99db	-1.1064159e-07
5	0xbe3f7ab5	-0.18699153
6	0xbeaf3d55	-0.3422648
7	0x320c2d34	8.1593505e-09
8	0xaa62b4c5	-2.0135549e-13
9	0x3e28679e	0.16445777
10	0x3f032caa	0.51240027
11	0xbe77b323	-0.24189429
12	0x3f49c410	0.7881479
13	0x29d08376	9.2598604e-14
14	0xbe047585	-0.12935455
15	0x3f04a295	0.5181058
16	0x29580024	4.7961757e-14
17	0xbef0f8f8	-0.47064948
18	0x3dfe5d20	0.12420106
19	0xb71f544e	-9.496767e-06
20	0xbefafe4d	-0.4902214
21	0xac82bfa6	-3.7160995e-12
22	0x3f8a1638	1.0788031
23	0x2b5d0543	7.8522274e-13
24	0xaaa5f5fd	-2.9480577e-13
25	0xb4a436cd	-3.0587253e-07
26	0xb8e44415	-0.000108845685
27	0xada5e7cd	-1.8861268e-11
28	0x3f0f867f	0.560646
29	0xa814edee	-8.267243e-15
30	0x3f285861	0.65759856
31	0x3d9e6bdd	0.07735417
32	0xbea4ade5	-0.3216392
33	0xa9b60c6c	-8.0845785e-14
34	0xbecede27	-0.40403864
35	0xbed634a5	-0.4183704
36	0x3e96e625	0.2947246
37	0xbe55b04d	-0.20868035
38	0xbee93b89	-0.45553234
39	0xbe962625	-0.29325977
40	0x3ec5cdbd	0.38633528
41	0x2f81e1c7	2.3625388e-10
42	0x3d3bbf2c	0.045836613
43	0xbee559cd	-0.44795075
44	0xbca137e7	-0.019679977
45	0x3f4eb0b0	0.80738354
46	0xaab51480	-3.2166284e-13
47	0xbed0fcfd	-0.40818015
48	0xbe7067dd	-0.2347712
49	0xbe980298	-0.2968948
50	0xbde40b33	-0.111349486
51	0xbf08cb12	-0.5343486
52	0xb9997f1e	-0.00029277144
53	0xb2c6b917	-2.3134403e-08
54	0x2e1603ec	3.4109535e-11
55	0xbed43ee4	-0.41454232
56	0x3f77dc7b	0.968208
57	0x3f63d5ac	0.8899791
58	0xbf27d61e	-0.6556109
59	0x2b916930	1.0332065e-12
60	0xab9b6c04	-1.1043393e-12
61	0xbee0d267	-0.43910524
62	0xabd967eb	-1.544762e-12
63	0x3371d7b0	5.630835e-08
64	0x3c632589	0.01386393
65	0xbd9754c5	-0.073892154
66	0x2a9de540	2.8047877e-13
67	0x3cec84a9	0.028871851
68	0xabc316e3	-1.3861936e-12
69	0x3d1d5046	0.038406633
70	0x3da3c084	0.07995704
71	0x2afeeefa	4.5285287e-13
72	0x2905e55a	2.9730863e-14
73	0xbd99844e	-0.07495938
74	0xbd510f45	-0.051039953
75	0x3d19a476	0.037510358
76	0xbc1bb6f6	-0.0095040705
77	0x2b3991ce	6.592755e-13
78	0xbd69c2e9	-0.057070646
79	0x3d9d4434	0.07679024
80	0xa9da1a47	-9.685703e-14
81	0x3d17e3c1	0.037082437
82	0xbda5d65f	-0.08097529
83	0x2a12200c	1.2978523e-13
84	0x3cce7049	0.025200026
85	0xab076bae	-4.811107e-13
86	0x3d208b1e	0.039195172
87	0xaa40090f	-1.7056168e-13
88	0xaa34f176	-1.6070985e-13
89	0x2b2c63e2	6.124529e-13
90	0xada0a1ac	-1.826169e-11
91	0x2a7de110	2.2548998e-13
92	0xbd5948af	-0.053047832
93	0xa9af54eb	-7.786292e-14
94	0xbda52163	-0.08063009
95	0x3d1e9fa0	0.03872645
96	0x3dc34a5f	0.095356695
97	0xaa1ab44f	-1.3740505e-13
98	0x3c124448	0.008927412
99	0x3bb6c0f8	0.005577203
100	0x3d3ce424	0.04611601
101	0x3cc02c46	0.023458611
102	0xbc7bcb2e	-0.015368266
103	0xbda68a85	-0.08131889
104	0x3d014151	0.03155643
105	0x2e58e4e9	4.9316027e-11
106	0x3cb0a964	0.021565147
107	0x3bb90782	0.005646647
108	0x3cc87065	0.024467656
109	0x3d78fa10	0.060785353
110	0xab1742b9	-5.3738573e-13
111	0x3c59fda0	0.013305098
112	0x3d1c1338	0.038104266
113	0x3dea3ec2	0.11437751
114	0x3c952ab2	0.018208835
115	0x3d416cf7	0.047223058
116	0x2c96442f	4.2708263e-12
117	0xaa87818b	-2.4070706e-13
118	0xa9a02e68	-7.1134776e-14
119	0xbc47f683	-0.012204769
120	0x3cdffd5b	0.027342489
121	0x3de8114f	0.11331426
122	0x3c627836	0.013822606
123	0x2ae982b0	4.1479797e-13
124	0xa8c21f60	-2.1551933e-14
125	0x3c5c48d6	0.0134451
126	0x2b06301a	4.767312e-13
127	0xac27645b	-2.3787836e-12
128	0xbc86d918	-0.01646094
129	0x3e2da241	0.16956426
130	0x2adfea74	3.9775442e-13
131	0xbb9df006	-0.004819873
132	0xab2dfd56	-6.181352e-13
133	0xbdbaf22d	-0.091282226
134	0xbe6b21e1	-0.22962143
135	0xac94fbf8	-4.234387e-12
136	0x2a5f05ae	1.9808349e-13
137	0x3e4f5e50	0.20250821
138	0x3e2fd8ec	0.17172593
139	0xbdae84ac	-0.08521399
140	0x3d525f03	0.05136014
141	0x2ac489bf	3.4912175e-13
142	0x3e3a61ab	0.1820132
143	0xbe35ea06	-0.17765054
144	0xabad65a0	-1.2320596e-12
145	0xbcf5768d	-0.029963756
146	0x3e7179bb	0.23581593
147	0xacf3fa6a	-6.934277e-12
148	0xbc94315e	-0.018089946
149	0x2c98b50a	4.340199e-12
150	0xbdaa7285	-0.08322624
151	0xa78e16d0	-3.943765e-15
152	0xa9b93baa	-8.2260004e-14
153	0x2eed0731	1.077879e-10
154	0xaf9bac4c	-2.831676e-10
155	0x2bb9808b	1.3180718e-12
156	0x3e0d58b1	0.13803364
157	0xab712361	-8.56695e-13
158	0x3e0a24f1	0.13490655
159	0xbdbdb7be	-0.09263562
160	0xbe64ac85	-0.22331436
161	0x2a4ba46a	1.8087065e-13
162	0xbc2a8a91	-0.010409013
163	0xbc7c12f2	-0.015385376
164	0xbddb5503	-0.10709574
165	0xbd147102	-0.036240585
166	0x3d0bdf19	0.03414831
167	0x3e2d6792	0.1693404
168	0xbd88de04	-0.06682971
169	0xae9aea84	-7.0447675e-11
170	0xbd823a81	-0.06358815
171	0xbb11fc1d	-0.0022275515
172	0xbd8e1909	-0.06938369
173	0xbe14389f	-0.14474724
174	0x29eab66b	1.0423332e-13
175	0xbd0ca139	-0.03433344
176	0xbd9b3519	-0.07578487
177	0xbe50fa2e	-0.20407936
178	0xbd9af838	-0.07566875
179	0xbdf81ea3	-0.121152185
180	0xb4523592	-1.9577263e-07
181	0x2e49eed0	4.5914217e-11
182	0xac5c62a5	-3.131864e-12
183	0x3c84e0cb	0.01622047
184	0xbd46b21f	-0.048509713
185	0xbe423594	-0.18965751
186	0xbd3bebb9	-0.0458791
187	0x2aaf9fdd	3.1197172e-13
188	0xab0b620d	-4.9518793e-13
189	0xbd04fc22	-0.032467015
190	0xa8db8c9e	-2.4374867e-14
191	0xac179575	-2.1541356e-12
192	0xbc4a7b2e	-0.01235847
193	0x3de26d5e	0.110560164
194	0xabeeefda	-1.6977489e-12
195	0xbc6d4320	-0.014481336
196	0xabc331c7	-1.3869399e-12
197	0xbd56dcf4	-0.05245681
198	0xbe18365a	-0.14864483
199	0xac0d369b	-2.0067617e-12
200	0xaab8f414	-3.285433e-13
201	0x3dd70ab9	0.10500092
202	0x3dc2bc8b	0.09508618
203	0xbd240abe	-0.040049307
204	0x3cea8cd0	0.028631598
205	0xab073995	-4.8041546e-13
206	0x3df84971	0.12123383
207	0xbde5f3f8	-0.11228174
208	0xab06cce7	-4.789072e-13
209	0xbc7c108e	-0.015384806
210	0x3e071b0d	0.13193913
211	0xaccc4551	-5.8057244e-12
212	0xbc9bae4e	-0.019004013
213	0xaad926fd	-3.8573997e-13
214	0xbd9ec21c	-0.07751867
215	0x2b3f428e	6.7949194e-13
216	0xaa4028ca	-1.7067177e-13
217	0x2c7a03fe	3.5529353e-12
218	0xae967b0d	-6.8430685e-11
219	0x2b392dfc	6.578902e-13
220	0x3dacbe90	0.084347844
221	0x2a37e553	1.6333228e-13
222	0x3d9be5df	0.07612204
223	0xbd4c1e9a	-0.04983387
224	0xbe1146be	-0.14187142
225	0x2a954104	2.651283e-13
226	0x3a22aef5	0.000620588
227	0xbc0822ac	-0.008309048
228	0xbdaa566f	-0.08317267
229	0xbca13536	-0.019678693
230	0x3cb3970a	0.021922607
231	0x3dba12eb	0.090856396
232	0xbd45b144	-0.048264757
233	0x2ea04ad6	7.289251e-11
234	0xbd1f90e1	-0.038956527
235	0x3ba3c6c6	0.004998061
236	0xbd247d0a	-0.04015831
237	0xbdc8fbf1	-0.09813679
238	0x2a1c1f5c	1.3866463e-13
239	0xbc6dedad	-0.014521998
240	0xbd230dfa	-0.03980825
241	0xbe07a752	-0.13247421
242	0xbd2044b5	-0.039128024
243	0xbda25046	-0.07925467
244	0x2ee24536	1.02895845e-10
245	0xa99701d6	-6.7060656e-14
246	0xaad33b18	-3.7522134e-13
247	0x3c5605c1	0.013062895
248	0xbc670755	-0.014100869
249	0xbdce3104	-0.10067943
250	0xbd323210	-0.043504775
251	0x2b019603	4.603819e-13
252	0x2a73d080	2.1655074e-13
253	0xbc46efa3	-0.012142095
254	0xaab8c93c	-3.28246e-13
255	0x2b559cca	7.589039e-13

gc1.bias f4 [64]
0	0x3e3812e9	0.17975964
1	0x3d381f3b	0.04495166
2	0xbd4fba72	-0.050714917
3	0x3c8a3813	0.016872441
4	0xbcd5231a	-0.026017714
5	0x3e434ee3	0.19073062
6	0x3dbf5b79	0.09343619
7	0xbc6e810e	-0.014557136
8	0xbced1bc6	-0.028943907
9	0x3c8d4426	0.01724441
10	0x3c812d35	0.015768627
11	0x3e0e3baf	0.13889955
12	0x3c3a984e	0.011388851
13	0xbd5244fa	-0.051335312
14	0x3c9ecbe2	0.019384328
15	0x3d9cc8a3	0.07655456
16	0xbd52fcd7	-0.051510658
17	0x3e0b793c	0.13620466
18	0x3c600603	0.013673308
19	0xbd519888	-0.051170856
20	0x3e136823	0.14395194
21	0xbcbf5f10	-0.023360759
22	0x3d403388	0.046924144
23	0xba676280	-0.00088266283
24	0xbaf7d45c	-0.0018907893
25	0xbd5adc8b	-0.053432982
26	0xbd1d6493	-0.038425993
27	0xbd463ee3	-0.048399817
28	0x3c76ff46	0.01507551
29	0xbd532da3	-0.051557194
30	0x3c52c102	0.012863399
31	0x3e242347	0.16029082
32	0x3dc2c2e3	0.09509828
33	0xbca0d1ea	-0.019631345
34	0x3e39d06c	0.18145913
35	0x3e19d04a	0.15020862
36	0x3dc8e44b	0.098091684
37	0x3e1e4287	0.15455066
38	0x3de9d9e0	0.114185095
39	0x3cf2386c	0.02956792
40	0x3d70bd9e	0.058774583
41	0xb156a06a	-3.1232283e-09
42	0x3df834d0	0.12119448
43	0x3e34282a	0.17593446
44	0x3e2b5eb2	0.16735342
45	0x3d86b93f	0.06578302
46	0xb6f11060	-7.184266e-06
47	0x3e1076e1	0.14107849
48	0x3e19936f	0.14997648
49	0x3da73942	0.08165218
50	0x3e2bec8e	0.16789457
51	0x3e15cfa5	0.14629991
52	0xbcde5436	-0.027139764
53	0xbd4b3220	-0.04960835
54	0xbd6f6ba8	-0.05845228
55	0x3e0aae31	0.13543011
56	0x3cf37488	0.029718652
57	0x3d92f433	0.071754836
58	0x3e15345e	0.14570758
59	0xbd49499c	-0.049142465
60	0xbcf6c1bc	-0.030121677
61	0x3e312c7f	0.1730213
62	0xbd681115	-0.056656916
63	0xbd6df470	-0.058094442

gc2.weight f4 [64, 3]
0	0xbf8b0e35	-1.0863711
1	0x3f306f5c	0.6891992
2	0x3e9bb4b9	0.30411318
3	0xbf6bc276	-0.920936
4	0xbf5c8339	-0.8613773
5	0x3fe3ff8d	1.7812363
6	0x3aa6a742	0.0012714642
7	0xbbe6e2f7	-0.0070460993
8	0xb5e82b52	-1.7297955e-06
9	0x40022123	2.0332725
10	0xbf3a07e8	-0.72668314
11	0xbfac3dd0	-1.3456364
12	0xbe80e9fb	-0.25178513
13	0xbe278b2e	-0.16361687
14	0x3e195026	0.1497198
15	0xbee25306	-0.44203967
16	0x3f370f2b	0.7150752
17	0xbf04faf0	-0.519454
18	0xbf8a9043	-1.0825275
19	0x4004646a	2.0686288
20	0xbf8d34f1	-1.1031781
21	0x3d1dddbd	0.038541544
22	0xbe47d0e4	-0.19513279
23	0xbdf6a646	-0.12043433
24	0xb602c9ca	-1.9488966e-06
25	0xb96d91bd	-0.00022656373
26	0xac2b32fc	-2.4328864e-12
27	0x3f29a67c	0.6626966
28	0xbfed2047	-1.8525475
29	0x3fa9d33d	1.326759
30	0x3fa23ac4	1.2674184
31	0xbfdb6841	-1.7141191
32	0x3ee2b940	0.4428196
33	0xbf2a7607	-0.66586345
34	0x3f3419e4	0.70352006
35	0xbefc06e3	-0.49224004
36	0x3fd29fab	1.6454977
37	0xbf78c3a0	-0.971735
38	0xbf357c49	-0.7089277
39	0x2de6926c	2.6212997e-11
40	0x2ca8116e	4.7767823e-12
41	0x2c8fbc62	4.085219e-12
42	0xbdbe4978	-0.09291357
43	0xbfc0545b	-1.5025743
44	0x3fd359b0	1.6511745
45	0x3f3eb54e	0.744954
46	0x3f704e60	0.9386959
47	0xbfe85218	-1.8150053
48	0xace1b4ab	-6.414943e-12
49	0x2e8b85e2	6.3447705e-11
50	0x2b82a94f	9.284048e-13
51	0xbf8d31ec	-1.103086
52	0x3f65a959	0.8971153
53	0x3e16a5cf	0.14711688
54	0x3f17b99e	0.59267604
55	0xc008283b	-2.1274555
56	0x3fbea6b1	1.489462
57	0xbe067992	-0.13132313
58	0xbe83ced4	-0.25743735
59	0x3cdecf9f	0.02719861
60	0xbf875445	-1.0572592
61	0x3f3bf618	0.73422384
62	0x3e7ca115	0.24670823
63	0x3e811d94	0.2521788
64	0xbce8e229	-0.028428154
65	0xbe7a8cde	-0.24467799
66	0x3ffb48c5	1.9631582
67	0xbc74a28f	-0.014931335
68	0xbffc7c61	-1.9725457
69	0xab18ebcc	-5.432848e-13
70	0xaaee846d	-4.2369182e-13
71	0x2ba64f3f	1.1817005e-12
72	0x2b59777f	7.725972e-13
73	0x2c98719a	4.332712e-12
74	0xa9754820	-5.4463487e-14
75	0x3e2f6cc0	0.17131329
76	0xbe4a759b	-0.19771425
77	0xbe0f4dbb	-0.13994496
78	0x3d609f23	0.054839265
79	0xbeb2a6cd	-0.34892884
80	0x3c654c30	0.013995215
81	0xbc9c1634	-0.019053556
82	0xbd4de359	-0.050265644
83	0x38f2cb60	0.00011577341
84	0x3fa296a4	1.2702222
85	0xbfc1c63e	-1.5138624
86	0x3e944376	0.2895772
87	0xbdb70191	-0.08935846
88	0xbd66d70e	-0.056357436
89	0x3c48f08f	0.012264385
90	0x3fd59289	1.6685344
91	0xbfe85d87	-1.8153542
92	0x3df6d0a8	0.12051517
93	0x3e10eb3a	0.14152232
94	0x3f39bb3f	0.7255134
95	0xbf195c7e	-0.59906757
96	0xbf860fde	-1.0473592
97	0x40024495	2.035436
98	0xbf97a52f	-1.1847285
99	0xab885e45	-9.689546e-13
100	0xabd17966	-1.4884038e-12
101	0x2aeedeee	4.243198e-13
102	0xbf4904ec	-0.78523135
103	0x3ec3a650	0.38212824
104	0x3e54e281	0.2078953
105	0xbf51dfc6	-0.81982076
106	0x3edc3630	0.43010092
107	0x3e7e0279	0.2480563
108	0x3ed2430e	0.41066784
109	0x3f260929	0.6485773
110	0xbf86dc4e	-1.0535982
111	0xbf1fdc78	-0.62445784
112	0x3ea572bb	0.32314095
113	0xbea04794	-0.3130461
114	0xbf859ce4	-1.0438504
115	0x3e1a0232	0.150399
116	0x3f19b757	0.6004538
117	0xbf3d3fca	-0.7392546
118	0xbf9292a2	-1.1450999
119	0x3ff59782	1.9186862
120	0x3eec2372	0.46120793
121	0x3dd7c621	0.10535837
122	0xbf5b2e7b	-0.856178
123	0x3039832a	6.7489003e-10
124	0xaf04f725	-1.2093133e-10
125	0x310aacf9	2.0179967e-09
126	0xbdfe33ed	-0.12412248
127	0x3e85d364	0.2613784
128	0xbf1ed046	-0.6203655
129	0xbf1eb5c6	-0.61996114
130	0x3efaa5a9	0.48954514
131	0x3eeb95d2	0.4601274
132	0x3caf32fc	0.021386616
133	0x3f1ba7ac	0.6080272
134	0xbe9bddb9	-0.30442598
135	0x3fb1705d	1.3862416
136	0x3f120194	0.5703366
137	0xc0003a32	-2.003552
138	0x2abc4035	3.344006e-13
139	0xaa2d7524	-1.5406128e-13
140	0x2c529b5f	2.9929043e-12
141	0xbf2fa447	-0.6861004
142	0x3f2f5c50	0.6850023
143	0x3e51542d	0.20442267
144	0xbf03d338	-0.5149417
145	0x3f3c3ff0	0.7353506
146	0xbecede36	-0.40403908
147	0xbf88a37f	-1.0674895
148	0x400d6703	2.2094123
149	0xbf92b7ad	-1.1462303
150	0xbea2a4f2	-0.31766468
151	0x3f2a3f42	0.66502774
152	0xbee2947d	-0.44253913
153	0xbfb01c41	-1.3758622
154	0x3fc7e597	1.561694
155	0xbe7d2a7a	-0.24723235
156	0x3e4e3a2a	0.20139375
157	0xbebc2f20	-0.36754704
158	0xbdb5edb4	-0.08883229
159	0x3e6950f1	0.22784783
160	0xbde7573a	-0.11295934
161	0xbde485e5	-0.11158351
162	0x39c7d1d1	0.00038112563
163	0xbb2abc00	-0.0026051998
164	0xb14f6e93	-3.0185319e-09
165	0xbf62b9a0	-0.8856449
166	0x3e81a689	0.2532237
167	0x3ed39653	0.41325626
168	0x3ff7ee3e	1.9369581
169	0xbeed00de	-0.46289724
170	0xbfcadccd	-1.5848633
171	0x3fc297d2	1.5202582
172	0x3f5b343d	0.85626584
173	0xc01687cf	-2.352039
174	0xbfcd86dd	-1.6056782
175	0x3f92d626	1.1471603
176	0x3ee4af90	0.44665194
177	0xbd4cd994	-0.050012186
178	0xbe15b062	-0.14618066
179	0xbcf4316f	-0.029808728
180	0x3bb61bce	0.005557514
181	0x3d1f51ea	0.03889648
182	0x3a726e5d	0.0009248013
183	0xbf5452d6	-0.829389
184	0x3f1840fc	0.5947416
185	0x3e3a6940	0.18204212
186	0xad2a3acf	-9.676439e-12
187	0xb181bf5f	-3.7761505e-09
188	0x2c9bea7c	4.431398e-12
189	0xbc469813	-0.012121218
190	0xbd7d7ffd	-0.061889637
191	0x3b2564f3	0.0025237172

gc2.bias f4 [3]
0	0x3e80de36	0.25169533
1	0xbf8c5bfd	-1.0965573
2	0x3f3c7020	0.7360859
