save_model/baseline/st-GCN-Cora-20-0.650000.pth (torch, 370623 bytes, 4 tensors)

gc1.weight f4 [1433, 64]
0	0x3b865d58	0.004100483
1	0x3d3c2bc2	0.04594017
2	0x3cd73622	0.02627093
3	0xbc3b533c	-0.011433419
4	0x3c9b006f	0.018921105
5	0x3be77c34	0.0070643667
6	0xbb4ec139	-0.0031548275
7	0x3b745ded	0.003728743
8	0x3b9714b0	0.0046106204
9	0x3beaa453	0.0071607023
10	0xba1a3198	-0.0005882024
11	0x3ccf3d7f	0.025297878
12	0xbc35a39c	-0.011086371
13	0xba39ed8a	-0.0007092586
14	0x3c8b11a9	0.016976194
15	0xbbbb1ba8	-0.005710084
16	0xbb199324	-0.002343365
17	0x3c02bf1a	0.0079801325
18	0x3c8829b9	0.016621457
19	0xbca07238	-0.019585714
20	0xbc80175b	-0.015636137
21	0xbbd320f0	-0.0064431354
22	0xbbcbfcc8	-0.006225202
23	0xbb6d2cce	-0.0036190036
24	0x3c200d81	0.009768845
25	0xbaaa8c80	-0.0013011843
26	0x3c04fb8e	0.008116616
27	0xbb05b03e	-0.0020399238
28	0x3b825d1d	0.003978385
29	0x3b493eac	0.0030707521
30	0x3ce509c8	0.027958766
31	0x3c86739c	0.016412549
32	0xbc5e66ff	-0.013574361
33	0x3c876930	0.01652965
34	0xbc4b60ea	-0.012413243
35	0x3c6ebe02	0.014571669
36	0x2d5f5d9f	1.26968705e-11
37	0xbc298682	-0.010347011
38	0xbc9fbd66	-0.019499492
39	0xbcfcdae1	-0.030866088
40	0x3cd3ef25	0.025870869
41	0x3c93424c	0.017975949
42	0x3b67f7b5	0.0035395448
43	0x3cec89bc	0.02887427
44	0x2d386358	1.0481248e-11
45	0xbb9c7144	-0.0047742445
46	0xbbe6f732	-0.007048511
47	0xbb34e294	-0.0027600871
48	0xbc8ec6b2	-0.01742873
49	0xbb2e98b0	-0.0026641302
50	0xbcad211d	-0.021133954
51	0xbcb82ecc	-0.022483252
52	0xbd0a4605	-0.033758182
53	0xbc3098c6	-0.0107786115
54	0x3c49e29c	0.012322094
55	0x3cec5358	0.028848335
56	0xba8fe3e1	-0.0010977947
57	0x3c945f97	0.018111987
58	0x3bd2770f	0.0064228843
59	0xbcf01e28	-0.029311255
60	0xbd04a609	-0.032384906
61	0x3c7a1b12	0.015265243
62	0xbc84b416	-0.016199153
63	0x3b083ab1	0.0020786936
64	0xbcd9acde	-0.026571687
65	0x3d19f518	0.037587255
66	0xbd3b4c51	-0.045727078
67	0xbb2dbf8a	-0.0026511871
68	0xbd7a185a	-0.06105838
69	0x3deb7e9a	0.11498757
70	0xbc1cbdd0	-0.009566739
71	0xbd9020b0	-0.07037485
72	0x3cddaa68	0.027058795
73	0xbd141449	-0.036152158
74	0xbcaa82ae	-0.020814266
75	0xbd58bfa7	-0.05291715
76	0x3cf1ee2c	0.029532515
77	0x3d4181af	0.047242817
78	0xbd7df005	-0.06199648
79	0x3daaad0e	0.08333789
80	0x3e032a31	0.12809063
81	0x3ca72f5c	0.020408325
82	0x3c03528e	0.008015288
83	0x3d6fde90	0.05856186
84	0xbd795388	-0.060870677
85	0xbc60e5a5	-0.0137266265
86	0xbdea9e1c	-0.11455938
87	0xbd04c8ef	-0.032418188
88	0xbd9f638c	-0.07782659
89	0xbe0c15ae	-0.13680145
90	0xbbb8d230	-0.0056402907
91	0xbcc19f81	-0.023635628
92	0xbd50d69b	-0.050985914
93	0xbde069fb	-0.10957714
94	0x3dce6a1c	0.100788325
95	0xbc29af06	-0.01035667
96	0x3d31b8a6	0.043388985
97	0x3de8645d	0.11347268
98	0x3d8479d0	0.064685464
99	0x3d3e32de	0.04643523
100	0x2d1e207d	8.988474e-12
101	0x3c8db6b8	0.017299041
102	0x3d41d5bf	0.047322985
103	0xbd0daf3e	-0.034590952
104	0x3dac8861	0.0842445
105	0x3b2f2926	0.0026727407
106	0xbc9423fb	-0.018083563
107	0x3c80c6b6	0.015719753
108	0x2c5eefa3	3.1681123e-12
109	0x3b3db92b	0.002894948
110	0xbd645458	-0.0557445
111	0x3dbc3649	0.091900416
112	0x3b19a950	0.0023446865
113	0xbe03c095	-0.12866433
114	0xbcbac873	-0.02280066
115	0xbca128a6	-0.019672703
116	0x3d790814	0.06079872
117	0x3d7d1a26	0.061792515
118	0xbc90e1c5	-0.01768578
119	0xbd0e2704	-0.034705177
120	0x3d218b95	0.039439756
121	0x3dae3882	0.08506872
122	0x3baefe62	0.0053403834
123	0x3cd97bf4	0.026548363
124	0x3d5a7e31	0.053343
125	0xbd83ae75	-0.064297594
126	0x3d83943f	0.0642476
127	0xbd03ae55	-0.032148678
128	0x3d7511d5	0.05983146
129	0x3d1d5e37	0.03841993
130	0xbd30e42c	-0.04318635
131	0xbd5e92c6	-0.054339193
132	0x3c0d5a6e	0.008627517
133	0xbc1ad7f0	-0.009450898
134	0xbd61cb78	-0.055125684
135	0x3c34ea1e	0.011042146
136	0x3db9874b	0.09059008
137	0xbc65f962	-0.014036508
138	0xbcf4c18c	-0.029877447
139	0x3deda61f	0.11603951
140	0xbd81f336	-0.06345217
141	0x3d40bff2	0.047058053
142	0xbbf7d552	-0.0075632716
143	0x3d22fa5e	0.03978955
144	0x3d0c82a6	0.034304284
145	0x3d67e070	0.056610525
146	0xbd206d15	-0.03916653
147	0x3d460ed0	0.04835397
148	0xbcf3cdd4	-0.029761232
149	0xbd08114b	-0.033219617
150	0xbd605700	-0.05477047
151	0xbd33d877	-0.04390761
152	0xbd9bfdd1	-0.07616771
153	0xbd520b52	-0.051280327
154	0x3bac74ac	0.005262932
155	0xbcbaed86	-0.022818338
156	0x3d48ed70	0.049054563
157	0xbdab2e05	-0.08358387
158	0xbc8be181	-0.017075302
159	0xbd10b8c4	-0.035332456
160	0xbc7c0b53	-0.015383559
161	0x3df3ce5f	0.119045965
162	0x3cc2d6b4	0.023784019
163	0xbcc88acd	-0.024480248
164	0xad8dc97e	-1.6119325e-11
165	0x3d7cbf62	0.061705954
166	0x3cca4803	0.024692541
167	0xbd59cdeb	-0.053174894
168	0x3d79d53c	0.06099437
169	0xbcb0ce9c	-0.021582894
170	0x3d0f2939	0.034951422
171	0x3dca91bb	0.09891077
172	0x2d1b9df6	8.845804e-12
173	0xbc985990	-0.018597394
174	0xbc9cc320	-0.019136012
175	0xbd1acba1	-0.037791852
176	0x3c3b5648	0.011434145
177	0xbd9e5e3b	-0.07732817
178	0x3ce3b1a5	0.027794668
179	0xbcd514a5	-0.02601082
180	0x3c100c98	0.008792065
181	0xbc124dbf	-0.008929669
182	0x3cf58065	0.02996845
183	0x3c813421	0.015771927
184	0x3e15b5cd	0.14620133
185	0x3ce00abf	0.027348874
186	0xbdbb5d7f	-0.09148692
187	0xbd824d0b	-0.06362351
188	0xbc3a3027	-0.0113640195
189	0xbd37244a	-0.044712342
190	0x3cd0c260	0.02548331
191	0x3cf80382	0.03027511
192	0xbde32a8f	-0.11092102
193	0xbd932d5f	-0.07186388
194	0x3c7622f5	0.015022983
195	0x3dba75f3	0.09104528
196	0x3d63f673	0.055654954
197	0x3c56dc22	0.013114007
198	0x3d4d78bc	0.05016397
199	0x3af7e670	0.001891328
200	0xbdd0c675	-0.10194103
201	0x3d4ba858	0.049721092
202	0xbdf77c68	-0.120842755
203	0xbdb27968	-0.08714563
204	0x3d9be22a	0.07611497
205	0x3bca9684	0.0061824936
206	0xbd0a09d0	-0.033700764
207	0x3de3b128	0.11117774
208	0x3e1178db	0.14206259
209	0xbdd7da12	-0.105396405
210	0xbddb2717	-0.10700815
211	0x3dd74b30	0.10512388
212	0xbc9782b2	-0.018494938
213	0x3da66086	0.08123879
214	0x39a7c080	0.00031996146
215	0x3d05a6f4	0.032629922
216	0x3b6710d4	0.0035257833
217	0xbd8d2a37	-0.068928175
218	0x3d9195f6	0.07108681
219	0x3c7a0afb	0.015261407
220	0xbe1beea6	-0.15227756
221	0xbd551d2a	-0.052029766
222	0x3d010fa6	0.031509064
223	0xbd066ccb	-0.032818597
224	0xbc4b76cb	-0.012418459
225	0x3ce17451	0.027521284
226	0x3d9df699	0.077130504
227	0x3bdcb06c	0.0067348983
228	0x2ca8dd4a	4.799415e-12
229	0xbdad678e	-0.08467017
230	0x3ce14812	0.027500186
231	0x3d4891aa	0.04896704
232	0xbd1d88d0	-0.038460553
233	0xbd6fbbbb	-0.058528643
234	0x3cfe8fff	0.031074522
235	0xbd242899	-0.04007778
236	0xac769307	-3.504032e-12
237	0xbd15bfd0	-0.03655988
238	0xbe1e24db	-0.15443747
239	0x3cb40910	0.021976978
240	0xbc216318	-0.009850286
241	0xbd3aa303	-0.045565616
242	0x3c90d52b	0.017679771
243	0x3dc2857a	0.09498115
244	0x3e0dcb4e	0.13847086
245	0xbcbf8cba	-0.023382533
246	0xbe310a40	-0.17289066
247	0xbccf80df	-0.025330005
248	0xbd45ffd2	-0.048339672
249	0x3e1df6dd	0.15426202
250	0x3dd1329f	0.10214733
251	0x3d5ab0bc	0.053391203
252	0x3e219143	0.15778069
253	0x3b1a878b	0.0023579325
254	0x3d9445f1	0.07239903
255	0x3d1d5239	0.03840849

gc1.bias f4 [64]
0	0x3dc98e55	0.09841601
1	0x3d43afef	0.047775205
2	0x3d41c2e1	0.04730499
3	0x3d2fcbe5	0.04291906
4	0x3d6b6cf5	0.057476956
5	0x3d32b194	0.043626383
6	0x3dd98e57	0.10622852
7	0x3daf0593	0.08545985
8	0x3d358ce2	0.04432381
9	0x3dad85b9	0.08472771
10	0x3d6bfc6c	0.057613775
11	0x3d551061	0.052017573
12	0x3d3816c6	0.044943593
13	0x3d438b3e	0.047740214
14	0x3d4105be	0.047124617
15	0x3d765768	0.06014195
16	0x3d36610c	0.044526145
17	0x3d709ed3	0.058745217
18	0x3d4ef3cd	0.050525475
19	0x3d4bd9ed	0.049768377
20	0x3dc7992a	0.097460106
21	0x3dc2ee36	0.095180914
22	0x3d875f89	0.06610019
23	0x3d9cd819	0.07658405
24	0x3d854de0	0.06508994
25	0x3d794085	0.060852546
26	0x3d994950	0.074846864
27	0x3db679f4	0.089099795
28	0x3d4eb572	0.05046601
29	0x3d6a3083	0.05717517
30	0x3d3f4d02	0.0467043
31	0x3d5bc267	0.053652193
32	0x3d48315e	0.048875205
33	0x3d8d504b	0.0690008
34	0x3d6daab1	0.058024112
35	0x3d6e86c2	0.058233984
36	0xbce8675d	-0.0283696
37	0x3d9605fb	0.073253594
38	0x3d57a5dd	0.052648414
39	0x3d88872b	0.06666406
40	0x3d0b8a54	0.034067467
41	0x3d7c9cf0	0.061673105
42	0x3d0bd5e7	0.03413954
43	0x3d37a541	0.044835333
44	0xbaf0bae1	-0.0018366241
45	0x3d909aa3	0.070607446
46	0x3d695e14	0.056974486
47	0x3d237ccc	0.039913937
48	0x3d9c2ca4	0.07625702
49	0x3d8a7267	0.06760102
50	0x3d5b7127	0.053574707
51	0x3d86a632	0.06574668
52	0x3d81a4c9	0.063302584
53	0x3dcec813	0.10096755
54	0x3d224725	0.03961863
55	0x3d489096	0.048966013
56	0x3d8c21f4	0.068424135
57	0x3d808ead	0.06277213
58	0x3db65086	0.089020774
59	0x3d9f3720	0.07774186
60	0x3d89c17d	0.06726358
61	0x3d5eb9f2	0.05437655
62	0x3d81c89c	0.06337091
63	0x3d3a22a3	0.04544319

gc2.weight f4 [64, 7]
0	0x3f3d752a	0.74006903
1	0xbfad0d55	-1.3519694
2	0xbf91f519	-1.1402923
3	0x3fa1b454	1.2633157
4	0x3f8c2cf4	1.0951219
5	0x3f9b630d	1.2139603
6	0xbfc3ca9a	-1.5296204
7	0xbf99a043	-1.2002033
8	0x3f3107e9	0.69152695
9	0x3f900445	1.1251303
10	0xbfa5780b	-1.2927259
11	0x3fb319ad	1.3992211
12	0x3f964f55	1.174296
13	0xbfbc0f2a	-1.4692128
14	0x3f5e27df	0.8677959
15	0x3e3cb5cd	0.18428726
16	0xbfcac7a3	-1.5842174
17	0xc003d3bf	-2.059799
18	0x3fca404e	1.5800874
19	0x3e4622a8	0.19349158
20	0x3f5dd9de	0.86660564
21	0x3f6c5fec	0.92333865
22	0x3fb45f43	1.4091572
23	0x3f98afb1	1.1928617
24	0xbfb793f2	-1.4342024
25	0xbfa6c007	-1.3027352
26	0xbfb725c6	-1.4308403
27	0x3f897297	1.0738095
28	0x3f9b1720	1.2116432
29	0x3f56fcbe	0.83979404
30	0x3e95208a	0.29126388
31	0xbf97dc57	-1.1864117
32	0x3f6b681c	0.91955733
33	0xbfb31c7a	-1.3993065
34	0xbeda581c	-0.42645347
35	0xbfc72335	-1.5557619
36	0x3fa757cf	1.3073672
37	0x3f8f8716	1.12131
38	0xbfad0cc5	-1.3519522
39	0xbfa2233f	-1.2667006
40	0x3f7fc127	0.999041
41	0x3f8373a4	1.0269666
42	0xbfa8ae6c	-1.3178229
43	0xbf0b4310	-0.54399204
44	0x3fa80530	1.3126583
45	0x3f7849b8	0.96987486
46	0x3f75ac80	0.9596634
47	0xbfa1d791	-1.2643911
48	0xbd6891af	-0.05677956
49	0x3f780410	0.968812
50	0xbf8d0238	-1.1016302
51	0xbf8c9ce1	-1.0985376
52	0x3fc4835b	1.5352587
53	0x3fb99464	1.449841
54	0xbf817184	-1.0112767
55	0xbf95c50d	-1.170076
56	0x3f8b78bf	1.0896224
57	0x3f95928a	1.1685345
58	0x3f93d4b2	1.1549284
59	0xbf9e8f05	-1.2387396
60	0xbf9318fb	-1.1491998
61	0x3f85b2e5	1.0445219
62	0xbfc2a9c2	-1.5208056
63	0x3b82d3a1	0.0039925133
64	0xbf685a10	-0.90762424
65	0xbf86e441	-1.0538408
66	0x3fafb95a	1.372844
67	0x3fbcfc01	1.4764405
68	0xbf76a963	-0.96352214
69	0xbe930310	-0.28713274
70	0x3ef0d4e7	0.47037432
71	0xbf9d12d2	-1.2271369
72	0x3f954f05	1.166474
73	0xbf9aaba1	-1.2083627
74	0xbf903ba8	-1.1268206
75	0x3f7ab377	0.9793009
76	0x3f97a652	1.1847632
77	0x3fbfca0d	1.4983536
78	0x3ee18cf1	0.44052842
79	0xbfc733b9	-1.556266
80	0xbfff4af1	-1.9944745
81	0x3fc5f97f	1.5466765
82	0x3fd18946	1.6370018
83	0xbfc05bc0	-1.5028
84	0x3f2a73bd	0.6658285
85	0x3fb6c27d	1.4278103
86	0x3fcdb619	1.6071197
87	0xbfe7ae5c	-1.8100085
88	0xbfc7ef83	-1.5619968
89	0xbfc5695f	-1.5422782
90	0x3fa1b0bc	1.263206
91	0x3f951549	1.1647121
92	0x3f8d9612	1.1061423
93	0xbfb164d3	-1.3858894
94	0xbfc50e06	-1.5394905
95	0xbf9f16cc	-1.2428832
96	0x3f99e6ca	1.2023556
97	0x3f89be59	1.0761214
98	0xbf39e873	-0.72620314
99	0xbf17143e	-0.5901526
100	0x3fcb96c0	1.590538
101	0xbf6a5699	-0.9153839
102	0x3fcf20e8	1.6181917
103	0xbf327e4c	-0.69723964
104	0xbf4feebe	-0.81223667
105	0x3f2f551d	0.6848925
106	0x3f90e672	1.1320326
107	0xbfddec66	-1.7337768
108	0x3df53bd1	0.119743
109	0xbfdd8f4d	-1.7309357
110	0x3ecfc7f4	0.4058224
111	0x3f951758	1.1647749
112	0xbfa1922c	-1.2622733
113	0x3fd8a240	1.6924515
114	0xbf296d7d	-0.6618269
115	0x3fc6bd08	1.5526438
116	0xbf8cc884	-1.0998693
117	0xbf80b914	-1.0056481
118	0xbf2105e8	-0.6289964
119	0xbf550b2d	-0.8322018
120	0xbf9edb2a	-1.2410634
121	0x3fb2d36b	1.397077
122	0x3fbbbad7	1.4666394
123	0xbf9de401	-1.2335206
124	0x3fa7322e	1.3062189
125	0xbfb02e80	-1.3764191
126	0xbf6a9c26	-0.91644514
127	0xbf9a95d2	-1.2076972
128	0x3fde332a	1.7359364
129	0xbfb96d69	-1.4486514
130	0xbf935a38	-1.1511908
131	0x3fb2d351	1.3970739
132	0x3fb3e10c	1.4053054
133	0x3f9c652a	1.2218373
134	0x3fddcec3	1.7328724
135	0xbf87f284	-1.0620885
136	0x3fc1cb2d	1.5140129
137	0xbf9d0460	-1.226696
138	0xbf8d5510	-1.1041584
139	0xbfad65b6	-1.3546665
140	0x3f320003	0.6953127
141	0xbf8ee9e0	-1.1165123
142	0x3fab21b5	1.3369662
143	0x3f973d62	1.1815608
144	0x3eedca92	0.4644361
145	0xbf922725	-1.1418196
146	0xbfa39b3f	-1.2781752
147	0xbe38e39d	-0.18055578
148	0xbf6fdce5	-0.93696433
149	0xbf77ed5e	-0.9684657
150	0x3f9b645b	1.2140001
151	0x3f9721ba	1.1807168
152	0xbfb7972e	-1.4343011
153	0x3f60abce	0.87762153
154	0x3fc481f5	1.535216
155	0xbf89b2f7	-1.0757741
156	0xbf750832	-0.9571563
157	0xbf6f0026	-0.933596
158	0x3fb05e76	1.3778827
159	0xbf785c06	-0.97015417
160	0x3f66a56d	0.9009617
161	0x3f2ae8b8	0.6676135
162	0xbf64f684	-0.89438653
163	0xbf63f757	-0.89049286
164	0x3f48315a	0.78200305
165	0x3eda5720	0.42644596
166	0xbf277a6e	-0.6542119
167	0x3ebf36e5	0.3734657
168	0xbdeb2fc3	-0.11483719
169	0xbf779ea9	-0.9672647
170	0x3f9a45ec	1.2052588
171	0xbfa49c96	-1.2860286
172	0x3fa8d02b	1.3188528
173	0xbf9b5ee9	-1.2138339
174	0x3f93dd33	1.155188
175	0x3fd14272	1.6348403
176	0xbf8b89a9	-1.0901386
177	0x3fab871c	1.3400607
178	0xbf95a760	-1.1691704
179	0x3fb5b38e	1.4195421
180	0xbf87322a	-1.0562184
181	0xbfa20bd6	-1.2659862
182	0xbf2bc409	-0.67096
183	0xbf41275b	-0.75450677
184	0xbf556afe	-0.8336638
185	0x3fcc2bd4	1.5950875
186	0x3fc39572	1.5279982
187	0xbf6e4f02	-0.93089306
188	0xbf61c235	-0.8818696
189	0xbf8645ab	-1.0490011
190	0xbf819f9f	-1.0126837
191	0x3fb44205	1.4082648
192	0x3fb280d5	1.3945566
193	0x3f8875e0	1.0660973
194	0xbf9a19e2	-1.2039149
195	0xbf971ee0	-1.1806297
196	0x3fc1eac8	1.5149775
197	0xbf11b0ac	-0.56910205
198	0x3f9b4ae6	1.2132232
199	0xbf8899ef	-1.0671977
200	0xbf71e034	-0.9448273
201	0x3fa79e5d	1.3095204
202	0xbfacf219	-1.3511382
203	0x3f956d69	1.1674014
204	0xbf84f27e	-1.0386503
205	0x3f5d5d04	0.86470056
206	0xbfef1f4c	-1.8681426
207	0x3fc16f30	1.5112057
208	0xbfa6998b	-1.3015608
209	0x3f300f07	0.6877293
210	0xbfac66cc	-1.3468871
211	0x3f86760b	1.0504774
212	0xbfad7a50	-1.3552952
213	0xbfc647cf	-1.5490664
214	0x3fa1e831	1.2648984
215	0x3f939e59	1.1532699
216	0x3f82ed37	1.0228642
217	0xbecbc136	-0.39795846
218	0xbf951da1	-1.1649667
219	0xbfa8b849	-1.3181239
220	0xbfb690c8	-1.4262934
221	0x3fb9b237	1.4507512
222	0x3fbdca7f	1.4827422
223	0x3fb015cc	1.3756652
224	0x3f3a3bb0	0.72747326
225	0x3f7cfe00	0.98825073
226	0x3f21183c	0.62927604
227	0xbfbb6b8a	-1.4642193
228	0xbfae3fc7	-1.3613213
229	0x3e990412	0.29885918
230	0x3f5cff04	0.8632662
231	0xbfcdb7f1	-1.607176
232	0x3fb1ec32	1.3900206
233	0xbfab8395	-1.3399531
234	0x3faa3122	1.3296244
235	0x3f533bd4	0.82513165
236	0x3f96ca7f	1.1780547
237	0xbfc53952	-1.5408118
238	0xbf93c539	-1.1544563
239	0x3f6f42aa	0.93461096
240	0x3fc4cbc0	1.537468
241	0x3fc1c8d5	1.5139414
242	0xbf934b78	-1.1507406
243	0xbfaa44a8	-1.3302202
244	0xbf8bdd21	-1.0926858
245	0xbf8ca4fb	-1.0987848
246	0x3cdbe285	0.026841411
247	0xbf363de9	-0.7118822
248	0xbf7fd463	-0.9993345
249	0x3f00ae2a	0.50265753
250	0x3f828f32	1.019995
251	0x3f99dd39	1.2020637
252	0x2e183a42	3.4612542e-11
253	0x3b78d846	0.0037970706
254	0xb421719e	-1.5035627e-07
255	0x3acc4177	0.0015583475

gc2.bias f4 [7]
0	0xbfb80056	-1.4375103
1	0xbe6914d4	-0.22761852
2	0x3e7b2591	0.24526049
3	0x3f22f571	0.63655764
4	0x3e943cb2	0.28952557
5	0x3daf38dc	0.08555767
6	0xbef05377	-0.4693868
